2025-03-06 13:11:45.612752: I external/org_tensorflow/tensorflow/core/util/port.cc:110] oneDNN custom operations are on. You may see slightly different numerical results due to floating-point round-off errors from different computation orders. To turn them off, set the environment variable `TF_ENABLE_ONEDNN_OPTS=0`.
======== BEGIN Original Module =========
module {
  func.func @main(%arg0: tensor<?x?xf32>) -> tensor<?x10xf32> attributes {tf.entry_function = {input_placements = "gpu", inputs = "input.1_", output_placements = "gpu", outputs = "8"}} {
    %0 = mhlo.constant dense_resource<__elided__> : tensor<10xf32>
    %1 = mhlo.constant dense_resource<__elided__> : tensor<10x10xf32>
    %2 = mhlo.constant dense_resource<__elided__> : tensor<10x10xf32>
    %3 = mhlo.constant dense_resource<__elided__> : tensor<10xf32>
    %4 = "mhlo.transpose"(%1) {permutation = dense<[1, 0]> : tensor<2xi64>} : (tensor<10x10xf32>) -> tensor<10x10xf32>
    %5 = "mhlo.dot"(%arg0, %4) : (tensor<?x?xf32>, tensor<10x10xf32>) -> tensor<?x10xf32>
    %6 = chlo.broadcast_add %5, %0 : (tensor<?x10xf32>, tensor<10xf32>) -> tensor<?x10xf32>
    %7 = "chlo.constant_like"(%6) {value = 0.000000e+00 : f32} : (tensor<?x10xf32>) -> tensor<?x10xf32>
    %8 = mhlo.maximum %6, %7 : tensor<?x10xf32>
    %9 = "mhlo.transpose"(%2) {permutation = dense<[1, 0]> : tensor<2xi64>} : (tensor<10x10xf32>) -> tensor<10x10xf32>
    %10 = "mhlo.dot"(%8, %9) : (tensor<?x10xf32>, tensor<10x10xf32>) -> tensor<?x10xf32>
    %11 = chlo.broadcast_add %10, %3 : (tensor<?x10xf32>, tensor<10xf32>) -> tensor<?x10xf32>
    %12 = "chlo.constant_like"(%11) {value = 0.000000e+00 : f32} : (tensor<?x10xf32>) -> tensor<?x10xf32>
    %13 = mhlo.maximum %11, %12 : tensor<?x10xf32>
    return %13 : tensor<?x10xf32>
  }
}

======= END Original Module ==========
[DISC] Load Input IR takes: 4.071000e-03 s.
[[ INFO ]] Running TF2XLA
// -----// IR Dump After Canonicalizer (canonicalize) //----- //
func.func @main(%arg0: tensor<?x?xf32>) -> tensor<?x10xf32> attributes {tf.entry_function = {input_placements = "gpu", inputs = "input.1_", output_placements = "gpu", outputs = "8"}} {
  %0 = mhlo.constant dense_resource<__elided__> : tensor<10x10xf32>
  %1 = mhlo.constant dense_resource<__elided__> : tensor<10x10xf32>
  %2 = mhlo.constant dense<[-0.0684198961, -0.0121491952, 0.127185106, -0.18503201, -0.194590867, 0.25447163, -4.787710e-02, 0.0185489878, 0.0749137476, 0.0754040703]> : tensor<10xf32>
  %3 = mhlo.constant dense<[0.110269576, -0.209282219, 0.023534907, -0.111158408, 0.166983217, -4.79283306E-4, -0.00845900736, -0.00818163063, 0.281652302, 0.121823721]> : tensor<10xf32>
  %4 = "mhlo.dot"(%arg0, %1) : (tensor<?x?xf32>, tensor<10x10xf32>) -> tensor<?x10xf32>
  %5 = chlo.broadcast_add %4, %2 : (tensor<?x10xf32>, tensor<10xf32>) -> tensor<?x10xf32>
  %6 = "chlo.constant_like"(%5) {value = 0.000000e+00 : f32} : (tensor<?x10xf32>) -> tensor<?x10xf32>
  %7 = mhlo.maximum %5, %6 : tensor<?x10xf32>
  %8 = "mhlo.dot"(%7, %0) : (tensor<?x10xf32>, tensor<10x10xf32>) -> tensor<?x10xf32>
  %9 = chlo.broadcast_add %8, %3 : (tensor<?x10xf32>, tensor<10xf32>) -> tensor<?x10xf32>
  %10 = "chlo.constant_like"(%9) {value = 0.000000e+00 : f32} : (tensor<?x10xf32>) -> tensor<?x10xf32>
  %11 = mhlo.maximum %9, %10 : tensor<?x10xf32>
  return %11 : tensor<?x10xf32>
}

// -----// IR Dump After Inliner (inline) //----- //
module {
  func.func @main(%arg0: tensor<?x?xf32>) -> tensor<?x10xf32> attributes {tf.entry_function = {input_placements = "gpu", inputs = "input.1_", output_placements = "gpu", outputs = "8"}} {
    %0 = mhlo.constant dense_resource<__elided__> : tensor<10x10xf32>
    %1 = mhlo.constant dense_resource<__elided__> : tensor<10x10xf32>
    %2 = mhlo.constant dense<[-0.0684198961, -0.0121491952, 0.127185106, -0.18503201, -0.194590867, 0.25447163, -4.787710e-02, 0.0185489878, 0.0749137476, 0.0754040703]> : tensor<10xf32>
    %3 = mhlo.constant dense<[0.110269576, -0.209282219, 0.023534907, -0.111158408, 0.166983217, -4.79283306E-4, -0.00845900736, -0.00818163063, 0.281652302, 0.121823721]> : tensor<10xf32>
    %4 = "mhlo.dot"(%arg0, %1) : (tensor<?x?xf32>, tensor<10x10xf32>) -> tensor<?x10xf32>
    %5 = chlo.broadcast_add %4, %2 : (tensor<?x10xf32>, tensor<10xf32>) -> tensor<?x10xf32>
    %6 = "chlo.constant_like"(%5) {value = 0.000000e+00 : f32} : (tensor<?x10xf32>) -> tensor<?x10xf32>
    %7 = mhlo.maximum %5, %6 : tensor<?x10xf32>
    %8 = "mhlo.dot"(%7, %0) : (tensor<?x10xf32>, tensor<10x10xf32>) -> tensor<?x10xf32>
    %9 = chlo.broadcast_add %8, %3 : (tensor<?x10xf32>, tensor<10xf32>) -> tensor<?x10xf32>
    %10 = "chlo.constant_like"(%9) {value = 0.000000e+00 : f32} : (tensor<?x10xf32>) -> tensor<?x10xf32>
    %11 = mhlo.maximum %9, %10 : tensor<?x10xf32>
    return %11 : tensor<?x10xf32>
  }
}


// -----// IR Dump After SCCP (sccp) //----- //
module {
  func.func @main(%arg0: tensor<?x?xf32>) -> tensor<?x10xf32> attributes {tf.entry_function = {input_placements = "gpu", inputs = "input.1_", output_placements = "gpu", outputs = "8"}} {
    %0 = mhlo.constant dense<[0.110269576, -0.209282219, 0.023534907, -0.111158408, 0.166983217, -4.79283306E-4, -0.00845900736, -0.00818163063, 0.281652302, 0.121823721]> : tensor<10xf32>
    %1 = mhlo.constant dense<[-0.0684198961, -0.0121491952, 0.127185106, -0.18503201, -0.194590867, 0.25447163, -4.787710e-02, 0.0185489878, 0.0749137476, 0.0754040703]> : tensor<10xf32>
    %2 = mhlo.constant dense_resource<__elided__> : tensor<10x10xf32>
    %3 = mhlo.constant dense_resource<__elided__> : tensor<10x10xf32>
    %4 = "mhlo.dot"(%arg0, %2) : (tensor<?x?xf32>, tensor<10x10xf32>) -> tensor<?x10xf32>
    %5 = chlo.broadcast_add %4, %1 : (tensor<?x10xf32>, tensor<10xf32>) -> tensor<?x10xf32>
    %6 = "chlo.constant_like"(%5) {value = 0.000000e+00 : f32} : (tensor<?x10xf32>) -> tensor<?x10xf32>
    %7 = mhlo.maximum %5, %6 : tensor<?x10xf32>
    %8 = "mhlo.dot"(%7, %3) : (tensor<?x10xf32>, tensor<10x10xf32>) -> tensor<?x10xf32>
    %9 = chlo.broadcast_add %8, %0 : (tensor<?x10xf32>, tensor<10xf32>) -> tensor<?x10xf32>
    %10 = "chlo.constant_like"(%9) {value = 0.000000e+00 : f32} : (tensor<?x10xf32>) -> tensor<?x10xf32>
    %11 = mhlo.maximum %9, %10 : tensor<?x10xf32>
    return %11 : tensor<?x10xf32>
  }
}


// -----// IR Dump After SCCP (sccp) //----- //
module {
  func.func @main(%arg0: tensor<?x?xf32>) -> tensor<?x10xf32> attributes {tf.entry_function = {input_placements = "gpu", inputs = "input.1_", output_placements = "gpu", outputs = "8"}} {
    %0 = mhlo.constant dense_resource<__elided__> : tensor<10x10xf32>
    %1 = mhlo.constant dense_resource<__elided__> : tensor<10x10xf32>
    %2 = mhlo.constant dense<[-0.0684198961, -0.0121491952, 0.127185106, -0.18503201, -0.194590867, 0.25447163, -4.787710e-02, 0.0185489878, 0.0749137476, 0.0754040703]> : tensor<10xf32>
    %3 = mhlo.constant dense<[0.110269576, -0.209282219, 0.023534907, -0.111158408, 0.166983217, -4.79283306E-4, -0.00845900736, -0.00818163063, 0.281652302, 0.121823721]> : tensor<10xf32>
    %4 = "mhlo.dot"(%arg0, %1) : (tensor<?x?xf32>, tensor<10x10xf32>) -> tensor<?x10xf32>
    %5 = chlo.broadcast_add %4, %2 : (tensor<?x10xf32>, tensor<10xf32>) -> tensor<?x10xf32>
    %6 = "chlo.constant_like"(%5) {value = 0.000000e+00 : f32} : (tensor<?x10xf32>) -> tensor<?x10xf32>
    %7 = mhlo.maximum %5, %6 : tensor<?x10xf32>
    %8 = "mhlo.dot"(%7, %0) : (tensor<?x10xf32>, tensor<10x10xf32>) -> tensor<?x10xf32>
    %9 = chlo.broadcast_add %8, %3 : (tensor<?x10xf32>, tensor<10xf32>) -> tensor<?x10xf32>
    %10 = "chlo.constant_like"(%9) {value = 0.000000e+00 : f32} : (tensor<?x10xf32>) -> tensor<?x10xf32>
    %11 = mhlo.maximum %9, %10 : tensor<?x10xf32>
    return %11 : tensor<?x10xf32>
  }
}


// -----// IR Dump After LegalizeTF (xla-legalize-tf) //----- //
module {
  func.func @main(%arg0: tensor<?x?xf32>) -> tensor<?x10xf32> attributes {tf.entry_function = {input_placements = "gpu", inputs = "input.1_", output_placements = "gpu", outputs = "8"}} {
    %0 = mhlo.constant dense_resource<__elided__> : tensor<10x10xf32>
    %1 = mhlo.constant dense_resource<__elided__> : tensor<10x10xf32>
    %2 = mhlo.constant dense<[-0.0684198961, -0.0121491952, 0.127185106, -0.18503201, -0.194590867, 0.25447163, -4.787710e-02, 0.0185489878, 0.0749137476, 0.0754040703]> : tensor<10xf32>
    %3 = mhlo.constant dense<[0.110269576, -0.209282219, 0.023534907, -0.111158408, 0.166983217, -4.79283306E-4, -0.00845900736, -0.00818163063, 0.281652302, 0.121823721]> : tensor<10xf32>
    %4 = "mhlo.dot"(%arg0, %1) : (tensor<?x?xf32>, tensor<10x10xf32>) -> tensor<?x10xf32>
    %5 = shape.shape_of %4 : tensor<?x10xf32> -> tensor<2xindex>
    %6 = shape.shape_of %2 : tensor<10xf32> -> tensor<1xindex>
    %7 = shape.cstr_broadcastable %5, %6 : tensor<2xindex>, tensor<1xindex>
    %8 = shape.assuming %7 -> (tensor<?x10xf32>) {
      %22 = shape.shape_of %4 : tensor<?x10xf32> -> tensor<2xindex>
      %23 = shape.const_shape [10] : tensor<1xindex>
      %24 = shape.broadcast %22, %23 : tensor<2xindex>, tensor<1xindex> -> tensor<2xindex>
      %25 = "mhlo.dynamic_broadcast_in_dim"(%4, %24) {broadcast_dimensions = dense<[0, 1]> : tensor<2xi64>} : (tensor<?x10xf32>, tensor<2xindex>) -> tensor<?x10xf32>
      %26 = "mhlo.dynamic_broadcast_in_dim"(%2, %24) {broadcast_dimensions = dense<1> : tensor<1xi64>} : (tensor<10xf32>, tensor<2xindex>) -> tensor<?x10xf32>
      %27 = mhlo.add %25, %26 : tensor<?x10xf32>
      shape.assuming_yield %27 : tensor<?x10xf32>
    }
    %9 = mhlo.constant dense<0.000000e+00> : tensor<f32>
    %10 = shape.shape_of %8 : tensor<?x10xf32> -> tensor<2xindex>
    %11 = "mhlo.dynamic_broadcast_in_dim"(%9, %10) {broadcast_dimensions = dense<> : tensor<0xi64>} : (tensor<f32>, tensor<2xindex>) -> tensor<?x10xf32>
    %12 = mhlo.maximum %8, %11 : tensor<?x10xf32>
    %13 = "mhlo.dot"(%12, %0) : (tensor<?x10xf32>, tensor<10x10xf32>) -> tensor<?x10xf32>
    %14 = shape.shape_of %13 : tensor<?x10xf32> -> tensor<2xindex>
    %15 = shape.shape_of %3 : tensor<10xf32> -> tensor<1xindex>
    %16 = shape.cstr_broadcastable %14, %15 : tensor<2xindex>, tensor<1xindex>
    %17 = shape.assuming %16 -> (tensor<?x10xf32>) {
      %22 = shape.shape_of %13 : tensor<?x10xf32> -> tensor<2xindex>
      %23 = shape.const_shape [10] : tensor<1xindex>
      %24 = shape.broadcast %22, %23 : tensor<2xindex>, tensor<1xindex> -> tensor<2xindex>
      %25 = "mhlo.dynamic_broadcast_in_dim"(%13, %24) {broadcast_dimensions = dense<[0, 1]> : tensor<2xi64>} : (tensor<?x10xf32>, tensor<2xindex>) -> tensor<?x10xf32>
      %26 = "mhlo.dynamic_broadcast_in_dim"(%3, %24) {broadcast_dimensions = dense<1> : tensor<1xi64>} : (tensor<10xf32>, tensor<2xindex>) -> tensor<?x10xf32>
      %27 = mhlo.add %25, %26 : tensor<?x10xf32>
      shape.assuming_yield %27 : tensor<?x10xf32>
    }
    %18 = mhlo.constant dense<0.000000e+00> : tensor<f32>
    %19 = shape.shape_of %17 : tensor<?x10xf32> -> tensor<2xindex>
    %20 = "mhlo.dynamic_broadcast_in_dim"(%18, %19) {broadcast_dimensions = dense<> : tensor<0xi64>} : (tensor<f32>, tensor<2xindex>) -> tensor<?x10xf32>
    %21 = mhlo.maximum %17, %20 : tensor<?x10xf32>
    return %21 : tensor<?x10xf32>
  }
}


// -----// IR Dump After DiscLowerTfPass (disc-lower-tf) //----- //
func.func @main(%arg0: tensor<?x?xf32>) -> tensor<?x10xf32> attributes {tf.entry_function = {input_placements = "gpu", inputs = "input.1_", output_placements = "gpu", outputs = "8"}} {
  %0 = shape.const_witness true
  %1 = mhlo.constant dense<0.000000e+00> : tensor<f32>
  %2 = shape.const_shape [10] : tensor<1xindex>
  %3 = mhlo.constant dense_resource<__elided__> : tensor<10x10xf32>
  %4 = mhlo.constant dense_resource<__elided__> : tensor<10x10xf32>
  %5 = mhlo.constant dense<[-0.0684198961, -0.0121491952, 0.127185106, -0.18503201, -0.194590867, 0.25447163, -4.787710e-02, 0.0185489878, 0.0749137476, 0.0754040703]> : tensor<10xf32>
  %6 = mhlo.constant dense<[0.110269576, -0.209282219, 0.023534907, -0.111158408, 0.166983217, -4.79283306E-4, -0.00845900736, -0.00818163063, 0.281652302, 0.121823721]> : tensor<10xf32>
  %7 = "mhlo.dot"(%arg0, %4) : (tensor<?x?xf32>, tensor<10x10xf32>) -> tensor<?x10xf32>
  %8 = shape.assuming %0 -> (tensor<?x10xf32>) {
    %17 = shape.shape_of %7 : tensor<?x10xf32> -> tensor<2xindex>
    %18 = shape.broadcast %17, %2 : tensor<2xindex>, tensor<1xindex> -> tensor<2xindex>
    %19 = "mhlo.dynamic_broadcast_in_dim"(%7, %18) {broadcast_dimensions = dense<[0, 1]> : tensor<2xi64>} : (tensor<?x10xf32>, tensor<2xindex>) -> tensor<?x10xf32>
    %20 = "mhlo.dynamic_broadcast_in_dim"(%5, %18) {broadcast_dimensions = dense<1> : tensor<1xi64>} : (tensor<10xf32>, tensor<2xindex>) -> tensor<?x10xf32>
    %21 = mhlo.add %19, %20 : tensor<?x10xf32>
    shape.assuming_yield %21 : tensor<?x10xf32>
  }
  %9 = shape.shape_of %8 : tensor<?x10xf32> -> tensor<2xindex>
  %10 = "mhlo.dynamic_broadcast_in_dim"(%1, %9) {broadcast_dimensions = dense<> : tensor<0xi64>} : (tensor<f32>, tensor<2xindex>) -> tensor<?x10xf32>
  %11 = mhlo.maximum %8, %10 : tensor<?x10xf32>
  %12 = "mhlo.dot"(%11, %3) : (tensor<?x10xf32>, tensor<10x10xf32>) -> tensor<?x10xf32>
  %13 = shape.assuming %0 -> (tensor<?x10xf32>) {
    %17 = shape.shape_of %12 : tensor<?x10xf32> -> tensor<2xindex>
    %18 = shape.broadcast %17, %2 : tensor<2xindex>, tensor<1xindex> -> tensor<2xindex>
    %19 = "mhlo.dynamic_broadcast_in_dim"(%12, %18) {broadcast_dimensions = dense<[0, 1]> : tensor<2xi64>} : (tensor<?x10xf32>, tensor<2xindex>) -> tensor<?x10xf32>
    %20 = "mhlo.dynamic_broadcast_in_dim"(%6, %18) {broadcast_dimensions = dense<1> : tensor<1xi64>} : (tensor<10xf32>, tensor<2xindex>) -> tensor<?x10xf32>
    %21 = mhlo.add %19, %20 : tensor<?x10xf32>
    shape.assuming_yield %21 : tensor<?x10xf32>
  }
  %14 = shape.shape_of %13 : tensor<?x10xf32> -> tensor<2xindex>
  %15 = "mhlo.dynamic_broadcast_in_dim"(%1, %14) {broadcast_dimensions = dense<> : tensor<0xi64>} : (tensor<f32>, tensor<2xindex>) -> tensor<?x10xf32>
  %16 = mhlo.maximum %13, %15 : tensor<?x10xf32>
  return %16 : tensor<?x10xf32>
}

// -----// IR Dump After Canonicalizer (canonicalize) //----- //
func.func @main(%arg0: tensor<?x?xf32>) -> tensor<?x10xf32> attributes {tf.entry_function = {input_placements = "gpu", inputs = "input.1_", output_placements = "gpu", outputs = "8"}} {
  %0 = mhlo.constant dense<0.000000e+00> : tensor<f32>
  %1 = shape.const_shape [10] : tensor<1xindex>
  %2 = mhlo.constant dense_resource<__elided__> : tensor<10x10xf32>
  %3 = mhlo.constant dense_resource<__elided__> : tensor<10x10xf32>
  %4 = mhlo.constant dense<[-0.0684198961, -0.0121491952, 0.127185106, -0.18503201, -0.194590867, 0.25447163, -4.787710e-02, 0.0185489878, 0.0749137476, 0.0754040703]> : tensor<10xf32>
  %5 = mhlo.constant dense<[0.110269576, -0.209282219, 0.023534907, -0.111158408, 0.166983217, -4.79283306E-4, -0.00845900736, -0.00818163063, 0.281652302, 0.121823721]> : tensor<10xf32>
  %6 = "mhlo.dot"(%arg0, %3) : (tensor<?x?xf32>, tensor<10x10xf32>) -> tensor<?x10xf32>
  %7 = shape.shape_of %6 : tensor<?x10xf32> -> tensor<2xindex>
  %8 = shape.broadcast %7, %1 : tensor<2xindex>, tensor<1xindex> -> tensor<2xindex>
  %9 = "mhlo.dynamic_broadcast_in_dim"(%6, %8) {broadcast_dimensions = dense<[0, 1]> : tensor<2xi64>} : (tensor<?x10xf32>, tensor<2xindex>) -> tensor<?x10xf32>
  %10 = "mhlo.dynamic_broadcast_in_dim"(%4, %8) {broadcast_dimensions = dense<1> : tensor<1xi64>} : (tensor<10xf32>, tensor<2xindex>) -> tensor<?x10xf32>
  %11 = mhlo.add %9, %10 : tensor<?x10xf32>
  %12 = shape.shape_of %11 : tensor<?x10xf32> -> tensor<2xindex>
  %13 = "mhlo.dynamic_broadcast_in_dim"(%0, %12) {broadcast_dimensions = dense<> : tensor<0xi64>} : (tensor<f32>, tensor<2xindex>) -> tensor<?x10xf32>
  %14 = mhlo.maximum %11, %13 : tensor<?x10xf32>
  %15 = "mhlo.dot"(%14, %2) : (tensor<?x10xf32>, tensor<10x10xf32>) -> tensor<?x10xf32>
  %16 = shape.shape_of %15 : tensor<?x10xf32> -> tensor<2xindex>
  %17 = shape.broadcast %16, %1 : tensor<2xindex>, tensor<1xindex> -> tensor<2xindex>
  %18 = "mhlo.dynamic_broadcast_in_dim"(%15, %17) {broadcast_dimensions = dense<[0, 1]> : tensor<2xi64>} : (tensor<?x10xf32>, tensor<2xindex>) -> tensor<?x10xf32>
  %19 = "mhlo.dynamic_broadcast_in_dim"(%5, %17) {broadcast_dimensions = dense<1> : tensor<1xi64>} : (tensor<10xf32>, tensor<2xindex>) -> tensor<?x10xf32>
  %20 = mhlo.add %18, %19 : tensor<?x10xf32>
  %21 = shape.shape_of %20 : tensor<?x10xf32> -> tensor<2xindex>
  %22 = "mhlo.dynamic_broadcast_in_dim"(%0, %21) {broadcast_dimensions = dense<> : tensor<0xi64>} : (tensor<f32>, tensor<2xindex>) -> tensor<?x10xf32>
  %23 = mhlo.maximum %20, %22 : tensor<?x10xf32>
  return %23 : tensor<?x10xf32>
}

===-------------------------------------------------------------------------===
                         ... Execution time report ...
===-------------------------------------------------------------------------===
  Total Execution Time: 0.0123 seconds

  ----Wall Time----  ----Name----
    0.0001 (  0.6%)  ReviseArgumentsForStaticRankPass
    0.0000 (  0.2%)  FunctionalControlFlowToRegionsPass
    0.0020 ( 16.3%)  Inliner
    0.0000 (  0.2%)    (A) CallGraph
    0.0010 (  8.3%)  'func.func' Pipeline
    0.0010 (  8.3%)    Canonicalizer
    0.0002 (  1.2%)  'func.func' Pipeline
    0.0000 (  0.2%)    DropWhileShapeInvariantPass
    0.0000 (  0.2%)    ReplicateTensorListInitOpsPass
    0.0001 (  0.8%)    Canonicalizer
    0.0008 (  6.7%)  SCCP
    0.0000 (  0.4%)  GuaranteeAllFuncsOneUsePass
    0.0000 (  0.0%)    (A) CallGraph
    0.0000 (  0.2%)  TensorFlowShapeInferencePass
    0.0007 (  5.5%)  SCCP
    0.0000 (  0.3%)  TensorListOpsDecompositionPass
    0.0000 (  0.2%)  StackOpsDecompositionPass
    0.0000 (  0.2%)  TensorArrayOpsDecompositionPass
    0.0001 (  0.7%)  'func.func' Pipeline
    0.0001 (  0.7%)    DecomposeResourceOpsPass
    0.0000 (  0.3%)  PromoteResourcesToArgsPass
    0.0000 (  0.3%)  SymbolDCE
    0.0000 (  0.2%)  'func.func' Pipeline
    0.0000 (  0.2%)    SinkConstantsToControlFlowPass
    0.0000 (  0.2%)  TensorFlowShapeInferencePass
    0.0003 (  2.8%)  StablehloLegalizeToHloPass
    0.0001 (  0.9%)  'func.func' Pipeline
    0.0001 (  0.5%)    DiscLowerTfPass
    0.0000 (  0.4%)    LowerQuantizedPass
    0.0000 (  0.3%)  LegalizeTfTypesPass
    0.0023 ( 18.9%)  LegalizeTF
    0.0014 ( 11.8%)  'func.func' Pipeline
    0.0014 ( 11.4%)    DiscLowerTfPass
    0.0000 (  0.4%)    InfeedOpsXlaAdjustLayout
    0.0001 (  0.6%)  LegalizeTFCollective
    0.0013 ( 10.9%)  'func.func' Pipeline
    0.0013 ( 10.8%)    Canonicalizer
    0.0000 (  0.3%)  TensorFlowShapeInferencePass
    0.0005 (  3.9%)  LegalizeTF
    0.0000 (  0.3%)  LegalizeTFCommunicationPass
    0.0001 (  0.9%)  'func.func' Pipeline
    0.0001 (  0.6%)    DiscDynamicSliceConverterPass
    0.0000 (  0.3%)    SinkConstantsToControlFlowPass
    0.0008 (  6.2%)  Rest
    0.0123 (100.0%)  Total
======== BEGIN After TF2HLO =========
module {
  func.func @main(%arg0: tensor<?x?xf32>) -> tensor<?x10xf32> attributes {tf.entry_function = {input_placements = "gpu", inputs = "input.1_", output_placements = "gpu", outputs = "8"}} {
    %0 = mhlo.constant dense<0.000000e+00> : tensor<f32>
    %1 = shape.const_shape [10] : tensor<1xindex>
    %2 = mhlo.constant dense_resource<__elided__> : tensor<10x10xf32>
    %3 = mhlo.constant dense_resource<__elided__> : tensor<10x10xf32>
    %4 = mhlo.constant dense_resource<__elided__> : tensor<10xf32>
    %5 = mhlo.constant dense_resource<__elided__> : tensor<10xf32>
    %6 = "mhlo.dot"(%arg0, %3) : (tensor<?x?xf32>, tensor<10x10xf32>) -> tensor<?x10xf32>
    %7 = shape.shape_of %6 : tensor<?x10xf32> -> tensor<2xindex>
    %8 = shape.broadcast %7, %1 : tensor<2xindex>, tensor<1xindex> -> tensor<2xindex>
    %9 = "mhlo.dynamic_broadcast_in_dim"(%6, %8) {broadcast_dimensions = dense<[0, 1]> : tensor<2xi64>} : (tensor<?x10xf32>, tensor<2xindex>) -> tensor<?x10xf32>
    %10 = "mhlo.dynamic_broadcast_in_dim"(%4, %8) {broadcast_dimensions = dense<1> : tensor<1xi64>} : (tensor<10xf32>, tensor<2xindex>) -> tensor<?x10xf32>
    %11 = mhlo.add %9, %10 : tensor<?x10xf32>
    %12 = shape.shape_of %11 : tensor<?x10xf32> -> tensor<2xindex>
    %13 = "mhlo.dynamic_broadcast_in_dim"(%0, %12) {broadcast_dimensions = dense<> : tensor<0xi64>} : (tensor<f32>, tensor<2xindex>) -> tensor<?x10xf32>
    %14 = mhlo.maximum %11, %13 : tensor<?x10xf32>
    %15 = "mhlo.dot"(%14, %2) : (tensor<?x10xf32>, tensor<10x10xf32>) -> tensor<?x10xf32>
    %16 = shape.shape_of %15 : tensor<?x10xf32> -> tensor<2xindex>
    %17 = shape.broadcast %16, %1 : tensor<2xindex>, tensor<1xindex> -> tensor<2xindex>
    %18 = "mhlo.dynamic_broadcast_in_dim"(%15, %17) {broadcast_dimensions = dense<[0, 1]> : tensor<2xi64>} : (tensor<?x10xf32>, tensor<2xindex>) -> tensor<?x10xf32>
    %19 = "mhlo.dynamic_broadcast_in_dim"(%5, %17) {broadcast_dimensions = dense<1> : tensor<1xi64>} : (tensor<10xf32>, tensor<2xindex>) -> tensor<?x10xf32>
    %20 = mhlo.add %18, %19 : tensor<?x10xf32>
    %21 = shape.shape_of %20 : tensor<?x10xf32> -> tensor<2xindex>
    %22 = "mhlo.dynamic_broadcast_in_dim"(%0, %21) {broadcast_dimensions = dense<> : tensor<0xi64>} : (tensor<f32>, tensor<2xindex>) -> tensor<?x10xf32>
    %23 = mhlo.maximum %20, %22 : tensor<?x10xf32>
    return %23 : tensor<?x10xf32>
  }
}

======= END After TF2HLO ==========
[DISC] tf2hlo takes: 1.357800e-02 s.
2025-03-06 13:11:45.829959: I external/org_disc_compiler/mlir/disc/transforms/disc_gpu_kernel_to_blob.cc:99] Multiple GPU compute capability compilation is enabled. The AOT compiled binary is functional on sm_60, sm_70, sm_75, sm_80 and sm_86. While the optimal performance can be achived only on currently GPU generation that BladeDISC executes on.
// -----// IR Dump After ConvertShapeToStandardPass (disc-convert-shape-to-std) //----- //
func.func @main(%arg0: tensor<?x?xf32>) -> tensor<?x10xf32> attributes {tf.entry_function = {input_placements = "gpu", inputs = "input.1_", output_placements = "gpu", outputs = "8"}} {
  %0 = mhlo.constant dense<0.000000e+00> : tensor<f32>
  %c10 = arith.constant 10 : index
  %from_elements = tensor.from_elements %c10 : tensor<1xindex>
  %cast = tensor.cast %from_elements : tensor<1xindex> to tensor<1xindex>
  %1 = mhlo.constant dense_resource<__elided__> : tensor<10x10xf32>
  %2 = mhlo.constant dense_resource<__elided__> : tensor<10x10xf32>
  %3 = mhlo.constant dense<[-0.0684198961, -0.0121491952, 0.127185106, -0.18503201, -0.194590867, 0.25447163, -4.787710e-02, 0.0185489878, 0.0749137476, 0.0754040703]> : tensor<10xf32>
  %4 = mhlo.constant dense<[0.110269576, -0.209282219, 0.023534907, -0.111158408, 0.166983217, -4.79283306E-4, -0.00845900736, -0.00818163063, 0.281652302, 0.121823721]> : tensor<10xf32>
  %5 = "mhlo.dot"(%arg0, %2) : (tensor<?x?xf32>, tensor<10x10xf32>) -> tensor<?x10xf32>
  %c0 = arith.constant 0 : index
  %dim = tensor.dim %5, %c0 : tensor<?x10xf32>
  %c10_0 = arith.constant 10 : index
  %from_elements_1 = tensor.from_elements %dim, %c10_0 : tensor<2xindex>
  %c0_2 = arith.constant 0 : index
  %c1 = arith.constant 1 : index
  %c0_3 = arith.constant 0 : index
  %extracted = tensor.extract %from_elements_1[%c0_3] : tensor<2xindex>
  %6 = arith.cmpi eq, %extracted, %c1 : index
  %7 = arith.select %6, %c1, %extracted : index
  %c1_4 = arith.constant 1 : index
  %c1_5 = arith.constant 1 : index
  %extracted_6 = tensor.extract %from_elements_1[%c1_5] : tensor<2xindex>
  %8 = arith.cmpi eq, %extracted_6, %c1_4 : index
  %9 = arith.select %8, %c1_4, %extracted_6 : index
  %c0_7 = arith.constant 0 : index
  %extracted_8 = tensor.extract %cast[%c0_7] : tensor<1xindex>
  %10 = arith.cmpi eq, %extracted_8, %c1_4 : index
  %11 = arith.select %10, %9, %extracted_8 : index
  %from_elements_9 = tensor.from_elements %7, %11 : tensor<2xindex>
  %12 = "mhlo.dynamic_broadcast_in_dim"(%5, %from_elements_9) {broadcast_dimensions = dense<[0, 1]> : tensor<2xi64>} : (tensor<?x10xf32>, tensor<2xindex>) -> tensor<?x10xf32>
  %13 = "mhlo.dynamic_broadcast_in_dim"(%3, %from_elements_9) {broadcast_dimensions = dense<1> : tensor<1xi64>} : (tensor<10xf32>, tensor<2xindex>) -> tensor<?x10xf32>
  %14 = mhlo.add %12, %13 : tensor<?x10xf32>
  %c0_10 = arith.constant 0 : index
  %dim_11 = tensor.dim %14, %c0_10 : tensor<?x10xf32>
  %c10_12 = arith.constant 10 : index
  %from_elements_13 = tensor.from_elements %dim_11, %c10_12 : tensor<2xindex>
  %15 = "mhlo.dynamic_broadcast_in_dim"(%0, %from_elements_13) {broadcast_dimensions = dense<> : tensor<0xi64>} : (tensor<f32>, tensor<2xindex>) -> tensor<?x10xf32>
  %16 = mhlo.maximum %14, %15 : tensor<?x10xf32>
  %17 = "mhlo.dot"(%16, %1) : (tensor<?x10xf32>, tensor<10x10xf32>) -> tensor<?x10xf32>
  %c0_14 = arith.constant 0 : index
  %dim_15 = tensor.dim %17, %c0_14 : tensor<?x10xf32>
  %c10_16 = arith.constant 10 : index
  %from_elements_17 = tensor.from_elements %dim_15, %c10_16 : tensor<2xindex>
  %c0_18 = arith.constant 0 : index
  %c1_19 = arith.constant 1 : index
  %c0_20 = arith.constant 0 : index
  %extracted_21 = tensor.extract %from_elements_17[%c0_20] : tensor<2xindex>
  %18 = arith.cmpi eq, %extracted_21, %c1_19 : index
  %19 = arith.select %18, %c1_19, %extracted_21 : index
  %c1_22 = arith.constant 1 : index
  %c1_23 = arith.constant 1 : index
  %extracted_24 = tensor.extract %from_elements_17[%c1_23] : tensor<2xindex>
  %20 = arith.cmpi eq, %extracted_24, %c1_22 : index
  %21 = arith.select %20, %c1_22, %extracted_24 : index
  %c0_25 = arith.constant 0 : index
  %extracted_26 = tensor.extract %cast[%c0_25] : tensor<1xindex>
  %22 = arith.cmpi eq, %extracted_26, %c1_22 : index
  %23 = arith.select %22, %21, %extracted_26 : index
  %from_elements_27 = tensor.from_elements %19, %23 : tensor<2xindex>
  %24 = "mhlo.dynamic_broadcast_in_dim"(%17, %from_elements_27) {broadcast_dimensions = dense<[0, 1]> : tensor<2xi64>} : (tensor<?x10xf32>, tensor<2xindex>) -> tensor<?x10xf32>
  %25 = "mhlo.dynamic_broadcast_in_dim"(%4, %from_elements_27) {broadcast_dimensions = dense<1> : tensor<1xi64>} : (tensor<10xf32>, tensor<2xindex>) -> tensor<?x10xf32>
  %26 = mhlo.add %24, %25 : tensor<?x10xf32>
  %c0_28 = arith.constant 0 : index
  %dim_29 = tensor.dim %26, %c0_28 : tensor<?x10xf32>
  %c10_30 = arith.constant 10 : index
  %from_elements_31 = tensor.from_elements %dim_29, %c10_30 : tensor<2xindex>
  %27 = "mhlo.dynamic_broadcast_in_dim"(%0, %from_elements_31) {broadcast_dimensions = dense<> : tensor<0xi64>} : (tensor<f32>, tensor<2xindex>) -> tensor<?x10xf32>
  %28 = mhlo.maximum %26, %27 : tensor<?x10xf32>
  return %28 : tensor<?x10xf32>
}

// -----// IR Dump After CSE (cse) //----- //
module {
  func.func @main(%arg0: tensor<?x?xf32>) -> tensor<?x10xf32> attributes {tf.entry_function = {input_placements = "gpu", inputs = "input.1_", output_placements = "gpu", outputs = "8"}} {
    %c10 = arith.constant 10 : index
    %c1 = arith.constant 1 : index
    %c0 = arith.constant 0 : index
    %c2 = arith.constant 2 : index
    %0 = mhlo.constant dense<[0.110269576, -0.209282219, 0.023534907, -0.111158408, 0.166983217, -4.79283306E-4, -0.00845900736, -0.00818163063, 0.281652302, 0.121823721]> : tensor<10xf32>
    %1 = mhlo.constant dense<[-0.0684198961, -0.0121491952, 0.127185106, -0.18503201, -0.194590867, 0.25447163, -4.787710e-02, 0.0185489878, 0.0749137476, 0.0754040703]> : tensor<10xf32>
    %2 = mhlo.constant dense_resource<__elided__> : tensor<10x10xf32>
    %3 = mhlo.constant dense_resource<__elided__> : tensor<10x10xf32>
    %4 = mhlo.constant dense<0.000000e+00> : tensor<f32>
    %dim = tensor.dim %arg0, %c0 : tensor<?x?xf32>
    %dim_0 = tensor.dim %arg0, %c1 : tensor<?x?xf32>
    %5 = "disc_shape.tie_shape"(%arg0, %dim, %dim_0) : (tensor<?x?xf32>, index, index) -> tensor<?x?xf32>
    %6 = "disc_shape.tie_shape"(%3, %c10, %c10) : (tensor<10x10xf32>, index, index) -> tensor<10x10xf32>
    %7 = "disc_shape.tie_shape"(%2, %c10, %c10) : (tensor<10x10xf32>, index, index) -> tensor<10x10xf32>
    %8 = "disc_shape.tie_shape"(%1, %c10) : (tensor<10xf32>, index) -> tensor<10xf32>
    %9 = "disc_shape.tie_shape"(%0, %c10) : (tensor<10xf32>, index) -> tensor<10xf32>
    %10 = "mhlo.dot"(%5, %7) : (tensor<?x?xf32>, tensor<10x10xf32>) -> tensor<?x10xf32>
    %11 = "disc_shape.tie_shape"(%10, %dim, %c10) : (tensor<?x10xf32>, index, index) -> tensor<?x10xf32>
    %from_elements = tensor.from_elements %dim, %c10 : tensor<2xindex>
    %12 = "disc_shape.tie_shape"(%from_elements, %c2) : (tensor<2xindex>, index) -> tensor<2xindex>
    %13 = "mhlo.dynamic_broadcast_in_dim"(%11, %12) {broadcast_dimensions = dense<[0, 1]> : tensor<2xi64>} : (tensor<?x10xf32>, tensor<2xindex>) -> tensor<?x10xf32>
    %14 = "disc_shape.tie_shape"(%13, %dim, %c10) : (tensor<?x10xf32>, index, index) -> tensor<?x10xf32>
    %15 = "mhlo.dynamic_broadcast_in_dim"(%8, %12) {broadcast_dimensions = dense<1> : tensor<1xi64>} : (tensor<10xf32>, tensor<2xindex>) -> tensor<?x10xf32>
    %16 = "disc_shape.tie_shape"(%15, %dim, %c10) : (tensor<?x10xf32>, index, index) -> tensor<?x10xf32>
    %17 = mhlo.add %14, %16 : tensor<?x10xf32>
    %18 = "disc_shape.tie_shape"(%17, %dim, %c10) : (tensor<?x10xf32>, index, index) -> tensor<?x10xf32>
    %19 = "mhlo.dynamic_broadcast_in_dim"(%4, %12) {broadcast_dimensions = dense<> : tensor<0xi64>} : (tensor<f32>, tensor<2xindex>) -> tensor<?x10xf32>
    %20 = "disc_shape.tie_shape"(%19, %dim, %c10) : (tensor<?x10xf32>, index, index) -> tensor<?x10xf32>
    %21 = mhlo.maximum %18, %20 : tensor<?x10xf32>
    %22 = "disc_shape.tie_shape"(%21, %dim, %c10) : (tensor<?x10xf32>, index, index) -> tensor<?x10xf32>
    %23 = "mhlo.dot"(%22, %6) : (tensor<?x10xf32>, tensor<10x10xf32>) -> tensor<?x10xf32>
    %24 = "disc_shape.tie_shape"(%23, %dim, %c10) : (tensor<?x10xf32>, index, index) -> tensor<?x10xf32>
    %25 = "mhlo.dynamic_broadcast_in_dim"(%24, %12) {broadcast_dimensions = dense<[0, 1]> : tensor<2xi64>} : (tensor<?x10xf32>, tensor<2xindex>) -> tensor<?x10xf32>
    %26 = "disc_shape.tie_shape"(%25, %dim, %c10) : (tensor<?x10xf32>, index, index) -> tensor<?x10xf32>
    %27 = "mhlo.dynamic_broadcast_in_dim"(%9, %12) {broadcast_dimensions = dense<1> : tensor<1xi64>} : (tensor<10xf32>, tensor<2xindex>) -> tensor<?x10xf32>
    %28 = "disc_shape.tie_shape"(%27, %dim, %c10) : (tensor<?x10xf32>, index, index) -> tensor<?x10xf32>
    %29 = mhlo.add %26, %28 : tensor<?x10xf32>
    %30 = "disc_shape.tie_shape"(%29, %dim, %c10) : (tensor<?x10xf32>, index, index) -> tensor<?x10xf32>
    %31 = mhlo.maximum %30, %20 : tensor<?x10xf32>
    %32 = "disc_shape.tie_shape"(%31, %dim, %c10) : (tensor<?x10xf32>, index, index) -> tensor<?x10xf32>
    return %32 : tensor<?x10xf32>
  }
}


SymbolicDimMgr::save walkRankedTensorValue takes: 12 us
SymbolicDimMgr::save update attributes takes: 2 us
SymbolicDimMgr::updateProductEqualityMap simplifySymbolicDimProductPair takes: 0 us
productSet.size() = 0
SymbolicDimMgr::updateProductEqualityMap propagate graph takes: 4 us
SymbolicDimMgr::updateProductEqualityMap remove multiply takes: 0 us
SymbolicDimMgr::updateProductEqualityMap build toRemove  takes: 0 us
SymbolicDimMgr::updateProductEqualityMap apply toRemove  takes: 0 us
SymbolicDimMgr::save updateProductEqualityMap takes: 27 us
SymbolicDimMgr::save updateFunctionType takes: 1 us
SymbolicDimMgr::save collect symbolicDim ops takes: 9 us
SymbolicDimMgr::save remove symbolicDim ops takes: 2 us
SymbolicDimMgr::save remove unused production takes: 0 us
SymbolicDimMgr::save remove unused production #2 takes: 0 us
SymbolicDimMgr::save canonicalize the name takes: 4 us
SymbolicDimMgr::save replace the name takes: 12 us
SymbolicDimMgr::save updateFunctionType takes: 0 us
SymbolicDimMgr::save walkRankedTensorValue takes: 11 us
SymbolicDimMgr::save update attributes takes: 1 us
SymbolicDimMgr::updateProductEqualityMap simplifySymbolicDimProductPair takes: 0 us
productSet.size() = 0
SymbolicDimMgr::updateProductEqualityMap propagate graph takes: 3 us
SymbolicDimMgr::updateProductEqualityMap remove multiply takes: 0 us
SymbolicDimMgr::updateProductEqualityMap build toRemove  takes: 0 us
SymbolicDimMgr::updateProductEqualityMap apply toRemove  takes: 0 us
SymbolicDimMgr::save updateProductEqualityMap takes: 25 us
SymbolicDimMgr::save updateFunctionType takes: 1 us
SymbolicDimMgr::save collect symbolicDim ops takes: 7 us
SymbolicDimMgr::save remove symbolicDim ops takes: 1 us
SymbolicDimMgr::save remove unused production takes: 0 us
SymbolicDimMgr::save remove unused production #2 takes: 0 us
SymbolicDimMgr::save canonicalize the name takes: 3 us
SymbolicDimMgr::save replace the name takes: 12 us
SymbolicDimMgr::save updateFunctionType takes: 0 us
// -----// IR Dump After DiscShapeOptimizationPass (disc-shape-optimization) //----- //
module {
  func.func @main(%arg0: tensor<?x10xf32, [@S0, @C10]>) -> tensor<?x10xf32, [@S0, @C10]> attributes {tf.entry_function = {input_placements = "gpu", inputs = "input.1_", output_placements = "gpu", outputs = "8"}} {
    %c10 = arith.constant 10 : index
    %c0 = arith.constant 0 : index
    %0 = mhlo.constant dense<[0.110269576, -0.209282219, 0.023534907, -0.111158408, 0.166983217, -4.79283306E-4, -0.00845900736, -0.00818163063, 0.281652302, 0.121823721]> : tensor<10xf32>
    %1 = mhlo.constant dense<[-0.0684198961, -0.0121491952, 0.127185106, -0.18503201, -0.194590867, 0.25447163, -4.787710e-02, 0.0185489878, 0.0749137476, 0.0754040703]> : tensor<10xf32>
    %2 = mhlo.constant dense_resource<__elided__> : tensor<10x10xf32>
    %3 = mhlo.constant dense_resource<__elided__> : tensor<10x10xf32>
    %4 = mhlo.constant dense<0.000000e+00> : tensor<f32>
    %dim = tensor.dim %arg0, %c0 : tensor<?x10xf32, [@S0, @C10]>
    %5 = "mhlo.dot"(%arg0, %2) : (tensor<?x10xf32, [@S0, @C10]>, tensor<10x10xf32>) -> tensor<?x10xf32, [@S0, @C10]>
    %from_elements = tensor.from_elements %dim, %c10 : tensor<2xindex>
    %6 = "mhlo.dynamic_broadcast_in_dim"(%5, %from_elements) {broadcast_dimensions = dense<[0, 1]> : tensor<2xi64>} : (tensor<?x10xf32, [@S0, @C10]>, tensor<2xindex>) -> tensor<?x10xf32, [@S0, @C10]>
    %7 = "mhlo.dynamic_broadcast_in_dim"(%1, %from_elements) {broadcast_dimensions = dense<1> : tensor<1xi64>} : (tensor<10xf32>, tensor<2xindex>) -> tensor<?x10xf32, [@S0, @C10]>
    %8 = mhlo.add %6, %7 : tensor<?x10xf32, [@S0, @C10]>
    %9 = "mhlo.dynamic_broadcast_in_dim"(%4, %from_elements) {broadcast_dimensions = dense<> : tensor<0xi64>} : (tensor<f32>, tensor<2xindex>) -> tensor<?x10xf32, [@S0, @C10]>
    %10 = mhlo.maximum %8, %9 : tensor<?x10xf32, [@S0, @C10]>
    %11 = "mhlo.dot"(%10, %3) : (tensor<?x10xf32, [@S0, @C10]>, tensor<10x10xf32>) -> tensor<?x10xf32, [@S0, @C10]>
    %12 = "mhlo.dynamic_broadcast_in_dim"(%11, %from_elements) {broadcast_dimensions = dense<[0, 1]> : tensor<2xi64>} : (tensor<?x10xf32, [@S0, @C10]>, tensor<2xindex>) -> tensor<?x10xf32, [@S0, @C10]>
    %13 = "mhlo.dynamic_broadcast_in_dim"(%0, %from_elements) {broadcast_dimensions = dense<1> : tensor<1xi64>} : (tensor<10xf32>, tensor<2xindex>) -> tensor<?x10xf32, [@S0, @C10]>
    %14 = mhlo.add %12, %13 : tensor<?x10xf32, [@S0, @C10]>
    %15 = mhlo.maximum %14, %9 : tensor<?x10xf32, [@S0, @C10]>
    return %15 : tensor<?x10xf32, [@S0, @C10]>
  }
  "disc_shape.SymbolicDim"() {knownNegativeOne = false, knownNonNegative = true, knownNonSizeOne = false, knownNonSizeZero = false, sym_name = "S0", value = -9223372036854775808 : i64} : () -> ()
  "disc_shape.SymbolicDim"() {knownNegativeOne = false, knownNonNegative = true, knownNonSizeOne = true, knownNonSizeZero = true, sym_name = "C10", value = 10 : i64} : () -> ()
  func.func @shape_constraint_graph() {
    return
  }
}


// -----// IR Dump After DiscAlgebraicSimplifierPass (disc-algebraic-simplifier) //----- //
func.func @main(%arg0: tensor<?x10xf32, [@S0, @C10]>) -> tensor<?x10xf32, [@S0, @C10]> attributes {tf.entry_function = {input_placements = "gpu", inputs = "input.1_", output_placements = "gpu", outputs = "8"}} {
  %c10 = arith.constant 10 : index
  %c0 = arith.constant 0 : index
  %0 = mhlo.constant dense<[0.110269576, -0.209282219, 0.023534907, -0.111158408, 0.166983217, -4.79283306E-4, -0.00845900736, -0.00818163063, 0.281652302, 0.121823721]> : tensor<10xf32>
  %1 = mhlo.constant dense<[-0.0684198961, -0.0121491952, 0.127185106, -0.18503201, -0.194590867, 0.25447163, -4.787710e-02, 0.0185489878, 0.0749137476, 0.0754040703]> : tensor<10xf32>
  %2 = mhlo.constant dense_resource<__elided__> : tensor<10x10xf32>
  %3 = mhlo.constant dense_resource<__elided__> : tensor<10x10xf32>
  %4 = mhlo.constant dense<0.000000e+00> : tensor<f32>
  %dim = tensor.dim %arg0, %c0 : tensor<?x10xf32, [@S0, @C10]>
  %5 = "mhlo.dot"(%arg0, %2) : (tensor<?x10xf32, [@S0, @C10]>, tensor<10x10xf32>) -> tensor<?x10xf32, [@S0, @C10]>
  %from_elements = tensor.from_elements %dim, %c10 : tensor<2xindex>
  %6 = "mhlo.dynamic_broadcast_in_dim"(%1, %from_elements) {broadcast_dimensions = dense<1> : tensor<1xi64>} : (tensor<10xf32>, tensor<2xindex>) -> tensor<?x10xf32, [@S0, @C10]>
  %7 = mhlo.add %5, %6 : tensor<?x10xf32, [@S0, @C10]>
  %8 = "mhlo.dynamic_broadcast_in_dim"(%4, %from_elements) {broadcast_dimensions = dense<> : tensor<0xi64>} : (tensor<f32>, tensor<2xindex>) -> tensor<?x10xf32, [@S0, @C10]>
  %9 = mhlo.maximum %7, %8 : tensor<?x10xf32, [@S0, @C10]>
  %10 = "mhlo.dot"(%9, %3) : (tensor<?x10xf32, [@S0, @C10]>, tensor<10x10xf32>) -> tensor<?x10xf32, [@S0, @C10]>
  %11 = "mhlo.dynamic_broadcast_in_dim"(%0, %from_elements) {broadcast_dimensions = dense<1> : tensor<1xi64>} : (tensor<10xf32>, tensor<2xindex>) -> tensor<?x10xf32, [@S0, @C10]>
  %12 = mhlo.add %10, %11 : tensor<?x10xf32, [@S0, @C10]>
  %13 = mhlo.maximum %12, %8 : tensor<?x10xf32, [@S0, @C10]>
  return %13 : tensor<?x10xf32, [@S0, @C10]>
}

// -----// IR Dump After DotRewriterPass (disc-dot-rewriter) //----- //
func.func @main(%arg0: tensor<?x10xf32, [@S0, @C10]>) -> tensor<?x10xf32, [@S0, @C10]> attributes {tf.entry_function = {input_placements = "gpu", inputs = "input.1_", output_placements = "gpu", outputs = "8"}} {
  %c10 = arith.constant 10 : index
  %c0 = arith.constant 0 : index
  %0 = mhlo.constant dense<[0.110269576, -0.209282219, 0.023534907, -0.111158408, 0.166983217, -4.79283306E-4, -0.00845900736, -0.00818163063, 0.281652302, 0.121823721]> : tensor<10xf32>
  %1 = mhlo.constant dense<[-0.0684198961, -0.0121491952, 0.127185106, -0.18503201, -0.194590867, 0.25447163, -4.787710e-02, 0.0185489878, 0.0749137476, 0.0754040703]> : tensor<10xf32>
  %2 = mhlo.constant dense_resource<__elided__> : tensor<10x10xf32>
  %3 = mhlo.constant dense_resource<__elided__> : tensor<10x10xf32>
  %4 = mhlo.constant dense<0.000000e+00> : tensor<f32>
  %dim = tensor.dim %arg0, %c0 : tensor<?x10xf32, [@S0, @C10]>
  %5 = "mhlo.dot_general"(%arg0, %2) {dot_dimension_numbers = #mhlo.dot<lhs_contracting_dimensions = [1], rhs_contracting_dimensions = [0]>} : (tensor<?x10xf32, [@S0, @C10]>, tensor<10x10xf32>) -> tensor<?x10xf32, [@S0, @C10]>
  %from_elements = tensor.from_elements %dim, %c10 : tensor<2xindex>
  %6 = "mhlo.dynamic_broadcast_in_dim"(%1, %from_elements) {broadcast_dimensions = dense<1> : tensor<1xi64>} : (tensor<10xf32>, tensor<2xindex>) -> tensor<?x10xf32, [@S0, @C10]>
  %7 = mhlo.add %5, %6 : tensor<?x10xf32, [@S0, @C10]>
  %8 = "mhlo.dynamic_broadcast_in_dim"(%4, %from_elements) {broadcast_dimensions = dense<> : tensor<0xi64>} : (tensor<f32>, tensor<2xindex>) -> tensor<?x10xf32, [@S0, @C10]>
  %9 = mhlo.maximum %7, %8 : tensor<?x10xf32, [@S0, @C10]>
  %10 = "mhlo.dot_general"(%9, %3) {dot_dimension_numbers = #mhlo.dot<lhs_contracting_dimensions = [1], rhs_contracting_dimensions = [0]>} : (tensor<?x10xf32, [@S0, @C10]>, tensor<10x10xf32>) -> tensor<?x10xf32, [@S0, @C10]>
  %11 = "mhlo.dynamic_broadcast_in_dim"(%0, %from_elements) {broadcast_dimensions = dense<1> : tensor<1xi64>} : (tensor<10xf32>, tensor<2xindex>) -> tensor<?x10xf32, [@S0, @C10]>
  %12 = mhlo.add %10, %11 : tensor<?x10xf32, [@S0, @C10]>
  %13 = mhlo.maximum %12, %8 : tensor<?x10xf32, [@S0, @C10]>
  return %13 : tensor<?x10xf32, [@S0, @C10]>
}

SymbolicDimMgr::save walkRankedTensorValue takes: 9 us
SymbolicDimMgr::save update attributes takes: 1 us
SymbolicDimMgr::updateProductEqualityMap simplifySymbolicDimProductPair takes: 0 us
productSet.size() = 0
SymbolicDimMgr::updateProductEqualityMap propagate graph takes: 3 us
SymbolicDimMgr::updateProductEqualityMap remove multiply takes: 0 us
SymbolicDimMgr::updateProductEqualityMap build toRemove  takes: 0 us
SymbolicDimMgr::updateProductEqualityMap apply toRemove  takes: 0 us
SymbolicDimMgr::save updateProductEqualityMap takes: 25 us
SymbolicDimMgr::save updateFunctionType takes: 1 us
SymbolicDimMgr::save collect symbolicDim ops takes: 6 us
SymbolicDimMgr::save remove symbolicDim ops takes: 1 us
SymbolicDimMgr::save remove unused production takes: 0 us
SymbolicDimMgr::save remove unused production #2 takes: 0 us
SymbolicDimMgr::save canonicalize the name takes: 3 us
SymbolicDimMgr::save replace the name takes: 10 us
SymbolicDimMgr::save updateFunctionType takes: 1 us
// -----// IR Dump After DiscShapeOptimizationPass (disc-shape-optimization) //----- //
module {
  func.func @main(%arg0: tensor<?x10xf32, [@S0, @C10]>) -> tensor<?x10xf32, [@S0, @C10]> attributes {tf.entry_function = {input_placements = "gpu", inputs = "input.1_", output_placements = "gpu", outputs = "8"}} {
    %c10 = arith.constant 10 : index
    %c0 = arith.constant 0 : index
    %0 = mhlo.constant dense<0.000000e+00> : tensor<f32>
    %1 = mhlo.constant dense_resource<__elided__> : tensor<10x10xf32>
    %2 = mhlo.constant dense_resource<__elided__> : tensor<10x10xf32>
    %3 = mhlo.constant dense<[-0.0684198961, -0.0121491952, 0.127185106, -0.18503201, -0.194590867, 0.25447163, -4.787710e-02, 0.0185489878, 0.0749137476, 0.0754040703]> : tensor<10xf32>
    %4 = mhlo.constant dense<[0.110269576, -0.209282219, 0.023534907, -0.111158408, 0.166983217, -4.79283306E-4, -0.00845900736, -0.00818163063, 0.281652302, 0.121823721]> : tensor<10xf32>
    %dim = tensor.dim %arg0, %c0 : tensor<?x10xf32, [@S0, @C10]>
    %5 = "mhlo.dot_general"(%arg0, %2) {dot_dimension_numbers = #mhlo.dot<lhs_contracting_dimensions = [1], rhs_contracting_dimensions = [0]>} : (tensor<?x10xf32, [@S0, @C10]>, tensor<10x10xf32>) -> tensor<?x10xf32, [@S0, @C10]>
    %from_elements = tensor.from_elements %dim, %c10 : tensor<2xindex>
    %6 = "mhlo.dynamic_broadcast_in_dim"(%3, %from_elements) {broadcast_dimensions = dense<1> : tensor<1xi64>} : (tensor<10xf32>, tensor<2xindex>) -> tensor<?x10xf32, [@S0, @C10]>
    %7 = mhlo.add %5, %6 : tensor<?x10xf32, [@S0, @C10]>
    %8 = "mhlo.dynamic_broadcast_in_dim"(%0, %from_elements) {broadcast_dimensions = dense<> : tensor<0xi64>} : (tensor<f32>, tensor<2xindex>) -> tensor<?x10xf32, [@S0, @C10]>
    %9 = mhlo.maximum %7, %8 : tensor<?x10xf32, [@S0, @C10]>
    %10 = "mhlo.dot_general"(%9, %1) {dot_dimension_numbers = #mhlo.dot<lhs_contracting_dimensions = [1], rhs_contracting_dimensions = [0]>} : (tensor<?x10xf32, [@S0, @C10]>, tensor<10x10xf32>) -> tensor<?x10xf32, [@S0, @C10]>
    %11 = "mhlo.dynamic_broadcast_in_dim"(%4, %from_elements) {broadcast_dimensions = dense<1> : tensor<1xi64>} : (tensor<10xf32>, tensor<2xindex>) -> tensor<?x10xf32, [@S0, @C10]>
    %12 = mhlo.add %10, %11 : tensor<?x10xf32, [@S0, @C10]>
    %13 = mhlo.maximum %12, %8 : tensor<?x10xf32, [@S0, @C10]>
    return %13 : tensor<?x10xf32, [@S0, @C10]>
  }
  "disc_shape.SymbolicDim"() {knownNegativeOne = false, knownNonNegative = true, knownNonSizeOne = false, knownNonSizeZero = false, sym_name = "S0", value = -9223372036854775808 : i64} : () -> ()
  "disc_shape.SymbolicDim"() {knownNegativeOne = false, knownNonNegative = true, knownNonSizeOne = true, knownNonSizeZero = true, sym_name = "C10", value = 10 : i64} : () -> ()
  func.func @shape_constraint_graph() {
    return
  }
}


SymbolicDimMgr::save walkRankedTensorValue takes: 9 us
SymbolicDimMgr::save update attributes takes: 1 us
SymbolicDimMgr::updateProductEqualityMap simplifySymbolicDimProductPair takes: 0 us
productSet.size() = 0
SymbolicDimMgr::updateProductEqualityMap propagate graph takes: 3 us
SymbolicDimMgr::updateProductEqualityMap remove multiply takes: 0 us
SymbolicDimMgr::updateProductEqualityMap build toRemove  takes: 0 us
SymbolicDimMgr::updateProductEqualityMap apply toRemove  takes: 0 us
SymbolicDimMgr::save updateProductEqualityMap takes: 25 us
SymbolicDimMgr::save updateFunctionType takes: 1 us
SymbolicDimMgr::save collect symbolicDim ops takes: 6 us
SymbolicDimMgr::save remove symbolicDim ops takes: 1 us
SymbolicDimMgr::save remove unused production takes: 0 us
SymbolicDimMgr::save remove unused production #2 takes: 0 us
SymbolicDimMgr::save canonicalize the name takes: 3 us
SymbolicDimMgr::save replace the name takes: 11 us
SymbolicDimMgr::save updateFunctionType takes: 0 us
// -----// IR Dump After DiscShapeOptimizationPass (disc-shape-optimization) //----- //
module {
  func.func @main(%arg0: tensor<?x10xf32, [@S0, @C10]>) -> tensor<?x10xf32, [@S0, @C10]> attributes {tf.entry_function = {input_placements = "gpu", inputs = "input.1_", output_placements = "gpu", outputs = "8"}} {
    %c10 = arith.constant 10 : index
    %c0 = arith.constant 0 : index
    %0 = mhlo.constant dense<[0.110269576, -0.209282219, 0.023534907, -0.111158408, 0.166983217, -4.79283306E-4, -0.00845900736, -0.00818163063, 0.281652302, 0.121823721]> : tensor<10xf32>
    %1 = mhlo.constant dense<[-0.0684198961, -0.0121491952, 0.127185106, -0.18503201, -0.194590867, 0.25447163, -4.787710e-02, 0.0185489878, 0.0749137476, 0.0754040703]> : tensor<10xf32>
    %2 = mhlo.constant dense_resource<__elided__> : tensor<10x10xf32>
    %3 = mhlo.constant dense_resource<__elided__> : tensor<10x10xf32>
    %4 = mhlo.constant dense<0.000000e+00> : tensor<f32>
    %dim = tensor.dim %arg0, %c0 : tensor<?x10xf32, [@S0, @C10]>
    %5 = "mhlo.dot_general"(%arg0, %2) {dot_dimension_numbers = #mhlo.dot<lhs_contracting_dimensions = [1], rhs_contracting_dimensions = [0]>} : (tensor<?x10xf32, [@S0, @C10]>, tensor<10x10xf32>) -> tensor<?x10xf32, [@S0, @C10]>
    %from_elements = tensor.from_elements %dim, %c10 : tensor<2xindex>
    %6 = "mhlo.dynamic_broadcast_in_dim"(%1, %from_elements) {broadcast_dimensions = dense<1> : tensor<1xi64>} : (tensor<10xf32>, tensor<2xindex>) -> tensor<?x10xf32, [@S0, @C10]>
    %7 = mhlo.add %5, %6 : tensor<?x10xf32, [@S0, @C10]>
    %8 = "mhlo.dynamic_broadcast_in_dim"(%4, %from_elements) {broadcast_dimensions = dense<> : tensor<0xi64>} : (tensor<f32>, tensor<2xindex>) -> tensor<?x10xf32, [@S0, @C10]>
    %9 = mhlo.maximum %7, %8 : tensor<?x10xf32, [@S0, @C10]>
    %10 = "mhlo.dot_general"(%9, %3) {dot_dimension_numbers = #mhlo.dot<lhs_contracting_dimensions = [1], rhs_contracting_dimensions = [0]>} : (tensor<?x10xf32, [@S0, @C10]>, tensor<10x10xf32>) -> tensor<?x10xf32, [@S0, @C10]>
    %11 = "mhlo.dynamic_broadcast_in_dim"(%0, %from_elements) {broadcast_dimensions = dense<1> : tensor<1xi64>} : (tensor<10xf32>, tensor<2xindex>) -> tensor<?x10xf32, [@S0, @C10]>
    %12 = mhlo.add %10, %11 : tensor<?x10xf32, [@S0, @C10]>
    %13 = mhlo.maximum %12, %8 : tensor<?x10xf32, [@S0, @C10]>
    return %13 : tensor<?x10xf32, [@S0, @C10]>
  }
  "disc_shape.SymbolicDim"() {knownNegativeOne = false, knownNonNegative = true, knownNonSizeOne = false, knownNonSizeZero = false, sym_name = "S0", value = -9223372036854775808 : i64} : () -> ()
  "disc_shape.SymbolicDim"() {knownNegativeOne = false, knownNonNegative = true, knownNonSizeOne = true, knownNonSizeZero = true, sym_name = "C10", value = 10 : i64} : () -> ()
  func.func @shape_constraint_graph() {
    return
  }
}


SymbolicDimMgr::save walkRankedTensorValue takes: 9 us
SymbolicDimMgr::save update attributes takes: 1 us
SymbolicDimMgr::updateProductEqualityMap simplifySymbolicDimProductPair takes: 0 us
productSet.size() = 0
SymbolicDimMgr::updateProductEqualityMap propagate graph takes: 3 us
SymbolicDimMgr::updateProductEqualityMap remove multiply takes: 0 us
SymbolicDimMgr::updateProductEqualityMap build toRemove  takes: 0 us
SymbolicDimMgr::updateProductEqualityMap apply toRemove  takes: 0 us
SymbolicDimMgr::save updateProductEqualityMap takes: 25 us
SymbolicDimMgr::save updateFunctionType takes: 1 us
SymbolicDimMgr::save collect symbolicDim ops takes: 6 us
SymbolicDimMgr::save remove symbolicDim ops takes: 1 us
SymbolicDimMgr::save remove unused production takes: 0 us
SymbolicDimMgr::save remove unused production #2 takes: 0 us
SymbolicDimMgr::save canonicalize the name takes: 3 us
SymbolicDimMgr::save replace the name takes: 10 us
SymbolicDimMgr::save updateFunctionType takes: 0 us
// -----// IR Dump After DiscShapeOptimizationPass (disc-shape-optimization) //----- //
module {
  func.func @main(%arg0: tensor<?x10xf32, [@S0, @C10]>) -> tensor<?x10xf32, [@S0, @C10]> attributes {tf.entry_function = {input_placements = "gpu", inputs = "input.1_", output_placements = "gpu", outputs = "8"}} {
    %c10 = arith.constant 10 : index
    %c0 = arith.constant 0 : index
    %0 = mhlo.constant dense<0.000000e+00> : tensor<f32>
    %1 = mhlo.constant dense_resource<__elided__> : tensor<10x10xf32>
    %2 = mhlo.constant dense_resource<__elided__> : tensor<10x10xf32>
    %3 = mhlo.constant dense<[-0.0684198961, -0.0121491952, 0.127185106, -0.18503201, -0.194590867, 0.25447163, -4.787710e-02, 0.0185489878, 0.0749137476, 0.0754040703]> : tensor<10xf32>
    %4 = mhlo.constant dense<[0.110269576, -0.209282219, 0.023534907, -0.111158408, 0.166983217, -4.79283306E-4, -0.00845900736, -0.00818163063, 0.281652302, 0.121823721]> : tensor<10xf32>
    %dim = tensor.dim %arg0, %c0 : tensor<?x10xf32, [@S0, @C10]>
    %5 = "mhlo.dot_general"(%arg0, %2) {dot_dimension_numbers = #mhlo.dot<lhs_contracting_dimensions = [1], rhs_contracting_dimensions = [0]>} : (tensor<?x10xf32, [@S0, @C10]>, tensor<10x10xf32>) -> tensor<?x10xf32, [@S0, @C10]>
    %from_elements = tensor.from_elements %dim, %c10 : tensor<2xindex>
    %6 = "mhlo.dynamic_broadcast_in_dim"(%3, %from_elements) {broadcast_dimensions = dense<1> : tensor<1xi64>} : (tensor<10xf32>, tensor<2xindex>) -> tensor<?x10xf32, [@S0, @C10]>
    %7 = mhlo.add %5, %6 : tensor<?x10xf32, [@S0, @C10]>
    %8 = "mhlo.dynamic_broadcast_in_dim"(%0, %from_elements) {broadcast_dimensions = dense<> : tensor<0xi64>} : (tensor<f32>, tensor<2xindex>) -> tensor<?x10xf32, [@S0, @C10]>
    %9 = mhlo.maximum %7, %8 : tensor<?x10xf32, [@S0, @C10]>
    %10 = "mhlo.dot_general"(%9, %1) {dot_dimension_numbers = #mhlo.dot<lhs_contracting_dimensions = [1], rhs_contracting_dimensions = [0]>} : (tensor<?x10xf32, [@S0, @C10]>, tensor<10x10xf32>) -> tensor<?x10xf32, [@S0, @C10]>
    %11 = "mhlo.dynamic_broadcast_in_dim"(%4, %from_elements) {broadcast_dimensions = dense<1> : tensor<1xi64>} : (tensor<10xf32>, tensor<2xindex>) -> tensor<?x10xf32, [@S0, @C10]>
    %12 = mhlo.add %10, %11 : tensor<?x10xf32, [@S0, @C10]>
    %13 = mhlo.maximum %12, %8 : tensor<?x10xf32, [@S0, @C10]>
    return %13 : tensor<?x10xf32, [@S0, @C10]>
  }
  "disc_shape.SymbolicDim"() {knownNegativeOne = false, knownNonNegative = true, knownNonSizeOne = false, knownNonSizeZero = false, sym_name = "S0", value = -9223372036854775808 : i64} : () -> ()
  "disc_shape.SymbolicDim"() {knownNegativeOne = false, knownNonNegative = true, knownNonSizeOne = true, knownNonSizeZero = true, sym_name = "C10", value = 10 : i64} : () -> ()
  func.func @shape_constraint_graph() {
    return
  }
}


// -----// IR Dump After DiscMarkShapeCalculationPass (disc-mhlo-mark-shape-calc) //----- //
module {
  func.func @main(%arg0: tensor<?x10xf32, [@S0, @C10]>) -> tensor<?x10xf32, [@S0, @C10]> attributes {tf.entry_function = {input_placements = "gpu", inputs = "input.1_", output_placements = "gpu", outputs = "8"}} {
    %c10 = arith.constant 10 : index
    %c0 = arith.constant 0 : index
    %0 = mhlo.constant dense<0.000000e+00> : tensor<f32>
    %1 = mhlo.constant dense_resource<__elided__> : tensor<10x10xf32>
    %2 = mhlo.constant dense_resource<__elided__> : tensor<10x10xf32>
    %3 = mhlo.constant dense<[-0.0684198961, -0.0121491952, 0.127185106, -0.18503201, -0.194590867, 0.25447163, -4.787710e-02, 0.0185489878, 0.0749137476, 0.0754040703]> : tensor<10xf32>
    %4 = mhlo.constant dense<[0.110269576, -0.209282219, 0.023534907, -0.111158408, 0.166983217, -4.79283306E-4, -0.00845900736, -0.00818163063, 0.281652302, 0.121823721]> : tensor<10xf32>
    %dim = tensor.dim %arg0, %c0 : tensor<?x10xf32, [@S0, @C10]>
    %5 = "mhlo.dot_general"(%arg0, %2) {dot_dimension_numbers = #mhlo.dot<lhs_contracting_dimensions = [1], rhs_contracting_dimensions = [0]>} : (tensor<?x10xf32, [@S0, @C10]>, tensor<10x10xf32>) -> tensor<?x10xf32, [@S0, @C10]>
    %from_elements = tensor.from_elements %dim, %c10 {disc.shape_op = true} : tensor<2xindex>
    %6 = "mhlo.dynamic_broadcast_in_dim"(%3, %from_elements) {broadcast_dimensions = dense<1> : tensor<1xi64>} : (tensor<10xf32>, tensor<2xindex>) -> tensor<?x10xf32, [@S0, @C10]>
    %7 = mhlo.add %5, %6 : tensor<?x10xf32, [@S0, @C10]>
    %8 = "mhlo.dynamic_broadcast_in_dim"(%0, %from_elements) {broadcast_dimensions = dense<> : tensor<0xi64>} : (tensor<f32>, tensor<2xindex>) -> tensor<?x10xf32, [@S0, @C10]>
    %9 = mhlo.maximum %7, %8 : tensor<?x10xf32, [@S0, @C10]>
    %10 = "mhlo.dot_general"(%9, %1) {dot_dimension_numbers = #mhlo.dot<lhs_contracting_dimensions = [1], rhs_contracting_dimensions = [0]>} : (tensor<?x10xf32, [@S0, @C10]>, tensor<10x10xf32>) -> tensor<?x10xf32, [@S0, @C10]>
    %11 = "mhlo.dynamic_broadcast_in_dim"(%4, %from_elements) {broadcast_dimensions = dense<1> : tensor<1xi64>} : (tensor<10xf32>, tensor<2xindex>) -> tensor<?x10xf32, [@S0, @C10]>
    %12 = mhlo.add %10, %11 : tensor<?x10xf32, [@S0, @C10]>
    %13 = mhlo.maximum %12, %8 : tensor<?x10xf32, [@S0, @C10]>
    return %13 : tensor<?x10xf32, [@S0, @C10]>
  }
  "disc_shape.SymbolicDim"() {knownNegativeOne = false, knownNonNegative = true, knownNonSizeOne = false, knownNonSizeZero = false, sym_name = "S0", value = -9223372036854775808 : i64} : () -> ()
  "disc_shape.SymbolicDim"() {knownNegativeOne = false, knownNonNegative = true, knownNonSizeOne = true, knownNonSizeZero = true, sym_name = "C10", value = 10 : i64} : () -> ()
  func.func @shape_constraint_graph() {
    return
  }
}


// -----// IR Dump After PlaceOpsPass (mhlo-place-ops) //----- //
module {
  func.func @main(%arg0: tensor<?x10xf32, [@S0, @C10]>) -> tensor<?x10xf32, [@S0, @C10]> attributes {tf.entry_function = {input_placements = "gpu", inputs = "input.1_", output_placements = "gpu", outputs = "8"}} {
    %c10 = arith.constant 10 : index
    %c0 = arith.constant 0 : index
    %0 = mhlo.constant {disc.device = "gpu"} dense<0.000000e+00> : tensor<f32>
    %1 = mhlo.constant {disc.device = "gpu"} dense_resource<__elided__> : tensor<10x10xf32>
    %2 = mhlo.constant {disc.device = "gpu"} dense_resource<__elided__> : tensor<10x10xf32>
    %3 = mhlo.constant {disc.device = "gpu"} dense<[-0.0684198961, -0.0121491952, 0.127185106, -0.18503201, -0.194590867, 0.25447163, -4.787710e-02, 0.0185489878, 0.0749137476, 0.0754040703]> : tensor<10xf32>
    %4 = mhlo.constant {disc.device = "gpu"} dense<[0.110269576, -0.209282219, 0.023534907, -0.111158408, 0.166983217, -4.79283306E-4, -0.00845900736, -0.00818163063, 0.281652302, 0.121823721]> : tensor<10xf32>
    %dim = tensor.dim %arg0, %c0 : tensor<?x10xf32, [@S0, @C10]>
    %5 = "mhlo.dot_general"(%arg0, %2) {disc.device = "gpu", dot_dimension_numbers = #mhlo.dot<lhs_contracting_dimensions = [1], rhs_contracting_dimensions = [0]>} : (tensor<?x10xf32, [@S0, @C10]>, tensor<10x10xf32>) -> tensor<?x10xf32, [@S0, @C10]>
    %from_elements = tensor.from_elements %dim, %c10 {disc.shape_op = true} : tensor<2xindex>
    %6 = "mhlo.dynamic_broadcast_in_dim"(%3, %from_elements) {broadcast_dimensions = dense<1> : tensor<1xi64>, disc.device = "gpu"} : (tensor<10xf32>, tensor<2xindex>) -> tensor<?x10xf32, [@S0, @C10]>
    %7 = mhlo.add %5, %6 {disc.device = "gpu"} : tensor<?x10xf32, [@S0, @C10]>
    %8 = "mhlo.dynamic_broadcast_in_dim"(%0, %from_elements) {broadcast_dimensions = dense<> : tensor<0xi64>, disc.device = "gpu"} : (tensor<f32>, tensor<2xindex>) -> tensor<?x10xf32, [@S0, @C10]>
    %9 = mhlo.maximum %7, %8 {disc.device = "gpu"} : tensor<?x10xf32, [@S0, @C10]>
    %10 = "mhlo.dot_general"(%9, %1) {disc.device = "gpu", dot_dimension_numbers = #mhlo.dot<lhs_contracting_dimensions = [1], rhs_contracting_dimensions = [0]>} : (tensor<?x10xf32, [@S0, @C10]>, tensor<10x10xf32>) -> tensor<?x10xf32, [@S0, @C10]>
    %11 = "mhlo.dynamic_broadcast_in_dim"(%4, %from_elements) {broadcast_dimensions = dense<1> : tensor<1xi64>, disc.device = "gpu"} : (tensor<10xf32>, tensor<2xindex>) -> tensor<?x10xf32, [@S0, @C10]>
    %12 = mhlo.add %10, %11 {disc.device = "gpu"} : tensor<?x10xf32, [@S0, @C10]>
    %13 = mhlo.maximum %12, %8 {disc.device = "gpu"} : tensor<?x10xf32, [@S0, @C10]>
    return %13 : tensor<?x10xf32, [@S0, @C10]>
  }
  "disc_shape.SymbolicDim"() {knownNegativeOne = false, knownNonNegative = true, knownNonSizeOne = false, knownNonSizeZero = false, sym_name = "S0", value = -9223372036854775808 : i64} : () -> ()
  "disc_shape.SymbolicDim"() {knownNegativeOne = false, knownNonNegative = true, knownNonSizeOne = true, knownNonSizeZero = true, sym_name = "C10", value = 10 : i64} : () -> ()
  func.func @shape_constraint_graph() {
    return
  }
}


SymbolicDimMgr::save walkRankedTensorValue takes: 10 us
SymbolicDimMgr::save update attributes takes: 1 us
SymbolicDimMgr::updateProductEqualityMap simplifySymbolicDimProductPair takes: 0 us
productSet.size() = 0
SymbolicDimMgr::updateProductEqualityMap propagate graph takes: 3 us
SymbolicDimMgr::updateProductEqualityMap remove multiply takes: 0 us
SymbolicDimMgr::updateProductEqualityMap build toRemove  takes: 0 us
SymbolicDimMgr::updateProductEqualityMap apply toRemove  takes: 0 us
SymbolicDimMgr::save updateProductEqualityMap takes: 25 us
SymbolicDimMgr::save updateFunctionType takes: 1 us
SymbolicDimMgr::save collect symbolicDim ops takes: 7 us
SymbolicDimMgr::save remove symbolicDim ops takes: 1 us
SymbolicDimMgr::save remove unused production takes: 0 us
SymbolicDimMgr::save remove unused production #2 takes: 0 us
SymbolicDimMgr::save canonicalize the name takes: 3 us
SymbolicDimMgr::save replace the name takes: 10 us
SymbolicDimMgr::save updateFunctionType takes: 1 us
// -----// IR Dump After DiscShapeOptimizationPass (disc-shape-optimization) //----- //
module {
  func.func @main(%arg0: tensor<?x10xf32, [@S0, @C10]>) -> tensor<?x10xf32, [@S0, @C10]> attributes {tf.entry_function = {input_placements = "gpu", inputs = "input.1_", output_placements = "gpu", outputs = "8"}} {
    %c10 = arith.constant 10 : index
    %c0 = arith.constant 0 : index
    %0 = mhlo.constant {disc.device = "gpu"} dense<[0.110269576, -0.209282219, 0.023534907, -0.111158408, 0.166983217, -4.79283306E-4, -0.00845900736, -0.00818163063, 0.281652302, 0.121823721]> : tensor<10xf32>
    %1 = mhlo.constant {disc.device = "gpu"} dense<[-0.0684198961, -0.0121491952, 0.127185106, -0.18503201, -0.194590867, 0.25447163, -4.787710e-02, 0.0185489878, 0.0749137476, 0.0754040703]> : tensor<10xf32>
    %2 = mhlo.constant {disc.device = "gpu"} dense_resource<__elided__> : tensor<10x10xf32>
    %3 = mhlo.constant {disc.device = "gpu"} dense_resource<__elided__> : tensor<10x10xf32>
    %4 = mhlo.constant {disc.device = "gpu"} dense<0.000000e+00> : tensor<f32>
    %dim = tensor.dim %arg0, %c0 : tensor<?x10xf32, [@S0, @C10]>
    %5 = "mhlo.dot_general"(%arg0, %2) {disc.device = "gpu", dot_dimension_numbers = #mhlo.dot<lhs_contracting_dimensions = [1], rhs_contracting_dimensions = [0]>} : (tensor<?x10xf32, [@S0, @C10]>, tensor<10x10xf32>) -> tensor<?x10xf32, [@S0, @C10]>
    %from_elements = tensor.from_elements %dim, %c10 {disc.shape_op = true} : tensor<2xindex>
    %6 = "mhlo.dynamic_broadcast_in_dim"(%1, %from_elements) {broadcast_dimensions = dense<1> : tensor<1xi64>, disc.device = "gpu"} : (tensor<10xf32>, tensor<2xindex>) -> tensor<?x10xf32, [@S0, @C10]>
    %7 = mhlo.add %5, %6 {disc.device = "gpu"} : tensor<?x10xf32, [@S0, @C10]>
    %8 = "mhlo.dynamic_broadcast_in_dim"(%4, %from_elements) {broadcast_dimensions = dense<> : tensor<0xi64>, disc.device = "gpu"} : (tensor<f32>, tensor<2xindex>) -> tensor<?x10xf32, [@S0, @C10]>
    %9 = mhlo.maximum %7, %8 {disc.device = "gpu"} : tensor<?x10xf32, [@S0, @C10]>
    %10 = "mhlo.dot_general"(%9, %3) {disc.device = "gpu", dot_dimension_numbers = #mhlo.dot<lhs_contracting_dimensions = [1], rhs_contracting_dimensions = [0]>} : (tensor<?x10xf32, [@S0, @C10]>, tensor<10x10xf32>) -> tensor<?x10xf32, [@S0, @C10]>
    %11 = "mhlo.dynamic_broadcast_in_dim"(%0, %from_elements) {broadcast_dimensions = dense<1> : tensor<1xi64>, disc.device = "gpu"} : (tensor<10xf32>, tensor<2xindex>) -> tensor<?x10xf32, [@S0, @C10]>
    %12 = mhlo.add %10, %11 {disc.device = "gpu"} : tensor<?x10xf32, [@S0, @C10]>
    %13 = mhlo.maximum %12, %8 {disc.device = "gpu"} : tensor<?x10xf32, [@S0, @C10]>
    return %13 : tensor<?x10xf32, [@S0, @C10]>
  }
  "disc_shape.SymbolicDim"() {knownNegativeOne = false, knownNonNegative = true, knownNonSizeOne = false, knownNonSizeZero = false, sym_name = "S0", value = -9223372036854775808 : i64} : () -> ()
  "disc_shape.SymbolicDim"() {knownNegativeOne = false, knownNonNegative = true, knownNonSizeOne = true, knownNonSizeZero = true, sym_name = "C10", value = 10 : i64} : () -> ()
  func.func @shape_constraint_graph() {
    return
  }
}


SymbolicDimMgr::save walkRankedTensorValue takes: 9 us
SymbolicDimMgr::save update attributes takes: 1 us
SymbolicDimMgr::updateProductEqualityMap simplifySymbolicDimProductPair takes: 0 us
productSet.size() = 0
SymbolicDimMgr::updateProductEqualityMap propagate graph takes: 3 us
SymbolicDimMgr::updateProductEqualityMap remove multiply takes: 0 us
SymbolicDimMgr::updateProductEqualityMap build toRemove  takes: 0 us
SymbolicDimMgr::updateProductEqualityMap apply toRemove  takes: 0 us
SymbolicDimMgr::save updateProductEqualityMap takes: 25 us
SymbolicDimMgr::save updateFunctionType takes: 1 us
SymbolicDimMgr::save collect symbolicDim ops takes: 6 us
SymbolicDimMgr::save remove symbolicDim ops takes: 0 us
SymbolicDimMgr::save remove unused production takes: 0 us
SymbolicDimMgr::save remove unused production #2 takes: 0 us
SymbolicDimMgr::save canonicalize the name takes: 3 us
SymbolicDimMgr::save replace the name takes: 10 us
SymbolicDimMgr::save updateFunctionType takes: 0 us
// -----// IR Dump After DiscShapeOptimizationPass (disc-shape-optimization) //----- //
module {
  func.func @main(%arg0: tensor<?x10xf32, [@S0, @C10]>) -> tensor<?x10xf32, [@S0, @C10]> attributes {tf.entry_function = {input_placements = "gpu", inputs = "input.1_", output_placements = "gpu", outputs = "8"}} {
    %c10 = arith.constant 10 : index
    %c0 = arith.constant 0 : index
    %0 = mhlo.constant {disc.device = "gpu"} dense<0.000000e+00> : tensor<f32>
    %1 = mhlo.constant {disc.device = "gpu"} dense_resource<__elided__> : tensor<10x10xf32>
    %2 = mhlo.constant {disc.device = "gpu"} dense_resource<__elided__> : tensor<10x10xf32>
    %3 = mhlo.constant {disc.device = "gpu"} dense<[-0.0684198961, -0.0121491952, 0.127185106, -0.18503201, -0.194590867, 0.25447163, -4.787710e-02, 0.0185489878, 0.0749137476, 0.0754040703]> : tensor<10xf32>
    %4 = mhlo.constant {disc.device = "gpu"} dense<[0.110269576, -0.209282219, 0.023534907, -0.111158408, 0.166983217, -4.79283306E-4, -0.00845900736, -0.00818163063, 0.281652302, 0.121823721]> : tensor<10xf32>
    %dim = tensor.dim %arg0, %c0 : tensor<?x10xf32, [@S0, @C10]>
    %5 = "mhlo.dot_general"(%arg0, %2) {disc.device = "gpu", dot_dimension_numbers = #mhlo.dot<lhs_contracting_dimensions = [1], rhs_contracting_dimensions = [0]>} : (tensor<?x10xf32, [@S0, @C10]>, tensor<10x10xf32>) -> tensor<?x10xf32, [@S0, @C10]>
    %from_elements = tensor.from_elements %dim, %c10 {disc.shape_op = true} : tensor<2xindex>
    %6 = "mhlo.dynamic_broadcast_in_dim"(%3, %from_elements) {broadcast_dimensions = dense<1> : tensor<1xi64>, disc.device = "gpu"} : (tensor<10xf32>, tensor<2xindex>) -> tensor<?x10xf32, [@S0, @C10]>
    %7 = mhlo.add %5, %6 {disc.device = "gpu"} : tensor<?x10xf32, [@S0, @C10]>
    %8 = "mhlo.dynamic_broadcast_in_dim"(%0, %from_elements) {broadcast_dimensions = dense<> : tensor<0xi64>, disc.device = "gpu"} : (tensor<f32>, tensor<2xindex>) -> tensor<?x10xf32, [@S0, @C10]>
    %9 = mhlo.maximum %7, %8 {disc.device = "gpu"} : tensor<?x10xf32, [@S0, @C10]>
    %10 = "mhlo.dot_general"(%9, %1) {disc.device = "gpu", dot_dimension_numbers = #mhlo.dot<lhs_contracting_dimensions = [1], rhs_contracting_dimensions = [0]>} : (tensor<?x10xf32, [@S0, @C10]>, tensor<10x10xf32>) -> tensor<?x10xf32, [@S0, @C10]>
    %11 = "mhlo.dynamic_broadcast_in_dim"(%4, %from_elements) {broadcast_dimensions = dense<1> : tensor<1xi64>, disc.device = "gpu"} : (tensor<10xf32>, tensor<2xindex>) -> tensor<?x10xf32, [@S0, @C10]>
    %12 = mhlo.add %10, %11 {disc.device = "gpu"} : tensor<?x10xf32, [@S0, @C10]>
    %13 = mhlo.maximum %12, %8 {disc.device = "gpu"} : tensor<?x10xf32, [@S0, @C10]>
    return %13 : tensor<?x10xf32, [@S0, @C10]>
  }
  "disc_shape.SymbolicDim"() {knownNegativeOne = false, knownNonNegative = true, knownNonSizeOne = false, knownNonSizeZero = false, sym_name = "S0", value = -9223372036854775808 : i64} : () -> ()
  "disc_shape.SymbolicDim"() {knownNegativeOne = false, knownNonNegative = true, knownNonSizeOne = true, knownNonSizeZero = true, sym_name = "C10", value = 10 : i64} : () -> ()
  func.func @shape_constraint_graph() {
    return
  }
}


SymbolicDimMgr::save walkRankedTensorValue takes: 10 us
SymbolicDimMgr::save update attributes takes: 2 us
SymbolicDimMgr::updateProductEqualityMap simplifySymbolicDimProductPair takes: 0 us
productSet.size() = 0
SymbolicDimMgr::updateProductEqualityMap propagate graph takes: 3 us
SymbolicDimMgr::updateProductEqualityMap remove multiply takes: 0 us
SymbolicDimMgr::updateProductEqualityMap build toRemove  takes: 0 us
SymbolicDimMgr::updateProductEqualityMap apply toRemove  takes: 0 us
SymbolicDimMgr::save updateProductEqualityMap takes: 25 us
SymbolicDimMgr::save updateFunctionType takes: 1 us
SymbolicDimMgr::save collect symbolicDim ops takes: 7 us
SymbolicDimMgr::save remove symbolicDim ops takes: 0 us
SymbolicDimMgr::save remove unused production takes: 0 us
SymbolicDimMgr::save remove unused production #2 takes: 0 us
SymbolicDimMgr::save canonicalize the name takes: 3 us
SymbolicDimMgr::save replace the name takes: 11 us
SymbolicDimMgr::save updateFunctionType takes: 1 us
// -----// IR Dump After DiscShapeOptimizationPass (disc-shape-optimization) //----- //
module {
  func.func @main(%arg0: tensor<?x10xf32, [@S0, @C10]>) -> tensor<?x10xf32, [@S0, @C10]> attributes {tf.entry_function = {input_placements = "gpu", inputs = "input.1_", output_placements = "gpu", outputs = "8"}} {
    %c10 = arith.constant 10 : index
    %c0 = arith.constant 0 : index
    %0 = mhlo.constant {disc.device = "gpu"} dense<[0.110269576, -0.209282219, 0.023534907, -0.111158408, 0.166983217, -4.79283306E-4, -0.00845900736, -0.00818163063, 0.281652302, 0.121823721]> : tensor<10xf32>
    %1 = mhlo.constant {disc.device = "gpu"} dense<[-0.0684198961, -0.0121491952, 0.127185106, -0.18503201, -0.194590867, 0.25447163, -4.787710e-02, 0.0185489878, 0.0749137476, 0.0754040703]> : tensor<10xf32>
    %2 = mhlo.constant {disc.device = "gpu"} dense_resource<__elided__> : tensor<10x10xf32>
    %3 = mhlo.constant {disc.device = "gpu"} dense_resource<__elided__> : tensor<10x10xf32>
    %4 = mhlo.constant {disc.device = "gpu"} dense<0.000000e+00> : tensor<f32>
    %dim = tensor.dim %arg0, %c0 : tensor<?x10xf32, [@S0, @C10]>
    %5 = "mhlo.dot_general"(%arg0, %2) {disc.device = "gpu", dot_dimension_numbers = #mhlo.dot<lhs_contracting_dimensions = [1], rhs_contracting_dimensions = [0]>} : (tensor<?x10xf32, [@S0, @C10]>, tensor<10x10xf32>) -> tensor<?x10xf32, [@S0, @C10]>
    %from_elements = tensor.from_elements %dim, %c10 {disc.shape_op = true} : tensor<2xindex>
    %6 = "mhlo.dynamic_broadcast_in_dim"(%1, %from_elements) {broadcast_dimensions = dense<1> : tensor<1xi64>, disc.device = "gpu"} : (tensor<10xf32>, tensor<2xindex>) -> tensor<?x10xf32, [@S0, @C10]>
    %7 = mhlo.add %5, %6 {disc.device = "gpu"} : tensor<?x10xf32, [@S0, @C10]>
    %8 = "mhlo.dynamic_broadcast_in_dim"(%4, %from_elements) {broadcast_dimensions = dense<> : tensor<0xi64>, disc.device = "gpu"} : (tensor<f32>, tensor<2xindex>) -> tensor<?x10xf32, [@S0, @C10]>
    %9 = mhlo.maximum %7, %8 {disc.device = "gpu"} : tensor<?x10xf32, [@S0, @C10]>
    %10 = "mhlo.dot_general"(%9, %3) {disc.device = "gpu", dot_dimension_numbers = #mhlo.dot<lhs_contracting_dimensions = [1], rhs_contracting_dimensions = [0]>} : (tensor<?x10xf32, [@S0, @C10]>, tensor<10x10xf32>) -> tensor<?x10xf32, [@S0, @C10]>
    %11 = "mhlo.dynamic_broadcast_in_dim"(%0, %from_elements) {broadcast_dimensions = dense<1> : tensor<1xi64>, disc.device = "gpu"} : (tensor<10xf32>, tensor<2xindex>) -> tensor<?x10xf32, [@S0, @C10]>
    %12 = mhlo.add %10, %11 {disc.device = "gpu"} : tensor<?x10xf32, [@S0, @C10]>
    %13 = mhlo.maximum %12, %8 {disc.device = "gpu"} : tensor<?x10xf32, [@S0, @C10]>
    return %13 : tensor<?x10xf32, [@S0, @C10]>
  }
  "disc_shape.SymbolicDim"() {knownNegativeOne = false, knownNonNegative = true, knownNonSizeOne = false, knownNonSizeZero = false, sym_name = "S0", value = -9223372036854775808 : i64} : () -> ()
  "disc_shape.SymbolicDim"() {knownNegativeOne = false, knownNonNegative = true, knownNonSizeOne = true, knownNonSizeZero = true, sym_name = "C10", value = 10 : i64} : () -> ()
  func.func @shape_constraint_graph() {
    return
  }
}


SymbolicDimMgr::save walkRankedTensorValue takes: 9 us
SymbolicDimMgr::save update attributes takes: 2 us
SymbolicDimMgr::updateProductEqualityMap simplifySymbolicDimProductPair takes: 0 us
productSet.size() = 0
SymbolicDimMgr::updateProductEqualityMap propagate graph takes: 3 us
SymbolicDimMgr::updateProductEqualityMap remove multiply takes: 0 us
SymbolicDimMgr::updateProductEqualityMap build toRemove  takes: 0 us
SymbolicDimMgr::updateProductEqualityMap apply toRemove  takes: 0 us
SymbolicDimMgr::save updateProductEqualityMap takes: 25 us
SymbolicDimMgr::save updateFunctionType takes: 1 us
SymbolicDimMgr::save collect symbolicDim ops takes: 6 us
SymbolicDimMgr::save remove symbolicDim ops takes: 1 us
SymbolicDimMgr::save remove unused production takes: 0 us
SymbolicDimMgr::save remove unused production #2 takes: 0 us
SymbolicDimMgr::save canonicalize the name takes: 2 us
SymbolicDimMgr::save replace the name takes: 11 us
SymbolicDimMgr::save updateFunctionType takes: 0 us
// -----// IR Dump After DiscShapeOptimizationPass (disc-shape-optimization) //----- //
module {
  func.func @main(%arg0: tensor<?x10xf32>) -> tensor<?x10xf32> attributes {tf.entry_function = {input_placements = "gpu", inputs = "input.1_", output_placements = "gpu", outputs = "8"}} {
    %c10 = arith.constant 10 : index
    %c0 = arith.constant 0 : index
    %c2 = arith.constant 2 : index
    %0 = mhlo.constant {disc.device = "gpu"} dense<0.000000e+00> : tensor<f32>
    %1 = mhlo.constant {disc.device = "gpu"} dense_resource<__elided__> : tensor<10x10xf32>
    %2 = mhlo.constant {disc.device = "gpu"} dense_resource<__elided__> : tensor<10x10xf32>
    %3 = mhlo.constant {disc.device = "gpu"} dense<[-0.0684198961, -0.0121491952, 0.127185106, -0.18503201, -0.194590867, 0.25447163, -4.787710e-02, 0.0185489878, 0.0749137476, 0.0754040703]> : tensor<10xf32>
    %4 = mhlo.constant {disc.device = "gpu"} dense<[0.110269576, -0.209282219, 0.023534907, -0.111158408, 0.166983217, -4.79283306E-4, -0.00845900736, -0.00818163063, 0.281652302, 0.121823721]> : tensor<10xf32>
    %dim = tensor.dim %arg0, %c0 : tensor<?x10xf32>
    %5 = "disc_shape.tie_shape"(%arg0, %dim, %c10) {kDiscSymbolicDimAttr = [@S0, @C10]} : (tensor<?x10xf32>, index, index) -> tensor<?x10xf32>
    %6 = "disc_shape.tie_shape"(%4, %c10) : (tensor<10xf32>, index) -> tensor<10xf32>
    %7 = "disc_shape.tie_shape"(%3, %c10) : (tensor<10xf32>, index) -> tensor<10xf32>
    %8 = "disc_shape.tie_shape"(%2, %c10, %c10) : (tensor<10x10xf32>, index, index) -> tensor<10x10xf32>
    %9 = "disc_shape.tie_shape"(%1, %c10, %c10) : (tensor<10x10xf32>, index, index) -> tensor<10x10xf32>
    %10 = "mhlo.dot_general"(%5, %8) {disc.device = "gpu", dot_dimension_numbers = #mhlo.dot<lhs_contracting_dimensions = [1], rhs_contracting_dimensions = [0]>} : (tensor<?x10xf32>, tensor<10x10xf32>) -> tensor<?x10xf32>
    %11 = "disc_shape.tie_shape"(%10, %dim, %c10) {kDiscSymbolicDimAttr = [@S0, @C10]} : (tensor<?x10xf32>, index, index) -> tensor<?x10xf32>
    %from_elements = tensor.from_elements %dim, %c10 {disc.shape_op = true} : tensor<2xindex>
    %12 = "disc_shape.tie_shape"(%from_elements, %c2) : (tensor<2xindex>, index) -> tensor<2xindex>
    %13 = "mhlo.dynamic_broadcast_in_dim"(%7, %12) {broadcast_dimensions = dense<1> : tensor<1xi64>, disc.device = "gpu"} : (tensor<10xf32>, tensor<2xindex>) -> tensor<?x10xf32>
    %14 = "disc_shape.tie_shape"(%13, %dim, %c10) {kDiscSymbolicDimAttr = [@S0, @C10]} : (tensor<?x10xf32>, index, index) -> tensor<?x10xf32>
    %15 = mhlo.add %11, %14 {disc.device = "gpu"} : tensor<?x10xf32>
    %16 = "disc_shape.tie_shape"(%15, %dim, %c10) {kDiscSymbolicDimAttr = [@S0, @C10]} : (tensor<?x10xf32>, index, index) -> tensor<?x10xf32>
    %17 = "mhlo.dynamic_broadcast_in_dim"(%0, %12) {broadcast_dimensions = dense<> : tensor<0xi64>, disc.device = "gpu"} : (tensor<f32>, tensor<2xindex>) -> tensor<?x10xf32>
    %18 = "disc_shape.tie_shape"(%17, %dim, %c10) {kDiscSymbolicDimAttr = [@S0, @C10]} : (tensor<?x10xf32>, index, index) -> tensor<?x10xf32>
    %19 = mhlo.maximum %16, %18 {disc.device = "gpu"} : tensor<?x10xf32>
    %20 = "disc_shape.tie_shape"(%19, %dim, %c10) {kDiscSymbolicDimAttr = [@S0, @C10]} : (tensor<?x10xf32>, index, index) -> tensor<?x10xf32>
    %21 = "mhlo.dot_general"(%20, %9) {disc.device = "gpu", dot_dimension_numbers = #mhlo.dot<lhs_contracting_dimensions = [1], rhs_contracting_dimensions = [0]>} : (tensor<?x10xf32>, tensor<10x10xf32>) -> tensor<?x10xf32>
    %22 = "disc_shape.tie_shape"(%21, %dim, %c10) {kDiscSymbolicDimAttr = [@S0, @C10]} : (tensor<?x10xf32>, index, index) -> tensor<?x10xf32>
    %23 = "mhlo.dynamic_broadcast_in_dim"(%6, %12) {broadcast_dimensions = dense<1> : tensor<1xi64>, disc.device = "gpu"} : (tensor<10xf32>, tensor<2xindex>) -> tensor<?x10xf32>
    %24 = "disc_shape.tie_shape"(%23, %dim, %c10) {kDiscSymbolicDimAttr = [@S0, @C10]} : (tensor<?x10xf32>, index, index) -> tensor<?x10xf32>
    %25 = mhlo.add %22, %24 {disc.device = "gpu"} : tensor<?x10xf32>
    %26 = "disc_shape.tie_shape"(%25, %dim, %c10) {kDiscSymbolicDimAttr = [@S0, @C10]} : (tensor<?x10xf32>, index, index) -> tensor<?x10xf32>
    %27 = mhlo.maximum %26, %18 {disc.device = "gpu"} : tensor<?x10xf32>
    %28 = "disc_shape.tie_shape"(%27, %dim, %c10) {kDiscSymbolicDimAttr = [@S0, @C10]} : (tensor<?x10xf32>, index, index) -> tensor<?x10xf32>
    return %28 : tensor<?x10xf32>
  }
  "disc_shape.SymbolicDim"() {knownNegativeOne = false, knownNonNegative = true, knownNonSizeOne = false, knownNonSizeZero = false, sym_name = "S0", value = -9223372036854775808 : i64} : () -> ()
  "disc_shape.SymbolicDim"() {knownNegativeOne = false, knownNonNegative = true, knownNonSizeOne = true, knownNonSizeZero = true, sym_name = "C10", value = 10 : i64} : () -> ()
  func.func @shape_constraint_graph() {
    return
  }
}


// -----// IR Dump After Canonicalizer (canonicalize) //----- //
func.func @main(%arg0: tensor<?x10xf32>) -> tensor<?x10xf32> attributes {tf.entry_function = {input_placements = "gpu", inputs = "input.1_", output_placements = "gpu", outputs = "8"}} {
  %c10 = arith.constant 10 : index
  %c0 = arith.constant 0 : index
  %0 = mhlo.constant {disc.device = "gpu"} dense<0.000000e+00> : tensor<f32>
  %1 = mhlo.constant {disc.device = "gpu"} dense_resource<__elided__> : tensor<10x10xf32>
  %2 = mhlo.constant {disc.device = "gpu"} dense_resource<__elided__> : tensor<10x10xf32>
  %3 = mhlo.constant {disc.device = "gpu"} dense<[-0.0684198961, -0.0121491952, 0.127185106, -0.18503201, -0.194590867, 0.25447163, -4.787710e-02, 0.0185489878, 0.0749137476, 0.0754040703]> : tensor<10xf32>
  %4 = mhlo.constant {disc.device = "gpu"} dense<[0.110269576, -0.209282219, 0.023534907, -0.111158408, 0.166983217, -4.79283306E-4, -0.00845900736, -0.00818163063, 0.281652302, 0.121823721]> : tensor<10xf32>
  %dim = tensor.dim %arg0, %c0 : tensor<?x10xf32>
  %5 = "disc_shape.tie_shape"(%arg0, %dim, %c10) {kDiscSymbolicDimAttr = [@S0, @C10]} : (tensor<?x10xf32>, index, index) -> tensor<?x10xf32>
  %6 = "mhlo.dot_general"(%5, %2) {disc.device = "gpu", dot_dimension_numbers = #mhlo.dot<lhs_contracting_dimensions = [1], rhs_contracting_dimensions = [0]>} : (tensor<?x10xf32>, tensor<10x10xf32>) -> tensor<?x10xf32>
  %7 = "disc_shape.tie_shape"(%6, %dim, %c10) {kDiscSymbolicDimAttr = [@S0, @C10]} : (tensor<?x10xf32>, index, index) -> tensor<?x10xf32>
  %from_elements = tensor.from_elements %dim, %c10 {disc.shape_op = true} : tensor<2xindex>
  %8 = "mhlo.dynamic_broadcast_in_dim"(%3, %from_elements) {broadcast_dimensions = dense<1> : tensor<1xi64>, disc.device = "gpu"} : (tensor<10xf32>, tensor<2xindex>) -> tensor<?x10xf32>
  %9 = "disc_shape.tie_shape"(%8, %dim, %c10) {kDiscSymbolicDimAttr = [@S0, @C10]} : (tensor<?x10xf32>, index, index) -> tensor<?x10xf32>
  %10 = mhlo.add %7, %9 {disc.device = "gpu"} : tensor<?x10xf32>
  %11 = "disc_shape.tie_shape"(%10, %dim, %c10) {kDiscSymbolicDimAttr = [@S0, @C10]} : (tensor<?x10xf32>, index, index) -> tensor<?x10xf32>
  %12 = "mhlo.dynamic_broadcast_in_dim"(%0, %from_elements) {broadcast_dimensions = dense<> : tensor<0xi64>, disc.device = "gpu"} : (tensor<f32>, tensor<2xindex>) -> tensor<?x10xf32>
  %13 = "disc_shape.tie_shape"(%12, %dim, %c10) {kDiscSymbolicDimAttr = [@S0, @C10]} : (tensor<?x10xf32>, index, index) -> tensor<?x10xf32>
  %14 = mhlo.maximum %11, %13 {disc.device = "gpu"} : tensor<?x10xf32>
  %15 = "disc_shape.tie_shape"(%14, %dim, %c10) {kDiscSymbolicDimAttr = [@S0, @C10]} : (tensor<?x10xf32>, index, index) -> tensor<?x10xf32>
  %16 = "mhlo.dot_general"(%15, %1) {disc.device = "gpu", dot_dimension_numbers = #mhlo.dot<lhs_contracting_dimensions = [1], rhs_contracting_dimensions = [0]>} : (tensor<?x10xf32>, tensor<10x10xf32>) -> tensor<?x10xf32>
  %17 = "disc_shape.tie_shape"(%16, %dim, %c10) {kDiscSymbolicDimAttr = [@S0, @C10]} : (tensor<?x10xf32>, index, index) -> tensor<?x10xf32>
  %18 = "mhlo.dynamic_broadcast_in_dim"(%4, %from_elements) {broadcast_dimensions = dense<1> : tensor<1xi64>, disc.device = "gpu"} : (tensor<10xf32>, tensor<2xindex>) -> tensor<?x10xf32>
  %19 = "disc_shape.tie_shape"(%18, %dim, %c10) {kDiscSymbolicDimAttr = [@S0, @C10]} : (tensor<?x10xf32>, index, index) -> tensor<?x10xf32>
  %20 = mhlo.add %17, %19 {disc.device = "gpu"} : tensor<?x10xf32>
  %21 = "disc_shape.tie_shape"(%20, %dim, %c10) {kDiscSymbolicDimAttr = [@S0, @C10]} : (tensor<?x10xf32>, index, index) -> tensor<?x10xf32>
  %22 = mhlo.maximum %21, %13 {disc.device = "gpu"} : tensor<?x10xf32>
  %23 = "disc_shape.tie_shape"(%22, %dim, %c10) {kDiscSymbolicDimAttr = [@S0, @C10]} : (tensor<?x10xf32>, index, index) -> tensor<?x10xf32>
  return %23 : tensor<?x10xf32>
}

// -----// IR Dump After FuncBufferize (func-bufferize) //----- //
module {
  func.func @main(%arg0: memref<?x10xf32>) -> memref<?x10xf32> attributes {tf.entry_function = {input_placements = "gpu", inputs = "input.1_", output_placements = "gpu", outputs = "8"}} {
    %0 = bufferization.to_tensor %arg0 : memref<?x10xf32>
    %c10 = arith.constant 10 : index
    %c0 = arith.constant 0 : index
    %1 = mhlo.constant {disc.device = "gpu"} dense<0.000000e+00> : tensor<f32>
    %2 = mhlo.constant {disc.device = "gpu"} dense_resource<__elided__> : tensor<10x10xf32>
    %3 = mhlo.constant {disc.device = "gpu"} dense_resource<__elided__> : tensor<10x10xf32>
    %4 = mhlo.constant {disc.device = "gpu"} dense<[-0.0684198961, -0.0121491952, 0.127185106, -0.18503201, -0.194590867, 0.25447163, -4.787710e-02, 0.0185489878, 0.0749137476, 0.0754040703]> : tensor<10xf32>
    %5 = mhlo.constant {disc.device = "gpu"} dense<[0.110269576, -0.209282219, 0.023534907, -0.111158408, 0.166983217, -4.79283306E-4, -0.00845900736, -0.00818163063, 0.281652302, 0.121823721]> : tensor<10xf32>
    %dim = tensor.dim %0, %c0 : tensor<?x10xf32>
    %6 = "disc_shape.tie_shape"(%0, %dim, %c10) {kDiscSymbolicDimAttr = [@S0, @C10]} : (tensor<?x10xf32>, index, index) -> tensor<?x10xf32>
    %7 = "mhlo.dot_general"(%6, %3) {disc.device = "gpu", dot_dimension_numbers = #mhlo.dot<lhs_contracting_dimensions = [1], rhs_contracting_dimensions = [0]>} : (tensor<?x10xf32>, tensor<10x10xf32>) -> tensor<?x10xf32>
    %8 = "disc_shape.tie_shape"(%7, %dim, %c10) {kDiscSymbolicDimAttr = [@S0, @C10]} : (tensor<?x10xf32>, index, index) -> tensor<?x10xf32>
    %from_elements = tensor.from_elements %dim, %c10 {disc.shape_op = true} : tensor<2xindex>
    %9 = "mhlo.dynamic_broadcast_in_dim"(%4, %from_elements) {broadcast_dimensions = dense<1> : tensor<1xi64>, disc.device = "gpu"} : (tensor<10xf32>, tensor<2xindex>) -> tensor<?x10xf32>
    %10 = "disc_shape.tie_shape"(%9, %dim, %c10) {kDiscSymbolicDimAttr = [@S0, @C10]} : (tensor<?x10xf32>, index, index) -> tensor<?x10xf32>
    %11 = mhlo.add %8, %10 {disc.device = "gpu"} : tensor<?x10xf32>
    %12 = "disc_shape.tie_shape"(%11, %dim, %c10) {kDiscSymbolicDimAttr = [@S0, @C10]} : (tensor<?x10xf32>, index, index) -> tensor<?x10xf32>
    %13 = "mhlo.dynamic_broadcast_in_dim"(%1, %from_elements) {broadcast_dimensions = dense<> : tensor<0xi64>, disc.device = "gpu"} : (tensor<f32>, tensor<2xindex>) -> tensor<?x10xf32>
    %14 = "disc_shape.tie_shape"(%13, %dim, %c10) {kDiscSymbolicDimAttr = [@S0, @C10]} : (tensor<?x10xf32>, index, index) -> tensor<?x10xf32>
    %15 = mhlo.maximum %12, %14 {disc.device = "gpu"} : tensor<?x10xf32>
    %16 = "disc_shape.tie_shape"(%15, %dim, %c10) {kDiscSymbolicDimAttr = [@S0, @C10]} : (tensor<?x10xf32>, index, index) -> tensor<?x10xf32>
    %17 = "mhlo.dot_general"(%16, %2) {disc.device = "gpu", dot_dimension_numbers = #mhlo.dot<lhs_contracting_dimensions = [1], rhs_contracting_dimensions = [0]>} : (tensor<?x10xf32>, tensor<10x10xf32>) -> tensor<?x10xf32>
    %18 = "disc_shape.tie_shape"(%17, %dim, %c10) {kDiscSymbolicDimAttr = [@S0, @C10]} : (tensor<?x10xf32>, index, index) -> tensor<?x10xf32>
    %19 = "mhlo.dynamic_broadcast_in_dim"(%5, %from_elements) {broadcast_dimensions = dense<1> : tensor<1xi64>, disc.device = "gpu"} : (tensor<10xf32>, tensor<2xindex>) -> tensor<?x10xf32>
    %20 = "disc_shape.tie_shape"(%19, %dim, %c10) {kDiscSymbolicDimAttr = [@S0, @C10]} : (tensor<?x10xf32>, index, index) -> tensor<?x10xf32>
    %21 = mhlo.add %18, %20 {disc.device = "gpu"} : tensor<?x10xf32>
    %22 = "disc_shape.tie_shape"(%21, %dim, %c10) {kDiscSymbolicDimAttr = [@S0, @C10]} : (tensor<?x10xf32>, index, index) -> tensor<?x10xf32>
    %23 = mhlo.maximum %22, %14 {disc.device = "gpu"} : tensor<?x10xf32>
    %24 = "disc_shape.tie_shape"(%23, %dim, %c10) {kDiscSymbolicDimAttr = [@S0, @C10]} : (tensor<?x10xf32>, index, index) -> tensor<?x10xf32>
    %25 = bufferization.to_memref %24 : memref<?x10xf32>
    return %25 : memref<?x10xf32>
  }
  "disc_shape.SymbolicDim"() {knownNegativeOne = false, knownNonNegative = true, knownNonSizeOne = false, knownNonSizeZero = false, sym_name = "S0", value = -9223372036854775808 : i64} : () -> ()
  "disc_shape.SymbolicDim"() {knownNegativeOne = false, knownNonNegative = true, knownNonSizeOne = true, knownNonSizeZero = true, sym_name = "C10", value = 10 : i64} : () -> ()
  func.func @shape_constraint_graph() {
    return
  }
}


// -----// IR Dump After DiscHloLegalizeToLhloPass (disc-hlo-legalize-to-lhlo) //----- //
module {
  func.func @main(%arg0: memref<?x10xf32>) -> memref<?x10xf32> attributes {tf.entry_function = {input_placements = "gpu", inputs = "input.1_", output_placements = "gpu", outputs = "8"}} {
    %0 = bufferization.to_tensor %arg0 : memref<?x10xf32>
    %1 = bufferization.to_memref %0 : memref<?x10xf32>
    %c10 = arith.constant 10 : index
    %c0 = arith.constant 0 : index
    %2 = mhlo.constant {disc.device = "gpu"} dense<0.000000e+00> : tensor<f32>
    %3 = mhlo.constant {disc.device = "gpu"} dense_resource<__elided__> : tensor<10x10xf32>
    %4 = mhlo.constant {disc.device = "gpu"} dense_resource<__elided__> : tensor<10x10xf32>
    %5 = mhlo.constant {disc.device = "gpu"} dense<[-0.0684198961, -0.0121491952, 0.127185106, -0.18503201, -0.194590867, 0.25447163, -4.787710e-02, 0.0185489878, 0.0749137476, 0.0754040703]> : tensor<10xf32>
    %6 = mhlo.constant {disc.device = "gpu"} dense<[0.110269576, -0.209282219, 0.023534907, -0.111158408, 0.166983217, -4.79283306E-4, -0.00845900736, -0.00818163063, 0.281652302, 0.121823721]> : tensor<10xf32>
    %dim = tensor.dim %0, %c0 : tensor<?x10xf32>
    %c10_0 = arith.constant 10 : index
    %7 = arith.muli %c10_0, %dim : index
    %reinterpret_cast = memref.reinterpret_cast %1 to offset: [0], sizes: [%dim, 10], strides: [10, 1] {kDiscSymbolicDimAttr = [@S0, @C10]} : memref<?x10xf32> to memref<?x10xf32>
    %8 = bufferization.to_tensor %reinterpret_cast : memref<?x10xf32>
    %9 = "mhlo.dot_general"(%8, %4) {disc.device = "gpu", dot_dimension_numbers = #mhlo.dot<lhs_contracting_dimensions = [1], rhs_contracting_dimensions = [0]>} : (tensor<?x10xf32>, tensor<10x10xf32>) -> tensor<?x10xf32>
    %10 = bufferization.to_memref %9 : memref<?x10xf32>
    %c10_1 = arith.constant 10 : index
    %11 = arith.muli %c10_1, %dim : index
    %reinterpret_cast_2 = memref.reinterpret_cast %10 to offset: [0], sizes: [%dim, 10], strides: [10, 1] {kDiscSymbolicDimAttr = [@S0, @C10]} : memref<?x10xf32> to memref<?x10xf32>
    %12 = bufferization.to_tensor %reinterpret_cast_2 : memref<?x10xf32>
    %from_elements = tensor.from_elements %dim, %c10 {disc.shape_op = true} : tensor<2xindex>
    %13 = "mhlo.dynamic_broadcast_in_dim"(%5, %from_elements) {broadcast_dimensions = dense<1> : tensor<1xi64>, disc.device = "gpu"} : (tensor<10xf32>, tensor<2xindex>) -> tensor<?x10xf32>
    %14 = bufferization.to_memref %13 : memref<?x10xf32>
    %c10_3 = arith.constant 10 : index
    %15 = arith.muli %c10_3, %dim : index
    %reinterpret_cast_4 = memref.reinterpret_cast %14 to offset: [0], sizes: [%dim, 10], strides: [10, 1] {kDiscSymbolicDimAttr = [@S0, @C10]} : memref<?x10xf32> to memref<?x10xf32>
    %16 = bufferization.to_tensor %reinterpret_cast_4 : memref<?x10xf32>
    %17 = mhlo.add %12, %16 {disc.device = "gpu"} : tensor<?x10xf32>
    %18 = bufferization.to_memref %17 : memref<?x10xf32>
    %c10_5 = arith.constant 10 : index
    %19 = arith.muli %c10_5, %dim : index
    %reinterpret_cast_6 = memref.reinterpret_cast %18 to offset: [0], sizes: [%dim, 10], strides: [10, 1] {kDiscSymbolicDimAttr = [@S0, @C10]} : memref<?x10xf32> to memref<?x10xf32>
    %20 = bufferization.to_tensor %reinterpret_cast_6 : memref<?x10xf32>
    %21 = "mhlo.dynamic_broadcast_in_dim"(%2, %from_elements) {broadcast_dimensions = dense<> : tensor<0xi64>, disc.device = "gpu"} : (tensor<f32>, tensor<2xindex>) -> tensor<?x10xf32>
    %22 = bufferization.to_memref %21 : memref<?x10xf32>
    %c10_7 = arith.constant 10 : index
    %23 = arith.muli %c10_7, %dim : index
    %reinterpret_cast_8 = memref.reinterpret_cast %22 to offset: [0], sizes: [%dim, 10], strides: [10, 1] {kDiscSymbolicDimAttr = [@S0, @C10]} : memref<?x10xf32> to memref<?x10xf32>
    %24 = bufferization.to_tensor %reinterpret_cast_8 : memref<?x10xf32>
    %25 = mhlo.maximum %20, %24 {disc.device = "gpu"} : tensor<?x10xf32>
    %26 = bufferization.to_memref %25 : memref<?x10xf32>
    %c10_9 = arith.constant 10 : index
    %27 = arith.muli %c10_9, %dim : index
    %reinterpret_cast_10 = memref.reinterpret_cast %26 to offset: [0], sizes: [%dim, 10], strides: [10, 1] {kDiscSymbolicDimAttr = [@S0, @C10]} : memref<?x10xf32> to memref<?x10xf32>
    %28 = bufferization.to_tensor %reinterpret_cast_10 : memref<?x10xf32>
    %29 = "mhlo.dot_general"(%28, %3) {disc.device = "gpu", dot_dimension_numbers = #mhlo.dot<lhs_contracting_dimensions = [1], rhs_contracting_dimensions = [0]>} : (tensor<?x10xf32>, tensor<10x10xf32>) -> tensor<?x10xf32>
    %30 = bufferization.to_memref %29 : memref<?x10xf32>
    %c10_11 = arith.constant 10 : index
    %31 = arith.muli %c10_11, %dim : index
    %reinterpret_cast_12 = memref.reinterpret_cast %30 to offset: [0], sizes: [%dim, 10], strides: [10, 1] {kDiscSymbolicDimAttr = [@S0, @C10]} : memref<?x10xf32> to memref<?x10xf32>
    %32 = bufferization.to_tensor %reinterpret_cast_12 : memref<?x10xf32>
    %33 = "mhlo.dynamic_broadcast_in_dim"(%6, %from_elements) {broadcast_dimensions = dense<1> : tensor<1xi64>, disc.device = "gpu"} : (tensor<10xf32>, tensor<2xindex>) -> tensor<?x10xf32>
    %34 = bufferization.to_memref %33 : memref<?x10xf32>
    %c10_13 = arith.constant 10 : index
    %35 = arith.muli %c10_13, %dim : index
    %reinterpret_cast_14 = memref.reinterpret_cast %34 to offset: [0], sizes: [%dim, 10], strides: [10, 1] {kDiscSymbolicDimAttr = [@S0, @C10]} : memref<?x10xf32> to memref<?x10xf32>
    %36 = bufferization.to_tensor %reinterpret_cast_14 : memref<?x10xf32>
    %37 = mhlo.add %32, %36 {disc.device = "gpu"} : tensor<?x10xf32>
    %38 = bufferization.to_memref %37 : memref<?x10xf32>
    %c10_15 = arith.constant 10 : index
    %39 = arith.muli %c10_15, %dim : index
    %reinterpret_cast_16 = memref.reinterpret_cast %38 to offset: [0], sizes: [%dim, 10], strides: [10, 1] {kDiscSymbolicDimAttr = [@S0, @C10]} : memref<?x10xf32> to memref<?x10xf32>
    %40 = bufferization.to_tensor %reinterpret_cast_16 : memref<?x10xf32>
    %41 = mhlo.maximum %40, %24 {disc.device = "gpu"} : tensor<?x10xf32>
    %42 = bufferization.to_memref %41 : memref<?x10xf32>
    %c10_17 = arith.constant 10 : index
    %43 = arith.muli %c10_17, %dim : index
    %reinterpret_cast_18 = memref.reinterpret_cast %42 to offset: [0], sizes: [%dim, 10], strides: [10, 1] {kDiscSymbolicDimAttr = [@S0, @C10]} : memref<?x10xf32> to memref<?x10xf32>
    %44 = bufferization.to_tensor %reinterpret_cast_18 : memref<?x10xf32>
    %45 = bufferization.to_memref %44 : memref<?x10xf32>
    return %45 : memref<?x10xf32>
  }
  "disc_shape.SymbolicDim"() {knownNegativeOne = false, knownNonNegative = true, knownNonSizeOne = false, knownNonSizeZero = false, sym_name = "S0", value = -9223372036854775808 : i64} : () -> ()
  "disc_shape.SymbolicDim"() {knownNegativeOne = false, knownNonNegative = true, knownNonSizeOne = true, knownNonSizeZero = true, sym_name = "C10", value = 10 : i64} : () -> ()
  func.func @shape_constraint_graph() {
    return
  }
}


// -----// IR Dump After HloLegalizeToLhloPass (hlo-legalize-to-lhlo) //----- //
module {
  func.func @main(%arg0: memref<?x10xf32>) -> memref<?x10xf32> attributes {tf.entry_function = {input_placements = "gpu", inputs = "input.1_", output_placements = "gpu", outputs = "8"}} {
    %0 = bufferization.to_tensor %arg0 : memref<?x10xf32>
    %c10 = arith.constant 10 : index
    %c0 = arith.constant 0 : index
    %alloc = memref.alloc() : memref<f32>
    "lmhlo.constant"(%alloc) {disc.device = "gpu", value = dense<0.000000e+00> : tensor<f32>} : (memref<f32>) -> ()
    %alloc_0 = memref.alloc() : memref<10x10xf32>
    "lmhlo.constant"(%alloc_0) {disc.device = "gpu", value = dense_resource<__elided__> : tensor<10x10xf32>} : (memref<10x10xf32>) -> ()
    %alloc_1 = memref.alloc() : memref<10x10xf32>
    "lmhlo.constant"(%alloc_1) {disc.device = "gpu", value = dense_resource<__elided__> : tensor<10x10xf32>} : (memref<10x10xf32>) -> ()
    %alloc_2 = memref.alloc() : memref<10xf32>
    "lmhlo.constant"(%alloc_2) {disc.device = "gpu", value = dense<[-0.0684198961, -0.0121491952, 0.127185106, -0.18503201, -0.194590867, 0.25447163, -4.787710e-02, 0.0185489878, 0.0749137476, 0.0754040703]> : tensor<10xf32>} : (memref<10xf32>) -> ()
    %alloc_3 = memref.alloc() : memref<10xf32>
    "lmhlo.constant"(%alloc_3) {disc.device = "gpu", value = dense<[0.110269576, -0.209282219, 0.023534907, -0.111158408, 0.166983217, -4.79283306E-4, -0.00845900736, -0.00818163063, 0.281652302, 0.121823721]> : tensor<10xf32>} : (memref<10xf32>) -> ()
    %dim = tensor.dim %0, %c0 : tensor<?x10xf32>
    %c10_4 = arith.constant 10 : index
    %1 = arith.muli %c10_4, %dim : index
    %reinterpret_cast = memref.reinterpret_cast %arg0 to offset: [0], sizes: [%dim, 10], strides: [10, 1] {kDiscSymbolicDimAttr = [@S0, @C10]} : memref<?x10xf32> to memref<?x10xf32>
    %2 = bufferization.to_tensor %reinterpret_cast : memref<?x10xf32>
    %3 = bufferization.to_memref %2 : memref<?x10xf32>
    %4 = bufferization.to_tensor %3 : memref<?x10xf32>
    %5 = bufferization.to_tensor %alloc_1 : memref<10x10xf32>
    %c0_5 = arith.constant 0 : index
    %dim_6 = tensor.dim %4, %c0_5 : tensor<?x10xf32>
    %c1 = arith.constant 1 : index
    %dim_7 = tensor.dim %5, %c1 : tensor<10x10xf32>
    %from_elements = tensor.from_elements %dim_6, %dim_7 : tensor<2xindex>
    %c0_8 = arith.constant 0 : index
    %extracted = tensor.extract %from_elements[%c0_8] : tensor<2xindex>
    %alloc_9 = memref.alloc(%extracted) : memref<?x10xf32>
    "lmhlo.dot_general"(%3, %alloc_1, %alloc_9) {disc.device = "gpu", dot_dimension_numbers = #mhlo.dot<lhs_contracting_dimensions = [1], rhs_contracting_dimensions = [0]>} : (memref<?x10xf32>, memref<10x10xf32>, memref<?x10xf32>) -> ()
    %6 = bufferization.to_tensor %alloc_9 : memref<?x10xf32>
    %7 = bufferization.to_memref %6 : memref<?x10xf32>
    %c10_10 = arith.constant 10 : index
    %8 = arith.muli %c10_10, %dim : index
    %reinterpret_cast_11 = memref.reinterpret_cast %7 to offset: [0], sizes: [%dim, 10], strides: [10, 1] {kDiscSymbolicDimAttr = [@S0, @C10]} : memref<?x10xf32> to memref<?x10xf32>
    %9 = bufferization.to_tensor %reinterpret_cast_11 : memref<?x10xf32>
    %10 = bufferization.to_memref %9 : memref<?x10xf32>
    %from_elements_12 = tensor.from_elements %dim, %c10 {disc.shape_op = true} : tensor<2xindex>
    %11 = bufferization.to_memref %from_elements_12 : memref<2xindex>
    %12 = bufferization.to_tensor %alloc_2 : memref<10xf32>
    %13 = bufferization.to_tensor %11 : memref<2xindex>
    %c0_13 = arith.constant 0 : index
    %extracted_14 = tensor.extract %13[%c0_13] : tensor<2xindex>
    %alloc_15 = memref.alloc(%extracted_14) : memref<?x10xf32>
    "lmhlo.dynamic_broadcast_in_dim"(%alloc_2, %11, %alloc_15) {broadcast_dimensions = dense<1> : tensor<1xi64>, disc.device = "gpu"} : (memref<10xf32>, memref<2xindex>, memref<?x10xf32>) -> ()
    %14 = bufferization.to_tensor %alloc_15 : memref<?x10xf32>
    %15 = bufferization.to_memref %14 : memref<?x10xf32>
    %c10_16 = arith.constant 10 : index
    %16 = arith.muli %c10_16, %dim : index
    %reinterpret_cast_17 = memref.reinterpret_cast %15 to offset: [0], sizes: [%dim, 10], strides: [10, 1] {kDiscSymbolicDimAttr = [@S0, @C10]} : memref<?x10xf32> to memref<?x10xf32>
    %17 = bufferization.to_tensor %reinterpret_cast_17 : memref<?x10xf32>
    %18 = bufferization.to_memref %17 : memref<?x10xf32>
    %19 = bufferization.to_tensor %10 : memref<?x10xf32>
    %20 = bufferization.to_tensor %18 : memref<?x10xf32>
    %21 = shape.shape_of %19 : tensor<?x10xf32> -> tensor<2xindex>
    %c0_18 = arith.constant 0 : index
    %extracted_19 = tensor.extract %21[%c0_18] : tensor<2xindex>
    %alloc_20 = memref.alloc(%extracted_19) : memref<?x10xf32>
    "lmhlo.add"(%10, %18, %alloc_20) {disc.device = "gpu"} : (memref<?x10xf32>, memref<?x10xf32>, memref<?x10xf32>) -> ()
    %22 = bufferization.to_tensor %alloc_20 : memref<?x10xf32>
    %23 = bufferization.to_memref %22 : memref<?x10xf32>
    %c10_21 = arith.constant 10 : index
    %24 = arith.muli %c10_21, %dim : index
    %reinterpret_cast_22 = memref.reinterpret_cast %23 to offset: [0], sizes: [%dim, 10], strides: [10, 1] {kDiscSymbolicDimAttr = [@S0, @C10]} : memref<?x10xf32> to memref<?x10xf32>
    %25 = bufferization.to_tensor %reinterpret_cast_22 : memref<?x10xf32>
    %26 = bufferization.to_memref %25 : memref<?x10xf32>
    %27 = bufferization.to_tensor %alloc : memref<f32>
    %28 = bufferization.to_tensor %11 : memref<2xindex>
    %c0_23 = arith.constant 0 : index
    %extracted_24 = tensor.extract %28[%c0_23] : tensor<2xindex>
    %alloc_25 = memref.alloc(%extracted_24) : memref<?x10xf32>
    "lmhlo.dynamic_broadcast_in_dim"(%alloc, %11, %alloc_25) {broadcast_dimensions = dense<> : tensor<0xi64>, disc.device = "gpu"} : (memref<f32>, memref<2xindex>, memref<?x10xf32>) -> ()
    %29 = bufferization.to_tensor %alloc_25 : memref<?x10xf32>
    %30 = bufferization.to_memref %29 : memref<?x10xf32>
    %c10_26 = arith.constant 10 : index
    %31 = arith.muli %c10_26, %dim : index
    %reinterpret_cast_27 = memref.reinterpret_cast %30 to offset: [0], sizes: [%dim, 10], strides: [10, 1] {kDiscSymbolicDimAttr = [@S0, @C10]} : memref<?x10xf32> to memref<?x10xf32>
    %32 = bufferization.to_tensor %reinterpret_cast_27 : memref<?x10xf32>
    %33 = bufferization.to_memref %32 : memref<?x10xf32>
    %34 = bufferization.to_tensor %26 : memref<?x10xf32>
    %35 = bufferization.to_tensor %33 : memref<?x10xf32>
    %36 = shape.shape_of %34 : tensor<?x10xf32> -> tensor<2xindex>
    %c0_28 = arith.constant 0 : index
    %extracted_29 = tensor.extract %36[%c0_28] : tensor<2xindex>
    %alloc_30 = memref.alloc(%extracted_29) : memref<?x10xf32>
    "lmhlo.maximum"(%26, %33, %alloc_30) {disc.device = "gpu"} : (memref<?x10xf32>, memref<?x10xf32>, memref<?x10xf32>) -> ()
    %37 = bufferization.to_tensor %alloc_30 : memref<?x10xf32>
    %38 = bufferization.to_memref %37 : memref<?x10xf32>
    %c10_31 = arith.constant 10 : index
    %39 = arith.muli %c10_31, %dim : index
    %reinterpret_cast_32 = memref.reinterpret_cast %38 to offset: [0], sizes: [%dim, 10], strides: [10, 1] {kDiscSymbolicDimAttr = [@S0, @C10]} : memref<?x10xf32> to memref<?x10xf32>
    %40 = bufferization.to_tensor %reinterpret_cast_32 : memref<?x10xf32>
    %41 = bufferization.to_memref %40 : memref<?x10xf32>
    %42 = bufferization.to_tensor %41 : memref<?x10xf32>
    %43 = bufferization.to_tensor %alloc_0 : memref<10x10xf32>
    %c0_33 = arith.constant 0 : index
    %dim_34 = tensor.dim %42, %c0_33 : tensor<?x10xf32>
    %c1_35 = arith.constant 1 : index
    %dim_36 = tensor.dim %43, %c1_35 : tensor<10x10xf32>
    %from_elements_37 = tensor.from_elements %dim_34, %dim_36 : tensor<2xindex>
    %c0_38 = arith.constant 0 : index
    %extracted_39 = tensor.extract %from_elements_37[%c0_38] : tensor<2xindex>
    %alloc_40 = memref.alloc(%extracted_39) : memref<?x10xf32>
    "lmhlo.dot_general"(%41, %alloc_0, %alloc_40) {disc.device = "gpu", dot_dimension_numbers = #mhlo.dot<lhs_contracting_dimensions = [1], rhs_contracting_dimensions = [0]>} : (memref<?x10xf32>, memref<10x10xf32>, memref<?x10xf32>) -> ()
    %44 = bufferization.to_tensor %alloc_40 : memref<?x10xf32>
    %45 = bufferization.to_memref %44 : memref<?x10xf32>
    %c10_41 = arith.constant 10 : index
    %46 = arith.muli %c10_41, %dim : index
    %reinterpret_cast_42 = memref.reinterpret_cast %45 to offset: [0], sizes: [%dim, 10], strides: [10, 1] {kDiscSymbolicDimAttr = [@S0, @C10]} : memref<?x10xf32> to memref<?x10xf32>
    %47 = bufferization.to_tensor %reinterpret_cast_42 : memref<?x10xf32>
    %48 = bufferization.to_memref %47 : memref<?x10xf32>
    %49 = bufferization.to_tensor %alloc_3 : memref<10xf32>
    %50 = bufferization.to_tensor %11 : memref<2xindex>
    %c0_43 = arith.constant 0 : index
    %extracted_44 = tensor.extract %50[%c0_43] : tensor<2xindex>
    %alloc_45 = memref.alloc(%extracted_44) : memref<?x10xf32>
    "lmhlo.dynamic_broadcast_in_dim"(%alloc_3, %11, %alloc_45) {broadcast_dimensions = dense<1> : tensor<1xi64>, disc.device = "gpu"} : (memref<10xf32>, memref<2xindex>, memref<?x10xf32>) -> ()
    %51 = bufferization.to_tensor %alloc_45 : memref<?x10xf32>
    %52 = bufferization.to_memref %51 : memref<?x10xf32>
    %c10_46 = arith.constant 10 : index
    %53 = arith.muli %c10_46, %dim : index
    %reinterpret_cast_47 = memref.reinterpret_cast %52 to offset: [0], sizes: [%dim, 10], strides: [10, 1] {kDiscSymbolicDimAttr = [@S0, @C10]} : memref<?x10xf32> to memref<?x10xf32>
    %54 = bufferization.to_tensor %reinterpret_cast_47 : memref<?x10xf32>
    %55 = bufferization.to_memref %54 : memref<?x10xf32>
    %56 = bufferization.to_tensor %48 : memref<?x10xf32>
    %57 = bufferization.to_tensor %55 : memref<?x10xf32>
    %58 = shape.shape_of %56 : tensor<?x10xf32> -> tensor<2xindex>
    %c0_48 = arith.constant 0 : index
    %extracted_49 = tensor.extract %58[%c0_48] : tensor<2xindex>
    %alloc_50 = memref.alloc(%extracted_49) : memref<?x10xf32>
    "lmhlo.add"(%48, %55, %alloc_50) {disc.device = "gpu"} : (memref<?x10xf32>, memref<?x10xf32>, memref<?x10xf32>) -> ()
    %59 = bufferization.to_tensor %alloc_50 : memref<?x10xf32>
    %60 = bufferization.to_memref %59 : memref<?x10xf32>
    %c10_51 = arith.constant 10 : index
    %61 = arith.muli %c10_51, %dim : index
    %reinterpret_cast_52 = memref.reinterpret_cast %60 to offset: [0], sizes: [%dim, 10], strides: [10, 1] {kDiscSymbolicDimAttr = [@S0, @C10]} : memref<?x10xf32> to memref<?x10xf32>
    %62 = bufferization.to_tensor %reinterpret_cast_52 : memref<?x10xf32>
    %63 = bufferization.to_memref %62 : memref<?x10xf32>
    %64 = bufferization.to_tensor %63 : memref<?x10xf32>
    %65 = bufferization.to_tensor %33 : memref<?x10xf32>
    %66 = shape.shape_of %64 : tensor<?x10xf32> -> tensor<2xindex>
    %c0_53 = arith.constant 0 : index
    %extracted_54 = tensor.extract %66[%c0_53] : tensor<2xindex>
    %alloc_55 = memref.alloc(%extracted_54) : memref<?x10xf32>
    "lmhlo.maximum"(%63, %33, %alloc_55) {disc.device = "gpu"} : (memref<?x10xf32>, memref<?x10xf32>, memref<?x10xf32>) -> ()
    %67 = bufferization.to_tensor %alloc_55 : memref<?x10xf32>
    %68 = bufferization.to_memref %67 : memref<?x10xf32>
    %c10_56 = arith.constant 10 : index
    %69 = arith.muli %c10_56, %dim : index
    %reinterpret_cast_57 = memref.reinterpret_cast %68 to offset: [0], sizes: [%dim, 10], strides: [10, 1] {kDiscSymbolicDimAttr = [@S0, @C10]} : memref<?x10xf32> to memref<?x10xf32>
    return %reinterpret_cast_57 : memref<?x10xf32>
  }
  "disc_shape.SymbolicDim"() {knownNegativeOne = false, knownNonNegative = true, knownNonSizeOne = false, knownNonSizeZero = false, sym_name = "S0", value = -9223372036854775808 : i64} : () -> ()
  "disc_shape.SymbolicDim"() {knownNegativeOne = false, knownNonNegative = true, knownNonSizeOne = true, knownNonSizeZero = true, sym_name = "C10", value = 10 : i64} : () -> ()
  func.func @shape_constraint_graph() {
    return
  }
}


// -----// IR Dump After Canonicalizer (canonicalize) //----- //
func.func @main(%arg0: memref<?x10xf32>) -> memref<?x10xf32> attributes {tf.entry_function = {input_placements = "gpu", inputs = "input.1_", output_placements = "gpu", outputs = "8"}} {
  %c10 = arith.constant 10 : index
  %c0 = arith.constant 0 : index
  %alloc = memref.alloc() : memref<f32>
  "lmhlo.constant"(%alloc) {disc.device = "gpu", value = dense<0.000000e+00> : tensor<f32>} : (memref<f32>) -> ()
  %alloc_0 = memref.alloc() : memref<10x10xf32>
  "lmhlo.constant"(%alloc_0) {disc.device = "gpu", value = dense_resource<__elided__> : tensor<10x10xf32>} : (memref<10x10xf32>) -> ()
  %alloc_1 = memref.alloc() : memref<10x10xf32>
  "lmhlo.constant"(%alloc_1) {disc.device = "gpu", value = dense_resource<__elided__> : tensor<10x10xf32>} : (memref<10x10xf32>) -> ()
  %alloc_2 = memref.alloc() : memref<10xf32>
  "lmhlo.constant"(%alloc_2) {disc.device = "gpu", value = dense<[-0.0684198961, -0.0121491952, 0.127185106, -0.18503201, -0.194590867, 0.25447163, -4.787710e-02, 0.0185489878, 0.0749137476, 0.0754040703]> : tensor<10xf32>} : (memref<10xf32>) -> ()
  %alloc_3 = memref.alloc() : memref<10xf32>
  "lmhlo.constant"(%alloc_3) {disc.device = "gpu", value = dense<[0.110269576, -0.209282219, 0.023534907, -0.111158408, 0.166983217, -4.79283306E-4, -0.00845900736, -0.00818163063, 0.281652302, 0.121823721]> : tensor<10xf32>} : (memref<10xf32>) -> ()
  %dim = memref.dim %arg0, %c0 : memref<?x10xf32>
  %reinterpret_cast = memref.reinterpret_cast %arg0 to offset: [0], sizes: [%dim, 10], strides: [10, 1] {kDiscSymbolicDimAttr = [@S0, @C10]} : memref<?x10xf32> to memref<?x10xf32>
  %alloc_4 = memref.alloc(%dim) : memref<?x10xf32>
  "lmhlo.dot_general"(%reinterpret_cast, %alloc_1, %alloc_4) {disc.device = "gpu", dot_dimension_numbers = #mhlo.dot<lhs_contracting_dimensions = [1], rhs_contracting_dimensions = [0]>} : (memref<?x10xf32>, memref<10x10xf32>, memref<?x10xf32>) -> ()
  %reinterpret_cast_5 = memref.reinterpret_cast %alloc_4 to offset: [0], sizes: [%dim, 10], strides: [10, 1] {kDiscSymbolicDimAttr = [@S0, @C10]} : memref<?x10xf32> to memref<?x10xf32>
  %from_elements = tensor.from_elements %dim, %c10 {disc.shape_op = true} : tensor<2xindex>
  %0 = bufferization.to_memref %from_elements : memref<2xindex>
  %alloc_6 = memref.alloc(%dim) : memref<?x10xf32>
  "lmhlo.dynamic_broadcast_in_dim"(%alloc_2, %0, %alloc_6) {broadcast_dimensions = dense<1> : tensor<1xi64>, disc.device = "gpu"} : (memref<10xf32>, memref<2xindex>, memref<?x10xf32>) -> ()
  %reinterpret_cast_7 = memref.reinterpret_cast %alloc_6 to offset: [0], sizes: [%dim, 10], strides: [10, 1] {kDiscSymbolicDimAttr = [@S0, @C10]} : memref<?x10xf32> to memref<?x10xf32>
  %alloc_8 = memref.alloc(%dim) : memref<?x10xf32>
  "lmhlo.add"(%reinterpret_cast_5, %reinterpret_cast_7, %alloc_8) {disc.device = "gpu"} : (memref<?x10xf32>, memref<?x10xf32>, memref<?x10xf32>) -> ()
  %reinterpret_cast_9 = memref.reinterpret_cast %alloc_8 to offset: [0], sizes: [%dim, 10], strides: [10, 1] {kDiscSymbolicDimAttr = [@S0, @C10]} : memref<?x10xf32> to memref<?x10xf32>
  %1 = bufferization.to_tensor %0 : memref<2xindex>
  %extracted = tensor.extract %1[%c0] : tensor<2xindex>
  %alloc_10 = memref.alloc(%extracted) : memref<?x10xf32>
  "lmhlo.dynamic_broadcast_in_dim"(%alloc, %0, %alloc_10) {broadcast_dimensions = dense<> : tensor<0xi64>, disc.device = "gpu"} : (memref<f32>, memref<2xindex>, memref<?x10xf32>) -> ()
  %reinterpret_cast_11 = memref.reinterpret_cast %alloc_10 to offset: [0], sizes: [%dim, 10], strides: [10, 1] {kDiscSymbolicDimAttr = [@S0, @C10]} : memref<?x10xf32> to memref<?x10xf32>
  %alloc_12 = memref.alloc(%dim) : memref<?x10xf32>
  "lmhlo.maximum"(%reinterpret_cast_9, %reinterpret_cast_11, %alloc_12) {disc.device = "gpu"} : (memref<?x10xf32>, memref<?x10xf32>, memref<?x10xf32>) -> ()
  %reinterpret_cast_13 = memref.reinterpret_cast %alloc_12 to offset: [0], sizes: [%dim, 10], strides: [10, 1] {kDiscSymbolicDimAttr = [@S0, @C10]} : memref<?x10xf32> to memref<?x10xf32>
  %alloc_14 = memref.alloc(%dim) : memref<?x10xf32>
  "lmhlo.dot_general"(%reinterpret_cast_13, %alloc_0, %alloc_14) {disc.device = "gpu", dot_dimension_numbers = #mhlo.dot<lhs_contracting_dimensions = [1], rhs_contracting_dimensions = [0]>} : (memref<?x10xf32>, memref<10x10xf32>, memref<?x10xf32>) -> ()
  %reinterpret_cast_15 = memref.reinterpret_cast %alloc_14 to offset: [0], sizes: [%dim, 10], strides: [10, 1] {kDiscSymbolicDimAttr = [@S0, @C10]} : memref<?x10xf32> to memref<?x10xf32>
  %2 = bufferization.to_tensor %0 : memref<2xindex>
  %extracted_16 = tensor.extract %2[%c0] : tensor<2xindex>
  %alloc_17 = memref.alloc(%extracted_16) : memref<?x10xf32>
  "lmhlo.dynamic_broadcast_in_dim"(%alloc_3, %0, %alloc_17) {broadcast_dimensions = dense<1> : tensor<1xi64>, disc.device = "gpu"} : (memref<10xf32>, memref<2xindex>, memref<?x10xf32>) -> ()
  %reinterpret_cast_18 = memref.reinterpret_cast %alloc_17 to offset: [0], sizes: [%dim, 10], strides: [10, 1] {kDiscSymbolicDimAttr = [@S0, @C10]} : memref<?x10xf32> to memref<?x10xf32>
  %alloc_19 = memref.alloc(%dim) : memref<?x10xf32>
  "lmhlo.add"(%reinterpret_cast_15, %reinterpret_cast_18, %alloc_19) {disc.device = "gpu"} : (memref<?x10xf32>, memref<?x10xf32>, memref<?x10xf32>) -> ()
  %reinterpret_cast_20 = memref.reinterpret_cast %alloc_19 to offset: [0], sizes: [%dim, 10], strides: [10, 1] {kDiscSymbolicDimAttr = [@S0, @C10]} : memref<?x10xf32> to memref<?x10xf32>
  %alloc_21 = memref.alloc(%dim) : memref<?x10xf32>
  "lmhlo.maximum"(%reinterpret_cast_20, %reinterpret_cast_11, %alloc_21) {disc.device = "gpu"} : (memref<?x10xf32>, memref<?x10xf32>, memref<?x10xf32>) -> ()
  %reinterpret_cast_22 = memref.reinterpret_cast %alloc_21 to offset: [0], sizes: [%dim, 10], strides: [10, 1] {kDiscSymbolicDimAttr = [@S0, @C10]} : memref<?x10xf32> to memref<?x10xf32>
  return %reinterpret_cast_22 : memref<?x10xf32>
}

// -----// IR Dump After LegalizeToTensorOpPass (lhlo-legalize-to-tensor-op) //----- //
func.func @main(%arg0: memref<?x10xf32>) -> memref<?x10xf32> attributes {tf.entry_function = {input_placements = "gpu", inputs = "input.1_", output_placements = "gpu", outputs = "8"}} {
  %c10 = arith.constant 10 : index
  %c0 = arith.constant 0 : index
  %alloc = memref.alloc() : memref<f32>
  "lmhlo.constant"(%alloc) {disc.device = "gpu", value = dense<0.000000e+00> : tensor<f32>} : (memref<f32>) -> ()
  %alloc_0 = memref.alloc() : memref<10x10xf32>
  "lmhlo.constant"(%alloc_0) {disc.device = "gpu", value = dense_resource<__elided__> : tensor<10x10xf32>} : (memref<10x10xf32>) -> ()
  %alloc_1 = memref.alloc() : memref<10x10xf32>
  "lmhlo.constant"(%alloc_1) {disc.device = "gpu", value = dense_resource<__elided__> : tensor<10x10xf32>} : (memref<10x10xf32>) -> ()
  %alloc_2 = memref.alloc() : memref<10xf32>
  "lmhlo.constant"(%alloc_2) {disc.device = "gpu", value = dense<[-0.0684198961, -0.0121491952, 0.127185106, -0.18503201, -0.194590867, 0.25447163, -4.787710e-02, 0.0185489878, 0.0749137476, 0.0754040703]> : tensor<10xf32>} : (memref<10xf32>) -> ()
  %alloc_3 = memref.alloc() : memref<10xf32>
  "lmhlo.constant"(%alloc_3) {disc.device = "gpu", value = dense<[0.110269576, -0.209282219, 0.023534907, -0.111158408, 0.166983217, -4.79283306E-4, -0.00845900736, -0.00818163063, 0.281652302, 0.121823721]> : tensor<10xf32>} : (memref<10xf32>) -> ()
  %dim = memref.dim %arg0, %c0 : memref<?x10xf32>
  %reinterpret_cast = memref.reinterpret_cast %arg0 to offset: [0], sizes: [%dim, 10], strides: [10, 1] {kDiscSymbolicDimAttr = [@S0, @C10]} : memref<?x10xf32> to memref<?x10xf32>
  %alloc_4 = memref.alloc(%dim) : memref<?x10xf32>
  "lmhlo.dot_general"(%reinterpret_cast, %alloc_1, %alloc_4) {disc.device = "gpu", dot_dimension_numbers = #mhlo.dot<lhs_contracting_dimensions = [1], rhs_contracting_dimensions = [0]>} : (memref<?x10xf32>, memref<10x10xf32>, memref<?x10xf32>) -> ()
  %reinterpret_cast_5 = memref.reinterpret_cast %alloc_4 to offset: [0], sizes: [%dim, 10], strides: [10, 1] {kDiscSymbolicDimAttr = [@S0, @C10]} : memref<?x10xf32> to memref<?x10xf32>
  %from_elements = tensor.from_elements %dim, %c10 {disc.shape_op = true} : tensor<2xindex>
  %0 = bufferization.to_memref %from_elements : memref<2xindex>
  %alloc_6 = memref.alloc(%dim) : memref<?x10xf32>
  "lmhlo.dynamic_broadcast_in_dim"(%alloc_2, %0, %alloc_6) {broadcast_dimensions = dense<1> : tensor<1xi64>, disc.device = "gpu"} : (memref<10xf32>, memref<2xindex>, memref<?x10xf32>) -> ()
  %reinterpret_cast_7 = memref.reinterpret_cast %alloc_6 to offset: [0], sizes: [%dim, 10], strides: [10, 1] {kDiscSymbolicDimAttr = [@S0, @C10]} : memref<?x10xf32> to memref<?x10xf32>
  %alloc_8 = memref.alloc(%dim) : memref<?x10xf32>
  "lmhlo.add"(%reinterpret_cast_5, %reinterpret_cast_7, %alloc_8) {disc.device = "gpu"} : (memref<?x10xf32>, memref<?x10xf32>, memref<?x10xf32>) -> ()
  %reinterpret_cast_9 = memref.reinterpret_cast %alloc_8 to offset: [0], sizes: [%dim, 10], strides: [10, 1] {kDiscSymbolicDimAttr = [@S0, @C10]} : memref<?x10xf32> to memref<?x10xf32>
  %1 = memref.load %0[%c0] : memref<2xindex>
  %alloc_10 = memref.alloc(%1) : memref<?x10xf32>
  "lmhlo.dynamic_broadcast_in_dim"(%alloc, %0, %alloc_10) {broadcast_dimensions = dense<> : tensor<0xi64>, disc.device = "gpu"} : (memref<f32>, memref<2xindex>, memref<?x10xf32>) -> ()
  %reinterpret_cast_11 = memref.reinterpret_cast %alloc_10 to offset: [0], sizes: [%dim, 10], strides: [10, 1] {kDiscSymbolicDimAttr = [@S0, @C10]} : memref<?x10xf32> to memref<?x10xf32>
  %alloc_12 = memref.alloc(%dim) : memref<?x10xf32>
  "lmhlo.maximum"(%reinterpret_cast_9, %reinterpret_cast_11, %alloc_12) {disc.device = "gpu"} : (memref<?x10xf32>, memref<?x10xf32>, memref<?x10xf32>) -> ()
  %reinterpret_cast_13 = memref.reinterpret_cast %alloc_12 to offset: [0], sizes: [%dim, 10], strides: [10, 1] {kDiscSymbolicDimAttr = [@S0, @C10]} : memref<?x10xf32> to memref<?x10xf32>
  %alloc_14 = memref.alloc(%dim) : memref<?x10xf32>
  "lmhlo.dot_general"(%reinterpret_cast_13, %alloc_0, %alloc_14) {disc.device = "gpu", dot_dimension_numbers = #mhlo.dot<lhs_contracting_dimensions = [1], rhs_contracting_dimensions = [0]>} : (memref<?x10xf32>, memref<10x10xf32>, memref<?x10xf32>) -> ()
  %reinterpret_cast_15 = memref.reinterpret_cast %alloc_14 to offset: [0], sizes: [%dim, 10], strides: [10, 1] {kDiscSymbolicDimAttr = [@S0, @C10]} : memref<?x10xf32> to memref<?x10xf32>
  %2 = memref.load %0[%c0] : memref<2xindex>
  %alloc_16 = memref.alloc(%2) : memref<?x10xf32>
  "lmhlo.dynamic_broadcast_in_dim"(%alloc_3, %0, %alloc_16) {broadcast_dimensions = dense<1> : tensor<1xi64>, disc.device = "gpu"} : (memref<10xf32>, memref<2xindex>, memref<?x10xf32>) -> ()
  %reinterpret_cast_17 = memref.reinterpret_cast %alloc_16 to offset: [0], sizes: [%dim, 10], strides: [10, 1] {kDiscSymbolicDimAttr = [@S0, @C10]} : memref<?x10xf32> to memref<?x10xf32>
  %alloc_18 = memref.alloc(%dim) : memref<?x10xf32>
  "lmhlo.add"(%reinterpret_cast_15, %reinterpret_cast_17, %alloc_18) {disc.device = "gpu"} : (memref<?x10xf32>, memref<?x10xf32>, memref<?x10xf32>) -> ()
  %reinterpret_cast_19 = memref.reinterpret_cast %alloc_18 to offset: [0], sizes: [%dim, 10], strides: [10, 1] {kDiscSymbolicDimAttr = [@S0, @C10]} : memref<?x10xf32> to memref<?x10xf32>
  %alloc_20 = memref.alloc(%dim) : memref<?x10xf32>
  "lmhlo.maximum"(%reinterpret_cast_19, %reinterpret_cast_11, %alloc_20) {disc.device = "gpu"} : (memref<?x10xf32>, memref<?x10xf32>, memref<?x10xf32>) -> ()
  %reinterpret_cast_21 = memref.reinterpret_cast %alloc_20 to offset: [0], sizes: [%dim, 10], strides: [10, 1] {kDiscSymbolicDimAttr = [@S0, @C10]} : memref<?x10xf32> to memref<?x10xf32>
  return %reinterpret_cast_21 : memref<?x10xf32>
}

// -----// IR Dump After Canonicalizer (canonicalize) //----- //
func.func @main(%arg0: memref<?x10xf32>) -> memref<?x10xf32> attributes {tf.entry_function = {input_placements = "gpu", inputs = "input.1_", output_placements = "gpu", outputs = "8"}} {
  %c10 = arith.constant 10 : index
  %c0 = arith.constant 0 : index
  %alloc = memref.alloc() : memref<f32>
  "lmhlo.constant"(%alloc) {disc.device = "gpu", value = dense<0.000000e+00> : tensor<f32>} : (memref<f32>) -> ()
  %alloc_0 = memref.alloc() : memref<10x10xf32>
  "lmhlo.constant"(%alloc_0) {disc.device = "gpu", value = dense_resource<__elided__> : tensor<10x10xf32>} : (memref<10x10xf32>) -> ()
  %alloc_1 = memref.alloc() : memref<10x10xf32>
  "lmhlo.constant"(%alloc_1) {disc.device = "gpu", value = dense_resource<__elided__> : tensor<10x10xf32>} : (memref<10x10xf32>) -> ()
  %alloc_2 = memref.alloc() : memref<10xf32>
  "lmhlo.constant"(%alloc_2) {disc.device = "gpu", value = dense<[-0.0684198961, -0.0121491952, 0.127185106, -0.18503201, -0.194590867, 0.25447163, -4.787710e-02, 0.0185489878, 0.0749137476, 0.0754040703]> : tensor<10xf32>} : (memref<10xf32>) -> ()
  %alloc_3 = memref.alloc() : memref<10xf32>
  "lmhlo.constant"(%alloc_3) {disc.device = "gpu", value = dense<[0.110269576, -0.209282219, 0.023534907, -0.111158408, 0.166983217, -4.79283306E-4, -0.00845900736, -0.00818163063, 0.281652302, 0.121823721]> : tensor<10xf32>} : (memref<10xf32>) -> ()
  %dim = memref.dim %arg0, %c0 : memref<?x10xf32>
  %reinterpret_cast = memref.reinterpret_cast %arg0 to offset: [0], sizes: [%dim, 10], strides: [10, 1] {kDiscSymbolicDimAttr = [@S0, @C10]} : memref<?x10xf32> to memref<?x10xf32>
  %alloc_4 = memref.alloc(%dim) : memref<?x10xf32>
  "lmhlo.dot_general"(%reinterpret_cast, %alloc_1, %alloc_4) {disc.device = "gpu", dot_dimension_numbers = #mhlo.dot<lhs_contracting_dimensions = [1], rhs_contracting_dimensions = [0]>} : (memref<?x10xf32>, memref<10x10xf32>, memref<?x10xf32>) -> ()
  %reinterpret_cast_5 = memref.reinterpret_cast %alloc_4 to offset: [0], sizes: [%dim, 10], strides: [10, 1] {kDiscSymbolicDimAttr = [@S0, @C10]} : memref<?x10xf32> to memref<?x10xf32>
  %from_elements = tensor.from_elements %dim, %c10 {disc.shape_op = true} : tensor<2xindex>
  %0 = bufferization.to_memref %from_elements : memref<2xindex>
  %alloc_6 = memref.alloc(%dim) : memref<?x10xf32>
  "lmhlo.dynamic_broadcast_in_dim"(%alloc_2, %0, %alloc_6) {broadcast_dimensions = dense<1> : tensor<1xi64>, disc.device = "gpu"} : (memref<10xf32>, memref<2xindex>, memref<?x10xf32>) -> ()
  %reinterpret_cast_7 = memref.reinterpret_cast %alloc_6 to offset: [0], sizes: [%dim, 10], strides: [10, 1] {kDiscSymbolicDimAttr = [@S0, @C10]} : memref<?x10xf32> to memref<?x10xf32>
  %alloc_8 = memref.alloc(%dim) : memref<?x10xf32>
  "lmhlo.add"(%reinterpret_cast_5, %reinterpret_cast_7, %alloc_8) {disc.device = "gpu"} : (memref<?x10xf32>, memref<?x10xf32>, memref<?x10xf32>) -> ()
  %reinterpret_cast_9 = memref.reinterpret_cast %alloc_8 to offset: [0], sizes: [%dim, 10], strides: [10, 1] {kDiscSymbolicDimAttr = [@S0, @C10]} : memref<?x10xf32> to memref<?x10xf32>
  %alloc_10 = memref.alloc(%dim) : memref<?x10xf32>
  "lmhlo.dynamic_broadcast_in_dim"(%alloc, %0, %alloc_10) {broadcast_dimensions = dense<> : tensor<0xi64>, disc.device = "gpu"} : (memref<f32>, memref<2xindex>, memref<?x10xf32>) -> ()
  %reinterpret_cast_11 = memref.reinterpret_cast %alloc_10 to offset: [0], sizes: [%dim, 10], strides: [10, 1] {kDiscSymbolicDimAttr = [@S0, @C10]} : memref<?x10xf32> to memref<?x10xf32>
  %alloc_12 = memref.alloc(%dim) : memref<?x10xf32>
  "lmhlo.maximum"(%reinterpret_cast_9, %reinterpret_cast_11, %alloc_12) {disc.device = "gpu"} : (memref<?x10xf32>, memref<?x10xf32>, memref<?x10xf32>) -> ()
  %reinterpret_cast_13 = memref.reinterpret_cast %alloc_12 to offset: [0], sizes: [%dim, 10], strides: [10, 1] {kDiscSymbolicDimAttr = [@S0, @C10]} : memref<?x10xf32> to memref<?x10xf32>
  %alloc_14 = memref.alloc(%dim) : memref<?x10xf32>
  "lmhlo.dot_general"(%reinterpret_cast_13, %alloc_0, %alloc_14) {disc.device = "gpu", dot_dimension_numbers = #mhlo.dot<lhs_contracting_dimensions = [1], rhs_contracting_dimensions = [0]>} : (memref<?x10xf32>, memref<10x10xf32>, memref<?x10xf32>) -> ()
  %reinterpret_cast_15 = memref.reinterpret_cast %alloc_14 to offset: [0], sizes: [%dim, 10], strides: [10, 1] {kDiscSymbolicDimAttr = [@S0, @C10]} : memref<?x10xf32> to memref<?x10xf32>
  %alloc_16 = memref.alloc(%dim) : memref<?x10xf32>
  "lmhlo.dynamic_broadcast_in_dim"(%alloc_3, %0, %alloc_16) {broadcast_dimensions = dense<1> : tensor<1xi64>, disc.device = "gpu"} : (memref<10xf32>, memref<2xindex>, memref<?x10xf32>) -> ()
  %reinterpret_cast_17 = memref.reinterpret_cast %alloc_16 to offset: [0], sizes: [%dim, 10], strides: [10, 1] {kDiscSymbolicDimAttr = [@S0, @C10]} : memref<?x10xf32> to memref<?x10xf32>
  %alloc_18 = memref.alloc(%dim) : memref<?x10xf32>
  "lmhlo.add"(%reinterpret_cast_15, %reinterpret_cast_17, %alloc_18) {disc.device = "gpu"} : (memref<?x10xf32>, memref<?x10xf32>, memref<?x10xf32>) -> ()
  %reinterpret_cast_19 = memref.reinterpret_cast %alloc_18 to offset: [0], sizes: [%dim, 10], strides: [10, 1] {kDiscSymbolicDimAttr = [@S0, @C10]} : memref<?x10xf32> to memref<?x10xf32>
  %alloc_20 = memref.alloc(%dim) : memref<?x10xf32>
  "lmhlo.maximum"(%reinterpret_cast_19, %reinterpret_cast_11, %alloc_20) {disc.device = "gpu"} : (memref<?x10xf32>, memref<?x10xf32>, memref<?x10xf32>) -> ()
  %reinterpret_cast_21 = memref.reinterpret_cast %alloc_20 to offset: [0], sizes: [%dim, 10], strides: [10, 1] {kDiscSymbolicDimAttr = [@S0, @C10]} : memref<?x10xf32> to memref<?x10xf32>
  return %reinterpret_cast_21 : memref<?x10xf32>
}

// -----// IR Dump After TensorBufferize (tensor-bufferize) //----- //
func.func @main(%arg0: memref<?x10xf32>) -> memref<?x10xf32> attributes {tf.entry_function = {input_placements = "gpu", inputs = "input.1_", output_placements = "gpu", outputs = "8"}} {
  %c10 = arith.constant 10 : index
  %c0 = arith.constant 0 : index
  %alloc = memref.alloc() : memref<f32>
  "lmhlo.constant"(%alloc) {disc.device = "gpu", value = dense<0.000000e+00> : tensor<f32>} : (memref<f32>) -> ()
  %alloc_0 = memref.alloc() : memref<10x10xf32>
  "lmhlo.constant"(%alloc_0) {disc.device = "gpu", value = dense_resource<__elided__> : tensor<10x10xf32>} : (memref<10x10xf32>) -> ()
  %alloc_1 = memref.alloc() : memref<10x10xf32>
  "lmhlo.constant"(%alloc_1) {disc.device = "gpu", value = dense_resource<__elided__> : tensor<10x10xf32>} : (memref<10x10xf32>) -> ()
  %alloc_2 = memref.alloc() : memref<10xf32>
  "lmhlo.constant"(%alloc_2) {disc.device = "gpu", value = dense<[-0.0684198961, -0.0121491952, 0.127185106, -0.18503201, -0.194590867, 0.25447163, -4.787710e-02, 0.0185489878, 0.0749137476, 0.0754040703]> : tensor<10xf32>} : (memref<10xf32>) -> ()
  %alloc_3 = memref.alloc() : memref<10xf32>
  "lmhlo.constant"(%alloc_3) {disc.device = "gpu", value = dense<[0.110269576, -0.209282219, 0.023534907, -0.111158408, 0.166983217, -4.79283306E-4, -0.00845900736, -0.00818163063, 0.281652302, 0.121823721]> : tensor<10xf32>} : (memref<10xf32>) -> ()
  %dim = memref.dim %arg0, %c0 : memref<?x10xf32>
  %reinterpret_cast = memref.reinterpret_cast %arg0 to offset: [0], sizes: [%dim, 10], strides: [10, 1] {kDiscSymbolicDimAttr = [@S0, @C10]} : memref<?x10xf32> to memref<?x10xf32>
  %alloc_4 = memref.alloc(%dim) : memref<?x10xf32>
  "lmhlo.dot_general"(%reinterpret_cast, %alloc_1, %alloc_4) {disc.device = "gpu", dot_dimension_numbers = #mhlo.dot<lhs_contracting_dimensions = [1], rhs_contracting_dimensions = [0]>} : (memref<?x10xf32>, memref<10x10xf32>, memref<?x10xf32>) -> ()
  %reinterpret_cast_5 = memref.reinterpret_cast %alloc_4 to offset: [0], sizes: [%dim, 10], strides: [10, 1] {kDiscSymbolicDimAttr = [@S0, @C10]} : memref<?x10xf32> to memref<?x10xf32>
  %alloc_6 = memref.alloc() {alignment = 64 : i64} : memref<2xindex>
  %c0_7 = arith.constant 0 : index
  %c1 = arith.constant 1 : index
  memref.store %dim, %alloc_6[%c0_7] : memref<2xindex>
  memref.store %c10, %alloc_6[%c1] : memref<2xindex>
  %alloc_8 = memref.alloc(%dim) : memref<?x10xf32>
  "lmhlo.dynamic_broadcast_in_dim"(%alloc_2, %alloc_6, %alloc_8) {broadcast_dimensions = dense<1> : tensor<1xi64>, disc.device = "gpu"} : (memref<10xf32>, memref<2xindex>, memref<?x10xf32>) -> ()
  %reinterpret_cast_9 = memref.reinterpret_cast %alloc_8 to offset: [0], sizes: [%dim, 10], strides: [10, 1] {kDiscSymbolicDimAttr = [@S0, @C10]} : memref<?x10xf32> to memref<?x10xf32>
  %alloc_10 = memref.alloc(%dim) : memref<?x10xf32>
  "lmhlo.add"(%reinterpret_cast_5, %reinterpret_cast_9, %alloc_10) {disc.device = "gpu"} : (memref<?x10xf32>, memref<?x10xf32>, memref<?x10xf32>) -> ()
  %reinterpret_cast_11 = memref.reinterpret_cast %alloc_10 to offset: [0], sizes: [%dim, 10], strides: [10, 1] {kDiscSymbolicDimAttr = [@S0, @C10]} : memref<?x10xf32> to memref<?x10xf32>
  %alloc_12 = memref.alloc(%dim) : memref<?x10xf32>
  "lmhlo.dynamic_broadcast_in_dim"(%alloc, %alloc_6, %alloc_12) {broadcast_dimensions = dense<> : tensor<0xi64>, disc.device = "gpu"} : (memref<f32>, memref<2xindex>, memref<?x10xf32>) -> ()
  %reinterpret_cast_13 = memref.reinterpret_cast %alloc_12 to offset: [0], sizes: [%dim, 10], strides: [10, 1] {kDiscSymbolicDimAttr = [@S0, @C10]} : memref<?x10xf32> to memref<?x10xf32>
  %alloc_14 = memref.alloc(%dim) : memref<?x10xf32>
  "lmhlo.maximum"(%reinterpret_cast_11, %reinterpret_cast_13, %alloc_14) {disc.device = "gpu"} : (memref<?x10xf32>, memref<?x10xf32>, memref<?x10xf32>) -> ()
  %reinterpret_cast_15 = memref.reinterpret_cast %alloc_14 to offset: [0], sizes: [%dim, 10], strides: [10, 1] {kDiscSymbolicDimAttr = [@S0, @C10]} : memref<?x10xf32> to memref<?x10xf32>
  %alloc_16 = memref.alloc(%dim) : memref<?x10xf32>
  "lmhlo.dot_general"(%reinterpret_cast_15, %alloc_0, %alloc_16) {disc.device = "gpu", dot_dimension_numbers = #mhlo.dot<lhs_contracting_dimensions = [1], rhs_contracting_dimensions = [0]>} : (memref<?x10xf32>, memref<10x10xf32>, memref<?x10xf32>) -> ()
  %reinterpret_cast_17 = memref.reinterpret_cast %alloc_16 to offset: [0], sizes: [%dim, 10], strides: [10, 1] {kDiscSymbolicDimAttr = [@S0, @C10]} : memref<?x10xf32> to memref<?x10xf32>
  %alloc_18 = memref.alloc(%dim) : memref<?x10xf32>
  "lmhlo.dynamic_broadcast_in_dim"(%alloc_3, %alloc_6, %alloc_18) {broadcast_dimensions = dense<1> : tensor<1xi64>, disc.device = "gpu"} : (memref<10xf32>, memref<2xindex>, memref<?x10xf32>) -> ()
  %reinterpret_cast_19 = memref.reinterpret_cast %alloc_18 to offset: [0], sizes: [%dim, 10], strides: [10, 1] {kDiscSymbolicDimAttr = [@S0, @C10]} : memref<?x10xf32> to memref<?x10xf32>
  %alloc_20 = memref.alloc(%dim) : memref<?x10xf32>
  "lmhlo.add"(%reinterpret_cast_17, %reinterpret_cast_19, %alloc_20) {disc.device = "gpu"} : (memref<?x10xf32>, memref<?x10xf32>, memref<?x10xf32>) -> ()
  %reinterpret_cast_21 = memref.reinterpret_cast %alloc_20 to offset: [0], sizes: [%dim, 10], strides: [10, 1] {kDiscSymbolicDimAttr = [@S0, @C10]} : memref<?x10xf32> to memref<?x10xf32>
  %alloc_22 = memref.alloc(%dim) : memref<?x10xf32>
  "lmhlo.maximum"(%reinterpret_cast_21, %reinterpret_cast_13, %alloc_22) {disc.device = "gpu"} : (memref<?x10xf32>, memref<?x10xf32>, memref<?x10xf32>) -> ()
  %reinterpret_cast_23 = memref.reinterpret_cast %alloc_22 to offset: [0], sizes: [%dim, 10], strides: [10, 1] {kDiscSymbolicDimAttr = [@S0, @C10]} : memref<?x10xf32> to memref<?x10xf32>
  return %reinterpret_cast_23 : memref<?x10xf32>
}

// -----// IR Dump After Canonicalizer (canonicalize) //----- //
func.func @main(%arg0: memref<?x10xf32>) -> memref<?x10xf32> attributes {tf.entry_function = {input_placements = "gpu", inputs = "input.1_", output_placements = "gpu", outputs = "8"}} {
  %c1 = arith.constant 1 : index
  %c10 = arith.constant 10 : index
  %c0 = arith.constant 0 : index
  %alloc = memref.alloc() : memref<f32>
  "lmhlo.constant"(%alloc) {disc.device = "gpu", value = dense<0.000000e+00> : tensor<f32>} : (memref<f32>) -> ()
  %alloc_0 = memref.alloc() : memref<10x10xf32>
  "lmhlo.constant"(%alloc_0) {disc.device = "gpu", value = dense_resource<__elided__> : tensor<10x10xf32>} : (memref<10x10xf32>) -> ()
  %alloc_1 = memref.alloc() : memref<10x10xf32>
  "lmhlo.constant"(%alloc_1) {disc.device = "gpu", value = dense_resource<__elided__> : tensor<10x10xf32>} : (memref<10x10xf32>) -> ()
  %alloc_2 = memref.alloc() : memref<10xf32>
  "lmhlo.constant"(%alloc_2) {disc.device = "gpu", value = dense<[-0.0684198961, -0.0121491952, 0.127185106, -0.18503201, -0.194590867, 0.25447163, -4.787710e-02, 0.0185489878, 0.0749137476, 0.0754040703]> : tensor<10xf32>} : (memref<10xf32>) -> ()
  %alloc_3 = memref.alloc() : memref<10xf32>
  "lmhlo.constant"(%alloc_3) {disc.device = "gpu", value = dense<[0.110269576, -0.209282219, 0.023534907, -0.111158408, 0.166983217, -4.79283306E-4, -0.00845900736, -0.00818163063, 0.281652302, 0.121823721]> : tensor<10xf32>} : (memref<10xf32>) -> ()
  %dim = memref.dim %arg0, %c0 : memref<?x10xf32>
  %reinterpret_cast = memref.reinterpret_cast %arg0 to offset: [0], sizes: [%dim, 10], strides: [10, 1] {kDiscSymbolicDimAttr = [@S0, @C10]} : memref<?x10xf32> to memref<?x10xf32>
  %alloc_4 = memref.alloc(%dim) : memref<?x10xf32>
  "lmhlo.dot_general"(%reinterpret_cast, %alloc_1, %alloc_4) {disc.device = "gpu", dot_dimension_numbers = #mhlo.dot<lhs_contracting_dimensions = [1], rhs_contracting_dimensions = [0]>} : (memref<?x10xf32>, memref<10x10xf32>, memref<?x10xf32>) -> ()
  %reinterpret_cast_5 = memref.reinterpret_cast %alloc_4 to offset: [0], sizes: [%dim, 10], strides: [10, 1] {kDiscSymbolicDimAttr = [@S0, @C10]} : memref<?x10xf32> to memref<?x10xf32>
  %alloc_6 = memref.alloc() {alignment = 64 : i64} : memref<2xindex>
  memref.store %dim, %alloc_6[%c0] : memref<2xindex>
  memref.store %c10, %alloc_6[%c1] : memref<2xindex>
  %alloc_7 = memref.alloc(%dim) : memref<?x10xf32>
  "lmhlo.dynamic_broadcast_in_dim"(%alloc_2, %alloc_6, %alloc_7) {broadcast_dimensions = dense<1> : tensor<1xi64>, disc.device = "gpu"} : (memref<10xf32>, memref<2xindex>, memref<?x10xf32>) -> ()
  %reinterpret_cast_8 = memref.reinterpret_cast %alloc_7 to offset: [0], sizes: [%dim, 10], strides: [10, 1] {kDiscSymbolicDimAttr = [@S0, @C10]} : memref<?x10xf32> to memref<?x10xf32>
  %alloc_9 = memref.alloc(%dim) : memref<?x10xf32>
  "lmhlo.add"(%reinterpret_cast_5, %reinterpret_cast_8, %alloc_9) {disc.device = "gpu"} : (memref<?x10xf32>, memref<?x10xf32>, memref<?x10xf32>) -> ()
  %reinterpret_cast_10 = memref.reinterpret_cast %alloc_9 to offset: [0], sizes: [%dim, 10], strides: [10, 1] {kDiscSymbolicDimAttr = [@S0, @C10]} : memref<?x10xf32> to memref<?x10xf32>
  %alloc_11 = memref.alloc(%dim) : memref<?x10xf32>
  "lmhlo.dynamic_broadcast_in_dim"(%alloc, %alloc_6, %alloc_11) {broadcast_dimensions = dense<> : tensor<0xi64>, disc.device = "gpu"} : (memref<f32>, memref<2xindex>, memref<?x10xf32>) -> ()
  %reinterpret_cast_12 = memref.reinterpret_cast %alloc_11 to offset: [0], sizes: [%dim, 10], strides: [10, 1] {kDiscSymbolicDimAttr = [@S0, @C10]} : memref<?x10xf32> to memref<?x10xf32>
  %alloc_13 = memref.alloc(%dim) : memref<?x10xf32>
  "lmhlo.maximum"(%reinterpret_cast_10, %reinterpret_cast_12, %alloc_13) {disc.device = "gpu"} : (memref<?x10xf32>, memref<?x10xf32>, memref<?x10xf32>) -> ()
  %reinterpret_cast_14 = memref.reinterpret_cast %alloc_13 to offset: [0], sizes: [%dim, 10], strides: [10, 1] {kDiscSymbolicDimAttr = [@S0, @C10]} : memref<?x10xf32> to memref<?x10xf32>
  %alloc_15 = memref.alloc(%dim) : memref<?x10xf32>
  "lmhlo.dot_general"(%reinterpret_cast_14, %alloc_0, %alloc_15) {disc.device = "gpu", dot_dimension_numbers = #mhlo.dot<lhs_contracting_dimensions = [1], rhs_contracting_dimensions = [0]>} : (memref<?x10xf32>, memref<10x10xf32>, memref<?x10xf32>) -> ()
  %reinterpret_cast_16 = memref.reinterpret_cast %alloc_15 to offset: [0], sizes: [%dim, 10], strides: [10, 1] {kDiscSymbolicDimAttr = [@S0, @C10]} : memref<?x10xf32> to memref<?x10xf32>
  %alloc_17 = memref.alloc(%dim) : memref<?x10xf32>
  "lmhlo.dynamic_broadcast_in_dim"(%alloc_3, %alloc_6, %alloc_17) {broadcast_dimensions = dense<1> : tensor<1xi64>, disc.device = "gpu"} : (memref<10xf32>, memref<2xindex>, memref<?x10xf32>) -> ()
  %reinterpret_cast_18 = memref.reinterpret_cast %alloc_17 to offset: [0], sizes: [%dim, 10], strides: [10, 1] {kDiscSymbolicDimAttr = [@S0, @C10]} : memref<?x10xf32> to memref<?x10xf32>
  %alloc_19 = memref.alloc(%dim) : memref<?x10xf32>
  "lmhlo.add"(%reinterpret_cast_16, %reinterpret_cast_18, %alloc_19) {disc.device = "gpu"} : (memref<?x10xf32>, memref<?x10xf32>, memref<?x10xf32>) -> ()
  %reinterpret_cast_20 = memref.reinterpret_cast %alloc_19 to offset: [0], sizes: [%dim, 10], strides: [10, 1] {kDiscSymbolicDimAttr = [@S0, @C10]} : memref<?x10xf32> to memref<?x10xf32>
  %alloc_21 = memref.alloc(%dim) : memref<?x10xf32>
  "lmhlo.maximum"(%reinterpret_cast_20, %reinterpret_cast_12, %alloc_21) {disc.device = "gpu"} : (memref<?x10xf32>, memref<?x10xf32>, memref<?x10xf32>) -> ()
  %reinterpret_cast_22 = memref.reinterpret_cast %alloc_21 to offset: [0], sizes: [%dim, 10], strides: [10, 1] {kDiscSymbolicDimAttr = [@S0, @C10]} : memref<?x10xf32> to memref<?x10xf32>
  return %reinterpret_cast_22 : memref<?x10xf32>
}

// -----// IR Dump After DiscMemrefCanonicalizer (disc-memref-canonicalize) //----- //
func.func @main(%arg0: memref<?x10xf32>) -> memref<?x10xf32> attributes {tf.entry_function = {input_placements = "gpu", inputs = "input.1_", output_placements = "gpu", outputs = "8"}} {
  %c1 = arith.constant 1 : index
  %c10 = arith.constant 10 : index
  %c0 = arith.constant 0 : index
  %alloc = memref.alloc() : memref<f32>
  "lmhlo.constant"(%alloc) {disc.device = "gpu", value = dense<0.000000e+00> : tensor<f32>} : (memref<f32>) -> ()
  %alloc_0 = memref.alloc() : memref<10x10xf32>
  "lmhlo.constant"(%alloc_0) {disc.device = "gpu", value = dense_resource<__elided__> : tensor<10x10xf32>} : (memref<10x10xf32>) -> ()
  %alloc_1 = memref.alloc() : memref<10x10xf32>
  "lmhlo.constant"(%alloc_1) {disc.device = "gpu", value = dense_resource<__elided__> : tensor<10x10xf32>} : (memref<10x10xf32>) -> ()
  %alloc_2 = memref.alloc() : memref<10xf32>
  "lmhlo.constant"(%alloc_2) {disc.device = "gpu", value = dense<[-0.0684198961, -0.0121491952, 0.127185106, -0.18503201, -0.194590867, 0.25447163, -4.787710e-02, 0.0185489878, 0.0749137476, 0.0754040703]> : tensor<10xf32>} : (memref<10xf32>) -> ()
  %alloc_3 = memref.alloc() : memref<10xf32>
  "lmhlo.constant"(%alloc_3) {disc.device = "gpu", value = dense<[0.110269576, -0.209282219, 0.023534907, -0.111158408, 0.166983217, -4.79283306E-4, -0.00845900736, -0.00818163063, 0.281652302, 0.121823721]> : tensor<10xf32>} : (memref<10xf32>) -> ()
  %dim = memref.dim %arg0, %c0 : memref<?x10xf32>
  %reinterpret_cast = memref.reinterpret_cast %arg0 to offset: [0], sizes: [%dim, 10], strides: [10, 1] {kDiscSymbolicDimAttr = [@S0, @C10]} : memref<?x10xf32> to memref<?x10xf32>
  %alloc_4 = memref.alloc(%dim) {kDiscSymbolicDimAttr = [@S0, @C10]} : memref<?x10xf32>
  "lmhlo.dot_general"(%reinterpret_cast, %alloc_1, %alloc_4) {disc.device = "gpu", dot_dimension_numbers = #mhlo.dot<lhs_contracting_dimensions = [1], rhs_contracting_dimensions = [0]>} : (memref<?x10xf32>, memref<10x10xf32>, memref<?x10xf32>) -> ()
  %alloc_5 = memref.alloc() {alignment = 64 : i64} : memref<2xindex>
  memref.store %dim, %alloc_5[%c0] : memref<2xindex>
  memref.store %c10, %alloc_5[%c1] : memref<2xindex>
  %alloc_6 = memref.alloc(%dim) {kDiscSymbolicDimAttr = [@S0, @C10]} : memref<?x10xf32>
  "lmhlo.dynamic_broadcast_in_dim"(%alloc_2, %alloc_5, %alloc_6) {broadcast_dimensions = dense<1> : tensor<1xi64>, disc.device = "gpu"} : (memref<10xf32>, memref<2xindex>, memref<?x10xf32>) -> ()
  %alloc_7 = memref.alloc(%dim) {kDiscSymbolicDimAttr = [@S0, @C10]} : memref<?x10xf32>
  "lmhlo.add"(%alloc_4, %alloc_6, %alloc_7) {disc.device = "gpu"} : (memref<?x10xf32>, memref<?x10xf32>, memref<?x10xf32>) -> ()
  %alloc_8 = memref.alloc(%dim) {kDiscSymbolicDimAttr = [@S0, @C10]} : memref<?x10xf32>
  "lmhlo.dynamic_broadcast_in_dim"(%alloc, %alloc_5, %alloc_8) {broadcast_dimensions = dense<> : tensor<0xi64>, disc.device = "gpu"} : (memref<f32>, memref<2xindex>, memref<?x10xf32>) -> ()
  %alloc_9 = memref.alloc(%dim) {kDiscSymbolicDimAttr = [@S0, @C10]} : memref<?x10xf32>
  "lmhlo.maximum"(%alloc_7, %alloc_8, %alloc_9) {disc.device = "gpu"} : (memref<?x10xf32>, memref<?x10xf32>, memref<?x10xf32>) -> ()
  %alloc_10 = memref.alloc(%dim) {kDiscSymbolicDimAttr = [@S0, @C10]} : memref<?x10xf32>
  "lmhlo.dot_general"(%alloc_9, %alloc_0, %alloc_10) {disc.device = "gpu", dot_dimension_numbers = #mhlo.dot<lhs_contracting_dimensions = [1], rhs_contracting_dimensions = [0]>} : (memref<?x10xf32>, memref<10x10xf32>, memref<?x10xf32>) -> ()
  %alloc_11 = memref.alloc(%dim) {kDiscSymbolicDimAttr = [@S0, @C10]} : memref<?x10xf32>
  "lmhlo.dynamic_broadcast_in_dim"(%alloc_3, %alloc_5, %alloc_11) {broadcast_dimensions = dense<1> : tensor<1xi64>, disc.device = "gpu"} : (memref<10xf32>, memref<2xindex>, memref<?x10xf32>) -> ()
  %alloc_12 = memref.alloc(%dim) {kDiscSymbolicDimAttr = [@S0, @C10]} : memref<?x10xf32>
  "lmhlo.add"(%alloc_10, %alloc_11, %alloc_12) {disc.device = "gpu"} : (memref<?x10xf32>, memref<?x10xf32>, memref<?x10xf32>) -> ()
  %alloc_13 = memref.alloc(%dim) {kDiscSymbolicDimAttr = [@S0, @C10]} : memref<?x10xf32>
  "lmhlo.maximum"(%alloc_12, %alloc_8, %alloc_13) {disc.device = "gpu"} : (memref<?x10xf32>, memref<?x10xf32>, memref<?x10xf32>) -> ()
  return %alloc_13 : memref<?x10xf32>
}

// -----// IR Dump After DiscAssignMemorySpacePass (disc-assign-memory-space) //----- //
module {
  func.func @main(%arg0: memref<?x10xf32, #gpu.address_space<global>>) -> memref<?x10xf32, #gpu.address_space<global>> attributes {tf.entry_function = {input_placements = "gpu", inputs = "input.1_", output_placements = "gpu", outputs = "8"}} {
    %c1 = arith.constant 1 : index
    %c10 = arith.constant 10 : index
    %c0 = arith.constant 0 : index
    %alloc = memref.alloc() : memref<f32, #gpu.address_space<global>>
    "lmhlo.constant"(%alloc) {disc.device = "gpu", value = dense<0.000000e+00> : tensor<f32>} : (memref<f32, #gpu.address_space<global>>) -> ()
    %alloc_0 = memref.alloc() : memref<10x10xf32, #gpu.address_space<global>>
    "lmhlo.constant"(%alloc_0) {disc.device = "gpu", value = dense_resource<__elided__> : tensor<10x10xf32>} : (memref<10x10xf32, #gpu.address_space<global>>) -> ()
    %alloc_1 = memref.alloc() : memref<10x10xf32, #gpu.address_space<global>>
    "lmhlo.constant"(%alloc_1) {disc.device = "gpu", value = dense_resource<__elided__> : tensor<10x10xf32>} : (memref<10x10xf32, #gpu.address_space<global>>) -> ()
    %alloc_2 = memref.alloc() : memref<10xf32, #gpu.address_space<global>>
    "lmhlo.constant"(%alloc_2) {disc.device = "gpu", value = dense<[-0.0684198961, -0.0121491952, 0.127185106, -0.18503201, -0.194590867, 0.25447163, -4.787710e-02, 0.0185489878, 0.0749137476, 0.0754040703]> : tensor<10xf32>} : (memref<10xf32, #gpu.address_space<global>>) -> ()
    %alloc_3 = memref.alloc() : memref<10xf32, #gpu.address_space<global>>
    "lmhlo.constant"(%alloc_3) {disc.device = "gpu", value = dense<[0.110269576, -0.209282219, 0.023534907, -0.111158408, 0.166983217, -4.79283306E-4, -0.00845900736, -0.00818163063, 0.281652302, 0.121823721]> : tensor<10xf32>} : (memref<10xf32, #gpu.address_space<global>>) -> ()
    %dim = memref.dim %arg0, %c0 : memref<?x10xf32, #gpu.address_space<global>>
    %reinterpret_cast = memref.reinterpret_cast %arg0 to offset: [0], sizes: [%dim, 10], strides: [10, 1] {kDiscSymbolicDimAttr = [@S0, @C10]} : memref<?x10xf32, #gpu.address_space<global>> to memref<?x10xf32, #gpu.address_space<global>>
    %alloc_4 = memref.alloc(%dim) {kDiscSymbolicDimAttr = [@S0, @C10]} : memref<?x10xf32, #gpu.address_space<global>>
    "lmhlo.dot_general"(%reinterpret_cast, %alloc_1, %alloc_4) {disc.device = "gpu", dot_dimension_numbers = #mhlo.dot<lhs_contracting_dimensions = [1], rhs_contracting_dimensions = [0]>} : (memref<?x10xf32, #gpu.address_space<global>>, memref<10x10xf32, #gpu.address_space<global>>, memref<?x10xf32, #gpu.address_space<global>>) -> ()
    %alloc_5 = memref.alloc() {alignment = 64 : i64} : memref<2xindex>
    memref.store %dim, %alloc_5[%c0] : memref<2xindex>
    memref.store %c10, %alloc_5[%c1] : memref<2xindex>
    %alloc_6 = memref.alloc(%dim) {kDiscSymbolicDimAttr = [@S0, @C10]} : memref<?x10xf32, #gpu.address_space<global>>
    "lmhlo.dynamic_broadcast_in_dim"(%alloc_2, %alloc_5, %alloc_6) {broadcast_dimensions = dense<1> : tensor<1xi64>, disc.device = "gpu"} : (memref<10xf32, #gpu.address_space<global>>, memref<2xindex>, memref<?x10xf32, #gpu.address_space<global>>) -> ()
    %alloc_7 = memref.alloc(%dim) {kDiscSymbolicDimAttr = [@S0, @C10]} : memref<?x10xf32, #gpu.address_space<global>>
    "lmhlo.add"(%alloc_4, %alloc_6, %alloc_7) {disc.device = "gpu"} : (memref<?x10xf32, #gpu.address_space<global>>, memref<?x10xf32, #gpu.address_space<global>>, memref<?x10xf32, #gpu.address_space<global>>) -> ()
    %alloc_8 = memref.alloc(%dim) {kDiscSymbolicDimAttr = [@S0, @C10]} : memref<?x10xf32, #gpu.address_space<global>>
    "lmhlo.dynamic_broadcast_in_dim"(%alloc, %alloc_5, %alloc_8) {broadcast_dimensions = dense<> : tensor<0xi64>, disc.device = "gpu"} : (memref<f32, #gpu.address_space<global>>, memref<2xindex>, memref<?x10xf32, #gpu.address_space<global>>) -> ()
    %alloc_9 = memref.alloc(%dim) {kDiscSymbolicDimAttr = [@S0, @C10]} : memref<?x10xf32, #gpu.address_space<global>>
    "lmhlo.maximum"(%alloc_7, %alloc_8, %alloc_9) {disc.device = "gpu"} : (memref<?x10xf32, #gpu.address_space<global>>, memref<?x10xf32, #gpu.address_space<global>>, memref<?x10xf32, #gpu.address_space<global>>) -> ()
    %alloc_10 = memref.alloc(%dim) {kDiscSymbolicDimAttr = [@S0, @C10]} : memref<?x10xf32, #gpu.address_space<global>>
    "lmhlo.dot_general"(%alloc_9, %alloc_0, %alloc_10) {disc.device = "gpu", dot_dimension_numbers = #mhlo.dot<lhs_contracting_dimensions = [1], rhs_contracting_dimensions = [0]>} : (memref<?x10xf32, #gpu.address_space<global>>, memref<10x10xf32, #gpu.address_space<global>>, memref<?x10xf32, #gpu.address_space<global>>) -> ()
    %alloc_11 = memref.alloc(%dim) {kDiscSymbolicDimAttr = [@S0, @C10]} : memref<?x10xf32, #gpu.address_space<global>>
    "lmhlo.dynamic_broadcast_in_dim"(%alloc_3, %alloc_5, %alloc_11) {broadcast_dimensions = dense<1> : tensor<1xi64>, disc.device = "gpu"} : (memref<10xf32, #gpu.address_space<global>>, memref<2xindex>, memref<?x10xf32, #gpu.address_space<global>>) -> ()
    %alloc_12 = memref.alloc(%dim) {kDiscSymbolicDimAttr = [@S0, @C10]} : memref<?x10xf32, #gpu.address_space<global>>
    "lmhlo.add"(%alloc_10, %alloc_11, %alloc_12) {disc.device = "gpu"} : (memref<?x10xf32, #gpu.address_space<global>>, memref<?x10xf32, #gpu.address_space<global>>, memref<?x10xf32, #gpu.address_space<global>>) -> ()
    %alloc_13 = memref.alloc(%dim) {kDiscSymbolicDimAttr = [@S0, @C10]} : memref<?x10xf32, #gpu.address_space<global>>
    "lmhlo.maximum"(%alloc_12, %alloc_8, %alloc_13) {disc.device = "gpu"} : (memref<?x10xf32, #gpu.address_space<global>>, memref<?x10xf32, #gpu.address_space<global>>, memref<?x10xf32, #gpu.address_space<global>>) -> ()
    return %alloc_13 : memref<?x10xf32, #gpu.address_space<global>>
  }
  "disc_shape.SymbolicDim"() {knownNegativeOne = false, knownNonNegative = true, knownNonSizeOne = false, knownNonSizeZero = false, sym_name = "S0", value = -9223372036854775808 : i64} : () -> ()
  "disc_shape.SymbolicDim"() {knownNegativeOne = false, knownNonNegative = true, knownNonSizeOne = true, knownNonSizeZero = true, sym_name = "C10", value = 10 : i64} : () -> ()
  func.func @shape_constraint_graph() {
    return
  }
}


// -----// IR Dump After DiscDuplicateComputationForFusionPass (disc-duplicate-computation-for-fusion) //----- //
func.func @main(%arg0: memref<?x10xf32, #gpu.address_space<global>>) -> memref<?x10xf32, #gpu.address_space<global>> attributes {tf.entry_function = {input_placements = "gpu", inputs = "input.1_", output_placements = "gpu", outputs = "8"}} {
  %c1 = arith.constant 1 : index
  %c10 = arith.constant 10 : index
  %c0 = arith.constant 0 : index
  %alloc = memref.alloc() : memref<f32, #gpu.address_space<global>>
  %alloc_0 = memref.alloc() : memref<f32, #gpu.address_space<global>>
  "lmhlo.constant"(%alloc_0) {value = dense<0.000000e+00> : tensor<f32>} : (memref<f32, #gpu.address_space<global>>) -> ()
  "lmhlo.constant"(%alloc) {disc.device = "gpu", value = dense<0.000000e+00> : tensor<f32>} : (memref<f32, #gpu.address_space<global>>) -> ()
  %alloc_1 = memref.alloc() : memref<10x10xf32, #gpu.address_space<global>>
  "lmhlo.constant"(%alloc_1) {disc.device = "gpu", value = dense_resource<__elided__> : tensor<10x10xf32>} : (memref<10x10xf32, #gpu.address_space<global>>) -> ()
  %alloc_2 = memref.alloc() : memref<10x10xf32, #gpu.address_space<global>>
  "lmhlo.constant"(%alloc_2) {disc.device = "gpu", value = dense_resource<__elided__> : tensor<10x10xf32>} : (memref<10x10xf32, #gpu.address_space<global>>) -> ()
  %alloc_3 = memref.alloc() : memref<10xf32, #gpu.address_space<global>>
  "lmhlo.constant"(%alloc_3) {disc.device = "gpu", value = dense<[-0.0684198961, -0.0121491952, 0.127185106, -0.18503201, -0.194590867, 0.25447163, -4.787710e-02, 0.0185489878, 0.0749137476, 0.0754040703]> : tensor<10xf32>} : (memref<10xf32, #gpu.address_space<global>>) -> ()
  %alloc_4 = memref.alloc() : memref<10xf32, #gpu.address_space<global>>
  "lmhlo.constant"(%alloc_4) {disc.device = "gpu", value = dense<[0.110269576, -0.209282219, 0.023534907, -0.111158408, 0.166983217, -4.79283306E-4, -0.00845900736, -0.00818163063, 0.281652302, 0.121823721]> : tensor<10xf32>} : (memref<10xf32, #gpu.address_space<global>>) -> ()
  %dim = memref.dim %arg0, %c0 : memref<?x10xf32, #gpu.address_space<global>>
  %reinterpret_cast = memref.reinterpret_cast %arg0 to offset: [0], sizes: [%dim, 10], strides: [10, 1] {kDiscSymbolicDimAttr = [@S0, @C10]} : memref<?x10xf32, #gpu.address_space<global>> to memref<?x10xf32, #gpu.address_space<global>>
  %alloc_5 = memref.alloc(%dim) {kDiscSymbolicDimAttr = [@S0, @C10]} : memref<?x10xf32, #gpu.address_space<global>>
  "lmhlo.dot_general"(%reinterpret_cast, %alloc_2, %alloc_5) {disc.device = "gpu", dot_dimension_numbers = #mhlo.dot<lhs_contracting_dimensions = [1], rhs_contracting_dimensions = [0]>} : (memref<?x10xf32, #gpu.address_space<global>>, memref<10x10xf32, #gpu.address_space<global>>, memref<?x10xf32, #gpu.address_space<global>>) -> ()
  %alloc_6 = memref.alloc() {alignment = 64 : i64} : memref<2xindex>
  memref.store %dim, %alloc_6[%c0] : memref<2xindex>
  memref.store %c10, %alloc_6[%c1] : memref<2xindex>
  %alloc_7 = memref.alloc(%dim) {kDiscSymbolicDimAttr = [@S0, @C10]} : memref<?x10xf32, #gpu.address_space<global>>
  "lmhlo.dynamic_broadcast_in_dim"(%alloc_3, %alloc_6, %alloc_7) {broadcast_dimensions = dense<1> : tensor<1xi64>, disc.device = "gpu"} : (memref<10xf32, #gpu.address_space<global>>, memref<2xindex>, memref<?x10xf32, #gpu.address_space<global>>) -> ()
  %alloc_8 = memref.alloc(%dim) {kDiscSymbolicDimAttr = [@S0, @C10]} : memref<?x10xf32, #gpu.address_space<global>>
  "lmhlo.add"(%alloc_5, %alloc_7, %alloc_8) {disc.device = "gpu"} : (memref<?x10xf32, #gpu.address_space<global>>, memref<?x10xf32, #gpu.address_space<global>>, memref<?x10xf32, #gpu.address_space<global>>) -> ()
  %alloc_9 = memref.alloc(%dim) {kDiscSymbolicDimAttr = [@S0, @C10]} : memref<?x10xf32, #gpu.address_space<global>>
  "lmhlo.dynamic_broadcast_in_dim"(%alloc_0, %alloc_6, %alloc_9) {broadcast_dimensions = dense<> : tensor<0xi64>, disc.device = "gpu"} : (memref<f32, #gpu.address_space<global>>, memref<2xindex>, memref<?x10xf32, #gpu.address_space<global>>) -> ()
  %alloc_10 = memref.alloc(%dim) {kDiscSymbolicDimAttr = [@S0, @C10]} : memref<?x10xf32, #gpu.address_space<global>>
  %alloc_11 = memref.alloc(%dim) {kDiscSymbolicDimAttr = [@S0, @C10]} : memref<?x10xf32, #gpu.address_space<global>>
  "lmhlo.dynamic_broadcast_in_dim"(%alloc, %alloc_6, %alloc_11) {broadcast_dimensions = dense<> : tensor<0xi64>, disc.device = "gpu"} : (memref<f32, #gpu.address_space<global>>, memref<2xindex>, memref<?x10xf32, #gpu.address_space<global>>) -> ()
  "lmhlo.maximum"(%alloc_8, %alloc_11, %alloc_10) {disc.device = "gpu"} : (memref<?x10xf32, #gpu.address_space<global>>, memref<?x10xf32, #gpu.address_space<global>>, memref<?x10xf32, #gpu.address_space<global>>) -> ()
  %alloc_12 = memref.alloc(%dim) {kDiscSymbolicDimAttr = [@S0, @C10]} : memref<?x10xf32, #gpu.address_space<global>>
  "lmhlo.dot_general"(%alloc_10, %alloc_1, %alloc_12) {disc.device = "gpu", dot_dimension_numbers = #mhlo.dot<lhs_contracting_dimensions = [1], rhs_contracting_dimensions = [0]>} : (memref<?x10xf32, #gpu.address_space<global>>, memref<10x10xf32, #gpu.address_space<global>>, memref<?x10xf32, #gpu.address_space<global>>) -> ()
  %alloc_13 = memref.alloc(%dim) {kDiscSymbolicDimAttr = [@S0, @C10]} : memref<?x10xf32, #gpu.address_space<global>>
  "lmhlo.dynamic_broadcast_in_dim"(%alloc_4, %alloc_6, %alloc_13) {broadcast_dimensions = dense<1> : tensor<1xi64>, disc.device = "gpu"} : (memref<10xf32, #gpu.address_space<global>>, memref<2xindex>, memref<?x10xf32, #gpu.address_space<global>>) -> ()
  %alloc_14 = memref.alloc(%dim) {kDiscSymbolicDimAttr = [@S0, @C10]} : memref<?x10xf32, #gpu.address_space<global>>
  "lmhlo.add"(%alloc_12, %alloc_13, %alloc_14) {disc.device = "gpu"} : (memref<?x10xf32, #gpu.address_space<global>>, memref<?x10xf32, #gpu.address_space<global>>, memref<?x10xf32, #gpu.address_space<global>>) -> ()
  %alloc_15 = memref.alloc(%dim) {kDiscSymbolicDimAttr = [@S0, @C10]} : memref<?x10xf32, #gpu.address_space<global>>
  "lmhlo.maximum"(%alloc_14, %alloc_9, %alloc_15) {disc.device = "gpu"} : (memref<?x10xf32, #gpu.address_space<global>>, memref<?x10xf32, #gpu.address_space<global>>, memref<?x10xf32, #gpu.address_space<global>>) -> ()
  return %alloc_15 : memref<?x10xf32, #gpu.address_space<global>>
}

// -----// IR Dump After PromoteBuffersToStack (promote-buffers-to-stack) //----- //
func.func @main(%arg0: memref<?x10xf32, #gpu.address_space<global>>) -> memref<?x10xf32, #gpu.address_space<global>> attributes {tf.entry_function = {input_placements = "gpu", inputs = "input.1_", output_placements = "gpu", outputs = "8"}} {
  %c1 = arith.constant 1 : index
  %c10 = arith.constant 10 : index
  %c0 = arith.constant 0 : index
  %alloc = memref.alloc() : memref<f32, #gpu.address_space<global>>
  %alloc_0 = memref.alloc() : memref<f32, #gpu.address_space<global>>
  "lmhlo.constant"(%alloc_0) {value = dense<0.000000e+00> : tensor<f32>} : (memref<f32, #gpu.address_space<global>>) -> ()
  "lmhlo.constant"(%alloc) {disc.device = "gpu", value = dense<0.000000e+00> : tensor<f32>} : (memref<f32, #gpu.address_space<global>>) -> ()
  %alloc_1 = memref.alloc() : memref<10x10xf32, #gpu.address_space<global>>
  "lmhlo.constant"(%alloc_1) {disc.device = "gpu", value = dense_resource<__elided__> : tensor<10x10xf32>} : (memref<10x10xf32, #gpu.address_space<global>>) -> ()
  %alloc_2 = memref.alloc() : memref<10x10xf32, #gpu.address_space<global>>
…
1\00\0A\8CS\00\00\00\03\00\0A\00\01\00\11\D0\18\00,\09\00\01\00 \06\01\18\00,\04\00\01\00\116\18\00,\07\00\01\00f2\00\00\00\12\10`\00!\80\03\07\00v\00\FF\FF\FF\FF$\00\0C\00\00\01\00@\03\00\04|\08\00\D1\0F\0C\81\80\80(\00\08\FF\81\80(\08\0B\00\02$\00/4\00\01\00\03\04T\00\10\04\97\00R\04\18\00\00\00A\005\04\AC\00\01\00\90\04/\08\00\05\00\00\00\14\0C\00\12#\0C\00\00\01\00'\04\12\0C\00\17\11\0C\00 6\04\9E\03A\00\047\04\D0\03\F2\04\04\0A\08\00\02\00\00\00`\01 \00\03\19 \00\04\17\0C(\00e\00\18\00\00\F0!\10\009\03\00\10\10\009\02\00\08\10\00\10\01<\01%\F0\11\10\00\01\01\00\A0\F0\11\00\03\1B\FF\00\041\04>\00\F3\00\00\04\1C\08\00`\00\00\00 \03\00\00K\00\01\00\B1\02\02\08\10\0A/\22\00\00\00\08\10\00#\00\08\08\00\13\10\08\00\13\18\08\00\13 \08\00\13(\08\00\130\08\00\228\08\80\00\13\00\08\00\13\08\08\00\13\10\08\00\13\18\08\00\13 \08\00\13(\08\00\130\08\00\02@\00\13\02@\00\13\02@\00\13\02@\00\13\02@\00\13\02@\00\13\02@\00\13\02@\00\13\02@\00\00\83\01\11,(\01\11\00\01\01\22D\00\01\00\00\\\01/\05\00\01\00\FF\A0A\02z\01\00?\04\C0\0F\00\00\00\C4\0F\00\89\F3\FF\FF\FF\B0\03\A2\00\0E\00\00\E2\0F\00\19y\00\01\00\10%\93\02C\0E\00\19y\AD\03\F0\09!\00\00\00$\0E\00$z\00\00\00X\00\00\03\02\8E\07\00\CA\1F\00\0C\10\00\D7Y\00\00p`\F0\03\00\D8\0F\00M\09\E6\03R\EA\0F\00\19x,\02\B1\FF\06\00\00\00\C8\0F\00\10x\0A\A8\03\F1\04\FF\E0\FF\07\00\E2\0F\04%x\02\00\CD\CC\CC\CC\FF\00\8E\10\00T\10x\0B\00\02 \00\10\E4\10\006\0C\00\030\00U\00%x\04\0A0\00\10\C8\10\00'\06\0B@\00B\00\02r\02\98\02\00\E0\00\10\E4\80\00 \05\FF@\00B\03\16\01\00@\00*\08\0C0\009\04\00\070\00\11\070\00\13\020\00P$x\08\05\F6#\01\12\020\001\19x\04 \003\04\16\010\00\11\09\10\00\15\090\00 \0A\070\00\13\0A0\00#\02x~\05\00`\00\01 \00 \02\04 \00\10\0B \00\10\C4\10\00 \0E\09\10\00\10\0C\10\00\90\E4\0F\00%v\08\08\00\\p\03\03\E0\00Sv\04\00\00Zp\01\01\10\00%\0A\0A \00b\E2\0F\08\81s\09\A8\03\BA\E9\1E\00\00\A6\0E\00%v\0C\02 \00\01f\054\00\00\ED \00*\0E\0E \00%\0A\0A@\00u\E8\0E\00\81s\0D\0C\10\00u(\0F\00\81s\0E\0E\10\00\10b\80\00F\02\00\00^\90\00E!r\10\04\F3\01\93\E4O\00!r\11\05\0A\00\01\00s\E4\8F\00!r\06\06S\09\000\01s\01!r\07\07\0E\00\01\00p\E2\0F\02\0Br\00\10\80\02@\00\C0\F0\03\00\01B\0Br\00\11\10\00\14\F2\10\00\12\06\10\00A\F4\03\00\C4\10\00\12\07\10\00\11\F6 \002\08r\04@\00\02`\00B\00\08r\05@\00#\00\80\10\00\12\06@\00\00\13\05\01\10\00#\07\07 \00\91\01\00\D0\0F\00\86s\00\02!\01!\ED\10\A0\01\14M\00\03\03\C0\02PGy\00\00\F0\CD\06\A6\FF\83\03\00\C0\0F\00\18y\00\01\00\0F\10\00 \0F\01\00-\00<\03.\03\00\01\00\22@\00\01\00=\1D\01\000\00\08\01\00\1F\0B@\00\04\13])\00\1FE@\00\0C\22\13\00\D0\03\0C\01\00\13\A8\15\00\11\90\06\00\06 \06\04E\06\22\18\00\01\00\1F\DET\00\00\00\01\00\138\95\00/p\00\80\00\0B\1F)'\00\03#\00\A8@\00\110\06\00\06\E4\00*\04\00\01\00\1FY@\00\04\13\D81\00&\88\00@\00\1F\0A@\00\00!\0E\01D\01\0D@\00\13`)\00*\E0\00\01\00\1B\08\08\00?\EB\00\00\A6\09\001\00\00@\B5\04\11\00P\08\04\80\00\17\048\00\04\18\00\13\AF\14\01\0C\84\01\13P@\00\17\801\01\0F\C0\00\01\132@\00+\06\00\01\00\15\07\F6\02\05\80\00j\05\00\00\14\80\00\01\00\13\06\D8\01\04(\0D\0D\88\01\1A\00\08\00\04\F8\00\13\018\00\04\A8\00\0C\01\00*0\05\08\00\0C8\00\0Fp\00\18P\00\00\00\00\00\00\00\00\00\00"
@main_kernel_blob_gpu.binary_compute_60 = internal constant [1048 x i8] c"P\EDU\BA\01\00\10\00\08\04\00\00\00\00\00\00\01\00\01\01H\00\00\00\C0\03\00\00\00\00\00\00\BA\03\00\00@\00\00\00\01\00\07\00<\00\00\00\00\00\00\00\00\00\00\00\11 \00\00\00\00\00\00\00\00\00\00\00\00\00\00\0C\09\00\00\00\00\00\00\00\00\00\00\00\00\00\00\F2 \0A\0A\0A\0A.version 7.1\0A.target sm_60\0A.address_size 64/\00\FF,isible .entry main_kLoop_maximum__5_1_0___Vec4(\0A.param .u32.\00\0E\11_,\00?_0,6\00!\1716\00/646\00\15\1F26\00\22\1F36\00\22\F3\084\0A)\0A{\0A.reg .pred %p<6>;\12\00\86b32 %r<2\12\00\10f\12\00Ff<17$\00\F2\0064 %rd<15>;\0A\0Ald\85\00\01&\01o%r2, [\8A\00\14<0];>\00\1F3>\00\17s1];\0Amov9\00\B84, %ctaid.x\17\00S5, %t\15\00qad.lo.s\18\00#1,4\00\00\B0\00\C2%r5;\0Asetp.ge8\004p1,%\00\F8\063;\0A@%p1 bra $L__BB0_2\B8\00\02\0D\01\0F\B9\00\18.4]?\00\0F6\01\18\1F3?\00\00\1F1?\00\17s2];\0Ashl\E9\01\136\E8\00S2;\0Aor\14\00\227,\19\00\171\14\00\138\14\00\08(\00\139\14\00\933;\0Amul.hit\01#10\19\00\A0-858993459s\00\14r\1F\00\02\\\01\1509\00\06\95\01#2, \00t10;\0Asub\18\00\133Q\00\00#\00\0Cm\00\01\C5\01\1F7m\00\06#5,%\00\0Dm\00\02P\00\1D5m\00$7,\04\01,16m\00\01\07\01\1F8m\00\06#9,%\00\0Cm\00320, \00\0Am\00421,]\01+20m\00\112\0E\01\1F9m\00\05323,%\00\0Dm\00\02\D8\02\1D3m\00$5,\B6\01\22244\00Cwide\1E\00#d4e\01\824;\0Aadd.sZ\02#5,`\02\00\22\00\01y\02\91global.v4\1A\040{%f\1D\00\10f\AD\00\10f\93\00`f4}, [:\00\17]d\00\02\B4\00\12dt\01\1C3e\00#7,\04\03\00#\00\08e\00\02|\04\125Q\00\1F7Q\00\00#8,\B3\01\0AQ\00\179Q\00\1E8Q\00\126Q\00\1F9Q\00\00\02\BD\02\00\98\01\0AR\00'11S\00.10T\00\127T\00/11U\00\01#2,\80\01\0BU\00\183U\00\1E2U\00\138U\00\223]8\00\02\16\00\00\DE\00\02v\01\185\17\00%10\89\01\196\18\00\151\9C\01\197\18\00\01+\00\00\F7\01#f8\00\05\22le\1C\002p2,h\0030f0\01\00\00\22\00$lp;\00\183\1B\00\03,\00<%p2G\00#3,\98\00\0FH\00\05\1C4H\00\01\C5\00,p3I\00#4,\C9\00\0FI\00\05\1D5I\00\00\F6\00,p4I\00#5,\FA\00\0FI\00\05\1D6I\00\00\0C\01*p5\B9\01#4,\F5\05\02\17\03+st\17\03\01\B6\01R4], {-\01\02\EB\00\02\A8\00\00e\005};\0AM\06\B0:\0Aret;\0A\0A}\0A\00\00\00\00\00\00\00"
@dealloc___gpu___pvoid_pvoid___void = internal constant [35 x i8] c"dealloc___gpu___pvoid_pvoid___void\00"
@ral_gemm___gpu___pvoid_pvoid_m2df32_m2df32_m2df32_i1_i1_i1___void = internal constant [66 x i8] c"ral_gemm___gpu___pvoid_pvoid_m2df32_m2df32_m2df32_i1_i1_i1___void\00"
@alloc___gpu___pvoid_i64___pvoid = internal constant [32 x i8] c"alloc___gpu___pvoid_i64___pvoid\00"
@ral_const___gpu___pvoid_pvoid_pvoid_i32___m1df32 = internal constant [49 x i8] c"ral_const___gpu___pvoid_pvoid_pvoid_i32___m1df32\00"
@ral_const___gpu___pvoid_pvoid_pvoid_i32___m2df32 = internal constant [49 x i8] c"ral_const___gpu___pvoid_pvoid_pvoid_i32___m2df32\00"
@ral_recv_input___cpu___pvoid_i64___m2df32 = internal constant [42 x i8] c"ral_recv_input___cpu___pvoid_i64___m2df32\00"
@__global_const_3 = internal constant [40 x i8] c"3360D7D67DEB9D97DFC48E2E8C19A28A_f32_10\00"
@__global_const_2 = internal constant [40 x i8] c"21438FB9F9F436186309DCC96AB50683_f32_10\00"
@__global_const_1 = internal constant [43 x i8] c"857EE11180CC683A53E2CFB20CC601E6_f32_10x10\00"
@__global_const_0 = internal constant [43 x i8] c"08A51305ABB4B614B7C8F1C7EBAF44D7_f32_10x10\00"

define void @disc_ral_call(ptr nocapture readonly %0, ptr %1, ptr %2) local_unnamed_addr {
entry:
  %3 = load ptr, ptr %0, align 8
  %4 = getelementptr ptr, ptr %0, i64 1
  %5 = load ptr, ptr %4, align 8
  %6 = load ptr, ptr %2, align 8
  store ptr %3, ptr %6, align 8
  tail call void %5(ptr %3, ptr %1, ptr nonnull %2)
  ret void
}

define void @main(ptr nocapture readonly %0) local_unnamed_addr {
  %2 = alloca %0, align 8
  %3 = alloca [3 x ptr], align 8
  store ptr %2, ptr %3, align 8
  %4 = getelementptr inbounds %0, ptr %2, i64 0, i32 1
  store i64 0, ptr %4, align 8
  %5 = getelementptr inbounds ptr, ptr %3, i64 1
  store ptr %4, ptr %5, align 8
  %6 = getelementptr inbounds %0, ptr %2, i64 0, i32 2
  %7 = getelementptr inbounds ptr, ptr %3, i64 2
  store ptr %6, ptr %7, align 8
  %8 = load ptr, ptr %0, align 8
  %9 = getelementptr ptr, ptr %0, i64 1
  %10 = load ptr, ptr %9, align 8
  store ptr %8, ptr %2, align 8
  call void %10(ptr %8, ptr nonnull @ral_recv_input___cpu___pvoid_i64___m2df32, ptr nonnull %3)
  %.fca.0.load53 = load ptr, ptr %6, align 8
  %.fca.1.gep55 = getelementptr inbounds %0, ptr %2, i64 0, i32 2, i32 1
  %.fca.1.load56 = load ptr, ptr %.fca.1.gep55, align 8
  %.fca.3.0.gep61 = getelementptr inbounds %0, ptr %2, i64 0, i32 2, i32 3
  %.fca.3.0.load62 = load i64, ptr %.fca.3.0.gep61, align 8
  %11 = alloca %.1, align 8
  %12 = alloca [5 x ptr], align 8
  store ptr %11, ptr %12, align 8
  %13 = getelementptr inbounds %.1, ptr %11, i64 0, i32 1
  store ptr null, ptr %13, align 8
  %14 = getelementptr inbounds ptr, ptr %12, i64 1
  store ptr %13, ptr %14, align 8
  %15 = getelementptr inbounds %.1, ptr %11, i64 0, i32 2
  store ptr @__global_const_0, ptr %15, align 8
  %16 = getelementptr inbounds ptr, ptr %12, i64 2
  store ptr %15, ptr %16, align 8
  %17 = getelementptr inbounds %.1, ptr %11, i64 0, i32 3
  store i32 0, ptr %17, align 8
  %18 = getelementptr inbounds ptr, ptr %12, i64 3
  store ptr %17, ptr %18, align 8
  %19 = getelementptr inbounds %.1, ptr %11, i64 0, i32 4
  %20 = getelementptr inbounds ptr, ptr %12, i64 4
  store ptr %19, ptr %20, align 8
  %21 = load ptr, ptr %0, align 8
  %22 = load ptr, ptr %9, align 8
  store ptr %21, ptr %11, align 8
  call void %22(ptr %21, ptr nonnull @ral_const___gpu___pvoid_pvoid_pvoid_i32___m2df32, ptr nonnull %12)
  %.fca.0.load32 = load ptr, ptr %19, align 8
  %.fca.1.gep34 = getelementptr inbounds %.1, ptr %11, i64 0, i32 4, i32 1
  %.fca.1.load35 = load ptr, ptr %.fca.1.gep34, align 8
  %.fca.2.gep37 = getelementptr inbounds %.1, ptr %11, i64 0, i32 4, i32 2
  %.fca.2.load38 = load i64, ptr %.fca.2.gep37, align 8
  %.fca.3.0.gep40 = getelementptr inbounds %.1, ptr %11, i64 0, i32 4, i32 3
  %.fca.3.0.load41 = load i64, ptr %.fca.3.0.gep40, align 8
  %.fca.3.1.gep43 = getelementptr inbounds %.1, ptr %11, i64 0, i32 4, i32 3, i64 1
  %.fca.3.1.load44 = load i64, ptr %.fca.3.1.gep43, align 8
  %.fca.4.0.gep46 = getelementptr inbounds %.1, ptr %11, i64 0, i32 4, i32 4
  %.fca.4.0.load47 = load i64, ptr %.fca.4.0.gep46, align 8
  %.fca.4.1.gep49 = getelementptr inbounds %.1, ptr %11, i64 0, i32 4, i32 4, i64 1
  %.fca.4.1.load50 = load i64, ptr %.fca.4.1.gep49, align 8
  %23 = alloca %.2, align 8
  %24 = alloca [5 x ptr], align 8
  store ptr %23, ptr %24, align 8
  %25 = getelementptr inbounds %.2, ptr %23, i64 0, i32 1
  store ptr null, ptr %25, align 8
  %26 = getelementptr inbounds ptr, ptr %24, i64 1
  store ptr %25, ptr %26, align 8
  %27 = getelementptr inbounds %.2, ptr %23, i64 0, i32 2
  store ptr @__global_const_1, ptr %27, align 8
  %28 = getelementptr inbounds ptr, ptr %24, i64 2
  store ptr %27, ptr %28, align 8
  %29 = getelementptr inbounds %.2, ptr %23, i64 0, i32 3
  store i32 1, ptr %29, align 8
  %30 = getelementptr inbounds ptr, ptr %24, i64 3
  store ptr %29, ptr %30, align 8
  %31 = getelementptr inbounds %.2, ptr %23, i64 0, i32 4
  %32 = getelementptr inbounds ptr, ptr %24, i64 4
  store ptr %31, ptr %32, align 8
  %33 = load ptr, ptr %0, align 8
  %34 = load ptr, ptr %9, align 8
  store ptr %33, ptr %23, align 8
  call void %34(ptr %33, ptr nonnull @ral_const___gpu___pvoid_pvoid_pvoid_i32___m2df32, ptr nonnull %24)
  %.fca.0.load17 = load ptr, ptr %31, align 8
  %.fca.1.gep19 = getelementptr inbounds %.2, ptr %23, i64 0, i32 4, i32 1
  %.fca.1.load20 = load ptr, ptr %.fca.1.gep19, align 8
  %.fca.2.gep22 = getelementptr inbounds %.2, ptr %23, i64 0, i32 4, i32 2
  %.fca.2.load23 = load i64, ptr %.fca.2.gep22, align 8
  %.fca.3.0.gep25 = getelementptr inbounds %.2, ptr %23, i64 0, i32 4, i32 3
  %.fca.3.0.load26 = load i64, ptr %.fca.3.0.gep25, align 8
  %.fca.3.1.gep = getelementptr inbounds %.2, ptr %23, i64 0, i32 4, i32 3, i64 1
  %.fca.3.1.load = load i64, ptr %.fca.3.1.gep, align 8
  %.fca.4.0.gep28 = getelementptr inbounds %.2, ptr %23, i64 0, i32 4, i32 4
  %.fca.4.0.load29 = load i64, ptr %.fca.4.0.gep28, align 8
  %.fca.4.1.gep = getelementptr inbounds %.2, ptr %23, i64 0, i32 4, i32 4, i64 1
  %.fca.4.1.load = load i64, ptr %.fca.4.1.gep, align 8
  %35 = alloca %.3, align 8
  %36 = alloca [5 x ptr], align 8
  store ptr %35, ptr %36, align 8
  %37 = getelementptr inbounds %.3, ptr %35, i64 0, i32 1
  store ptr null, ptr %37, align 8
  %38 = getelementptr inbounds ptr, ptr %36, i64 1
  store ptr %37, ptr %38, align 8
  %39 = getelementptr inbounds %.3, ptr %35, i64 0, i32 2
  store ptr @__global_const_2, ptr %39, align 8
  %40 = getelementptr inbounds ptr, ptr %36, i64 2
  store ptr %39, ptr %40, align 8
  %41 = getelementptr inbounds %.3, ptr %35, i64 0, i32 3
  store i32 2, ptr %41, align 8
  %42 = getelementptr inbounds ptr, ptr %36, i64 3
  store ptr %41, ptr %42, align 8
  %43 = getelementptr inbounds %.3, ptr %35, i64 0, i32 4
  %44 = getelementptr inbounds ptr, ptr %36, i64 4
  store ptr %43, ptr %44, align 8
  %45 = load ptr, ptr %0, align 8
  %46 = load ptr, ptr %9, align 8
  store ptr %45, ptr %35, align 8
  call void %46(ptr %45, ptr nonnull @ral_const___gpu___pvoid_pvoid_pvoid_i32___m1df32, ptr nonnull %36)
  %.fca.0.load2 = load ptr, ptr %43, align 8
  %.fca.1.gep4 = getelementptr inbounds %.3, ptr %35, i64 0, i32 4, i32 1
  %.fca.1.load5 = load ptr, ptr %.fca.1.gep4, align 8
  %47 = alloca %.4, align 8
  %48 = alloca [5 x ptr], align 8
  store ptr %47, ptr %48, align 8
  %49 = getelementptr inbounds %.4, ptr %47, i64 0, i32 1
  store ptr null, ptr %49, align 8
  %50 = getelementptr inbounds ptr, ptr %48, i64 1
  store ptr %49, ptr %50, align 8
  %51 = getelementptr inbounds %.4, ptr %47, i64 0, i32 2
  store ptr @__global_const_3, ptr %51, align 8
  %52 = getelementptr inbounds ptr, ptr %48, i64 2
  store ptr %51, ptr %52, align 8
  %53 = getelementptr inbounds %.4, ptr %47, i64 0, i32 3
  store i32 3, ptr %53, align 8
  %54 = getelementptr inbounds ptr, ptr %48, i64 3
  store ptr %53, ptr %54, align 8
  %55 = getelementptr inbounds %.4, ptr %47, i64 0, i32 4
  %56 = getelementptr inbounds ptr, ptr %48, i64 4
  store ptr %55, ptr %56, align 8
  %57 = load ptr, ptr %0, align 8
  %58 = load ptr, ptr %9, align 8
  store ptr %57, ptr %47, align 8
  call void %58(ptr %57, ptr nonnull @ral_const___gpu___pvoid_pvoid_pvoid_i32___m1df32, ptr nonnull %48)
  %.fca.0.load = load ptr, ptr %55, align 8
  %.fca.1.gep = getelementptr inbounds %.4, ptr %47, i64 0, i32 4, i32 1
  %.fca.1.load = load ptr, ptr %.fca.1.gep, align 8
  %59 = mul i64 %.fca.3.0.load62, 10
  %.idx = mul i64 %.fca.3.0.load62, 40
  %60 = alloca %.5, align 8
  %61 = alloca [3 x ptr], align 8
  store ptr %60, ptr %61, align 8
  %62 = getelementptr inbounds %.5, ptr %60, i64 0, i32 1
  store i64 %.idx, ptr %62, align 8
  %63 = getelementptr inbounds ptr, ptr %61, i64 1
  store ptr %62, ptr %63, align 8
  %64 = getelementptr inbounds %.5, ptr %60, i64 0, i32 2
  %65 = getelementptr inbounds ptr, ptr %61, i64 2
  store ptr %64, ptr %65, align 8
  %66 = load ptr, ptr %0, align 8
  %67 = load ptr, ptr %9, align 8
  store ptr %66, ptr %60, align 8
  call void %67(ptr %66, ptr nonnull @alloc___gpu___pvoid_i64___pvoid, ptr nonnull %61)
  %68 = load ptr, ptr %64, align 8
  %69 = alloca %.6, align 8
  %70 = alloca [26 x ptr], align 8
  store ptr %69, ptr %70, align 8
  %71 = getelementptr inbounds %.6, ptr %69, i64 0, i32 1
  store ptr null, ptr %71, align 8
  %72 = getelementptr inbounds ptr, ptr %70, i64 1
  store ptr %71, ptr %72, align 8
  %73 = getelementptr inbounds %.6, ptr %69, i64 0, i32 2
  store ptr %.fca.0.load53, ptr %73, align 8
  %74 = getelementptr inbounds ptr, ptr %70, i64 2
  store ptr %73, ptr %74, align 8
  %75 = getelementptr inbounds %.6, ptr %69, i64 0, i32 3
  store ptr %.fca.1.load56, ptr %75, align 8
  %76 = getelementptr inbounds ptr, ptr %70, i64 3
  store ptr %75, ptr %76, align 8
  %77 = getelementptr inbounds %.6, ptr %69, i64 0, i32 4
  store i64 0, ptr %77, align 8
  %78 = getelementptr inbounds ptr, ptr %70, i64 4
  store ptr %77, ptr %78, align 8
  %79 = getelementptr inbounds %.6, ptr %69, i64 0, i32 5
  store i64 %.fca.3.0.load62, ptr %79, align 8
  %80 = getelementptr inbounds ptr, ptr %70, i64 5
  store ptr %79, ptr %80, align 8
  %81 = getelementptr inbounds %.6, ptr %69, i64 0, i32 6
  store i64 10, ptr %81, align 8
  %82 = getelementptr inbounds ptr, ptr %70, i64 6
  store ptr %81, ptr %82, align 8
  %83 = getelementptr inbounds %.6, ptr %69, i64 0, i32 7
  store i64 10, ptr %83, align 8
  %84 = getelementptr inbounds ptr, ptr %70, i64 7
  store ptr %83, ptr %84, align 8
  %85 = getelementptr inbounds %.6, ptr %69, i64 0, i32 8
  store i64 1, ptr %85, align 8
  %86 = getelementptr inbounds ptr, ptr %70, i64 8
  store ptr %85, ptr %86, align 8
  %87 = getelementptr inbounds %.6, ptr %69, i64 0, i32 9
  store ptr %.fca.0.load17, ptr %87, align 8
  %88 = getelementptr inbounds ptr, ptr %70, i64 9
  store ptr %87, ptr %88, align 8
  %89 = getelementptr inbounds %.6, ptr %69, i64 0, i32 10
  store ptr %.fca.1.load20, ptr %89, align 8
  %90 = getelementptr inbounds ptr, ptr %70, i64 10
  store ptr %89, ptr %90, align 8
  %91 = getelementptr inbounds %.6, ptr %69, i64 0, i32 11
  store i64 %.fca.2.load23, ptr %91, align 8
  %92 = getelementptr inbounds ptr, ptr %70, i64 11
  store ptr %91, ptr %92, align 8
  %93 = getelementptr inbounds %.6, ptr %69, i64 0, i32 12
  store i64 %.fca.3.0.load26, ptr %93, align 8
  %94 = getelementptr inbounds ptr, ptr %70, i64 12
  store ptr %93, ptr %94, align 8
  %95 = getelementptr inbounds %.6, ptr %69, i64 0, i32 13
  store i64 %.fca.3.1.load, ptr %95, align 8
  %96 = getelementptr inbounds ptr, ptr %70, i64 13
  store ptr %95, ptr %96, align 8
  %97 = getelementptr inbounds %.6, ptr %69, i64 0, i32 14
  store i64 %.fca.4.0.load29, ptr %97, align 8
  %98 = getelementptr inbounds ptr, ptr %70, i64 14
  store ptr %97, ptr %98, align 8
  %99 = getelementptr inbounds %.6, ptr %69, i64 0, i32 15
  store i64 %.fca.4.1.load, ptr %99, align 8
  %100 = getelementptr inbounds ptr, ptr %70, i64 15
  store ptr %99, ptr %100, align 8
  %101 = getelementptr inbounds %.6, ptr %69, i64 0, i32 16
  store ptr %68, ptr %101, align 8
  %102 = getelementptr inbounds ptr, ptr %70, i64 16
  store ptr %101, ptr %102, align 8
  %103 = getelementptr inbounds %.6, ptr %69, i64 0, i32 17
  store ptr %68, ptr %103, align 8
  %104 = getelementptr inbounds ptr, ptr %70, i64 17
  store ptr %103, ptr %104, align 8
  %105 = getelementptr inbounds %.6, ptr %69, i64 0, i32 18
  store i64 0, ptr %105, align 8
  %106 = getelementptr inbounds ptr, ptr %70, i64 18
  store ptr %105, ptr %106, align 8
  %107 = getelementptr inbounds %.6, ptr %69, i64 0, i32 19
  store i64 %.fca.3.0.load62, ptr %107, align 8
  %108 = getelementptr inbounds ptr, ptr %70, i64 19
  store ptr %107, ptr %108, align 8
  %109 = getelementptr inbounds %.6, ptr %69, i64 0, i32 20
  store i64 10, ptr %109, align 8
  %110 = getelementptr inbounds ptr, ptr %70, i64 20
  store ptr %109, ptr %110, align 8
  %111 = getelementptr inbounds %.6, ptr %69, i64 0, i32 21
  store i64 10, ptr %111, align 8
  %112 = getelementptr inbounds ptr, ptr %70, i64 21
  store ptr %111, ptr %112, align 8
  %113 = getelementptr inbounds %.6, ptr %69, i64 0, i32 22
  store i64 1, ptr %113, align 8
  %114 = getelementptr inbounds ptr, ptr %70, i64 22
  store ptr %113, ptr %114, align 8
  %115 = getelementptr inbounds %.6, ptr %69, i64 0, i32 23
  store i1 false, ptr %115, align 8
  %116 = getelementptr inbounds ptr, ptr %70, i64 23
  store ptr %115, ptr %116, align 8
  %117 = getelementptr inbounds %.6, ptr %69, i64 0, i32 24
  store i1 false, ptr %117, align 1
  %118 = getelementptr inbounds ptr, ptr %70, i64 24
  store ptr %117, ptr %118, align 8
  %119 = getelementptr inbounds %.6, ptr %69, i64 0, i32 25
  store i1 true, ptr %119, align 2
  %120 = getelementptr inbounds ptr, ptr %70, i64 25
  store ptr %119, ptr %120, align 8
  %121 = load ptr, ptr %0, align 8
  %122 = load ptr, ptr %9, align 8
  store ptr %121, ptr %69, align 8
  call void %122(ptr %121, ptr nonnull @ral_gemm___gpu___pvoid_pvoid_m2df32_m2df32_m2df32_i1_i1_i1___void, ptr nonnull %70)
  %123 = alloca %.7, align 8
  %124 = alloca [2 x ptr], align 8
  store ptr %123, ptr %124, align 8
  %125 = getelementptr inbounds %.7, ptr %123, i64 0, i32 1
  store ptr %.fca.0.load17, ptr %125, align 8
  %126 = getelementptr inbounds ptr, ptr %124, i64 1
  store ptr %125, ptr %126, align 8
  %127 = load ptr, ptr %0, align 8
  %128 = load ptr, ptr %9, align 8
  store ptr %127, ptr %123, align 8
  call void %128(ptr %127, ptr nonnull @dealloc___gpu___pvoid_pvoid___void, ptr nonnull %124)
  %129 = and i64 %59, 2
  %130 = icmp eq i64 %129, 0
  %131 = alloca %.8, align 8
  %132 = alloca [3 x ptr], align 8
  store ptr %131, ptr %132, align 8
  %133 = getelementptr inbounds %.8, ptr %131, i64 0, i32 1
  store i64 %.idx, ptr %133, align 8
  %134 = getelementptr inbounds ptr, ptr %132, i64 1
  store ptr %133, ptr %134, align 8
  %135 = getelementptr inbounds %.8, ptr %131, i64 0, i32 2
  %136 = getelementptr inbounds ptr, ptr %132, i64 2
  store ptr %135, ptr %136, align 8
  %137 = load ptr, ptr %0, align 8
  %138 = load ptr, ptr %9, align 8
  store ptr %137, ptr %131, align 8
  call void %138(ptr %137, ptr nonnull @alloc___gpu___pvoid_i64___pvoid, ptr nonnull %132)
  %139 = load ptr, ptr %135, align 8
  br i1 %130, label %140, label %193

140:                                              ; preds = %1
  %141 = lshr i64 %59, 2
  %142 = icmp ult i64 %59, 4
  %143 = sub nsw i64 0, %141
  %144 = add nsw i64 %141, -1
  %145 = select i1 %142, i64 %143, i64 %144
  %146 = sdiv i64 %145, 256
  %147 = sub nsw i64 0, %146
  %148 = add nsw i64 %146, 1
  %149 = select i1 %142, i64 %147, i64 %148
  %150 = alloca [3 x ptr], align 8
  store ptr @main_kernel_blob_gpu.binary_compute_60, ptr %150, align 8
  %151 = getelementptr inbounds ptr, ptr %150, i64 1
  store ptr @main_kernel_blob_gpu.binary_sm_70, ptr %151, align 8
  %152 = getelementptr inbounds ptr, ptr %150, i64 2
  store ptr @main_kernel_blob_gpu.binary_sm_75, ptr %152, align 8
  %153 = alloca %.9, align 8
  %154 = alloca [5 x ptr], align 8
  store i64 256, ptr %153, align 8
  store ptr %153, ptr %154, align 8
  %155 = getelementptr inbounds %.9, ptr %153, i64 0, i32 1
  store i64 %141, ptr %155, align 8
  %156 = getelementptr inbounds ptr, ptr %154, i64 1
  store ptr %155, ptr %156, align 8
  %157 = getelementptr inbounds %.9, ptr %153, i64 0, i32 2
  store ptr %68, ptr %157, align 8
  %158 = getelementptr inbounds ptr, ptr %154, i64 2
  store ptr %157, ptr %158, align 8
  %159 = getelementptr inbounds %.9, ptr %153, i64 0, i32 3
  store ptr %.fca.1.load5, ptr %159, align 8
  %160 = getelementptr inbounds ptr, ptr %154, i64 3
  store ptr %159, ptr %160, align 8
  %161 = getelementptr inbounds %.9, ptr %153, i64 0, i32 4
  store ptr %139, ptr %161, align 8
  %162 = getelementptr inbounds ptr, ptr %154, i64 4
  store ptr %161, ptr %162, align 8
  %163 = alloca %.10, align 8
  %164 = alloca [14 x ptr], align 8
  store ptr %163, ptr %164, align 8
  %165 = getelementptr inbounds %.10, ptr %163, i64 0, i32 1
  store ptr %150, ptr %165, align 8
  %166 = getelementptr inbounds ptr, ptr %164, i64 1
  store ptr %165, ptr %166, align 8
  %167 = getelementptr inbounds %.10, ptr %163, i64 0, i32 2
  store i64 3, ptr %167, align 8
  %168 = getelementptr inbounds ptr, ptr %164, i64 2
  store ptr %167, ptr %168, align 8
  %169 = getelementptr inbounds %.10, ptr %163, i64 0, i32 3
  store ptr @main_kernel_main_kLoop_maximum__5_1_0___Vec4_kernel_name, ptr %169, align 8
  %170 = getelementptr inbounds ptr, ptr %164, i64 3
  store ptr %169, ptr %170, align 8
  %171 = getelementptr inbounds %.10, ptr %163, i64 0, i32 4
  store i64 %149, ptr %171, align 8
  %172 = getelementptr inbounds ptr, ptr %164, i64 4
  store ptr %171, ptr %172, align 8
  %173 = getelementptr inbounds %.10, ptr %163, i64 0, i32 5
  store i64 1, ptr %173, align 8
  %174 = getelementptr inbounds ptr, ptr %164, i64 5
  store ptr %173, ptr %174, align 8
  %175 = getelementptr inbounds %.10, ptr %163, i64 0, i32 6
  store i64 1, ptr %175, align 8
  %176 = getelementptr inbounds ptr, ptr %164, i64 6
  store ptr %175, ptr %176, align 8
  %177 = getelementptr inbounds %.10, ptr %163, i64 0, i32 7
  store i64 256, ptr %177, align 8
  %178 = getelementptr inbounds ptr, ptr %164, i64 7
  store ptr %177, ptr %178, align 8
  %179 = getelementptr inbounds %.10, ptr %163, i64 0, i32 8
  store i64 1, ptr %179, align 8
  %180 = getelementptr inbounds ptr, ptr %164, i64 8
  store ptr %179, ptr %180, align 8
  %181 = getelementptr inbounds %.10, ptr %163, i64 0, i32 9
  store i64 1, ptr %181, align 8
  %182 = getelementptr inbounds ptr, ptr %164, i64 9
  store ptr %181, ptr %182, align 8
  %183 = getelementptr inbounds %.10, ptr %163, i64 0, i32 10
  store i32 0, ptr %183, align 8
  %184 = getelementptr inbounds ptr, ptr %164, i64 10
  store ptr %183, ptr %184, align 8
  %185 = getelementptr inbounds %.10, ptr %163, i64 0, i32 11
  store ptr null, ptr %185, align 8
  %186 = getelementptr inbounds ptr, ptr %164, i64 11
  store ptr %185, ptr %186, align 8
  %187 = getelementptr inbounds %.10, ptr %163, i64 0, i32 12
  store i32 5, ptr %187, align 8
  %188 = getelementptr inbounds ptr, ptr %164, i64 12
  store ptr %187, ptr %188, align 8
  %189 = getelementptr inbounds %.10, ptr %163, i64 0, i32 13
  store ptr %154, ptr %189, align 8
  %190 = getelementptr inbounds ptr, ptr %164, i64 13
  store ptr %189, ptr %190, align 8
  %191 = load ptr, ptr %0, align 8
  %192 = load ptr, ptr %9, align 8
  store ptr %191, ptr %163, align 8
  call void %192(ptr %191, ptr nonnull @ral_kernel_launch___gpu___pvoid_ppvoid_i64_pvoid_i64_i64_i64_i64_i64_i64_i32_pvoid_i32_ppvoid___void, ptr nonnull %164)
  br label %245

193:                                              ; preds = %1
  %194 = icmp slt i64 %59, 1
  %195 = sub i64 0, %59
  %196 = add i64 %59, -1
  %197 = select i1 %194, i64 %195, i64 %196
  %198 = sdiv i64 %197, 256
  %199 = sub nsw i64 0, %198
  %200 = add nsw i64 %198, 1
  %201 = select i1 %194, i64 %199, i64 %200
  %202 = alloca [3 x ptr], align 8
  store ptr @main_kernel_0_blob_gpu.binary_compute_60, ptr %202, align 8
  %203 = getelementptr inbounds ptr, ptr %202, i64 1
  store ptr @main_kernel_0_blob_gpu.binary_sm_70, ptr %203, align 8
  %204 = getelementptr inbounds ptr, ptr %202, i64 2
  store ptr @main_kernel_0_blob_gpu.binary_sm_75, ptr %204, align 8
  %205 = alloca %.25, align 8
  %206 = alloca [5 x ptr], align 8
  store i64 256, ptr %205, align 8
  store ptr %205, ptr %206, align 8
  %207 = getelementptr inbounds %.25, ptr %205, i64 0, i32 1
  store i64 %59, ptr %207, align 8
  %208 = getelementptr inbounds ptr, ptr %206, i64 1
  store ptr %207, ptr %208, align 8
  %209 = getelementptr inbounds %.25, ptr %205, i64 0, i32 2
  store ptr %68, ptr %209, align 8
  %210 = getelementptr inbounds ptr, ptr %206, i64 2
  store ptr %209, ptr %210, align 8
  %211 = getelementptr inbounds %.25, ptr %205, i64 0, i32 3
  store ptr %.fca.1.load5, ptr %211, align 8
  %212 = getelementptr inbounds ptr, ptr %206, i64 3
  store ptr %211, ptr %212, align 8
  %213 = getelementptr inbounds %.25, ptr %205, i64 0, i32 4
  store ptr %139, ptr %213, align 8
  %214 = getelementptr inbounds ptr, ptr %206, i64 4
  store ptr %213, ptr %214, align 8
  %215 = alloca %.26, align 8
  %216 = alloca [14 x ptr], align 8
  store ptr %215, ptr %216, align 8
  %217 = getelementptr inbounds %.26, ptr %215, i64 0, i32 1
  store ptr %202, ptr %217, align 8
  %218 = getelementptr inbounds ptr, ptr %216, i64 1
  store ptr %217, ptr %218, align 8
  %219 = getelementptr inbounds %.26, ptr %215, i64 0, i32 2
  store i64 3, ptr %219, align 8
  %220 = getelementptr inbounds ptr, ptr %216, i64 2
  store ptr %219, ptr %220, align 8
  %221 = getelementptr inbounds %.26, ptr %215, i64 0, i32 3
  store ptr @main_kernel_0_main_kLoop_maximum__5_1_0_kernel_name, ptr %221, align 8
  %222 = getelementptr inbounds ptr, ptr %216, i64 3
  store ptr %221, ptr %222, align 8
  %223 = getelementptr inbounds %.26, ptr %215, i64 0, i32 4
  store i64 %201, ptr %223, align 8
  %224 = getelementptr inbounds ptr, ptr %216, i64 4
  store ptr %223, ptr %224, align 8
  %225 = getelementptr inbounds %.26, ptr %215, i64 0, i32 5
  store i64 1, ptr %225, align 8
  %226 = getelementptr inbounds ptr, ptr %216, i64 5
  store ptr %225, ptr %226, align 8
  %227 = getelementptr inbounds %.26, ptr %215, i64 0, i32 6
  store i64 1, ptr %227, align 8
  %228 = getelementptr inbounds ptr, ptr %216, i64 6
  store ptr %227, ptr %228, align 8
  %229 = getelementptr inbounds %.26, ptr %215, i64 0, i32 7
  store i64 256, ptr %229, align 8
  %230 = getelementptr inbounds ptr, ptr %216, i64 7
  store ptr %229, ptr %230, align 8
  %231 = getelementptr inbounds %.26, ptr %215, i64 0, i32 8
  store i64 1, ptr %231, align 8
  %232 = getelementptr inbounds ptr, ptr %216, i64 8
  store ptr %231, ptr %232, align 8
  %233 = getelementptr inbounds %.26, ptr %215, i64 0, i32 9
  store i64 1, ptr %233, align 8
  %234 = getelementptr inbounds ptr, ptr %216, i64 9
  store ptr %233, ptr %234, align 8
  %235 = getelementptr inbounds %.26, ptr %215, i64 0, i32 10
  store i32 0, ptr %235, align 8
  %236 = getelementptr inbounds ptr, ptr %216, i64 10
  store ptr %235, ptr %236, align 8
  %237 = getelementptr inbounds %.26, ptr %215, i64 0, i32 11
  store ptr null, ptr %237, align 8
  %238 = getelementptr inbounds ptr, ptr %216, i64 11
  store ptr %237, ptr %238, align 8
  %239 = getelementptr inbounds %.26, ptr %215, i64 0, i32 12
  store i32 5, ptr %239, align 8
  %240 = getelementptr inbounds ptr, ptr %216, i64 12
  store ptr %239, ptr %240, align 8
  %241 = getelementptr inbounds %.26, ptr %215, i64 0, i32 13
  store ptr %206, ptr %241, align 8
  %242 = getelementptr inbounds ptr, ptr %216, i64 13
  store ptr %241, ptr %242, align 8
  %243 = load ptr, ptr %0, align 8
  %244 = load ptr, ptr %9, align 8
  store ptr %243, ptr %215, align 8
  call void %244(ptr %243, ptr nonnull @ral_kernel_launch___gpu___pvoid_ppvoid_i64_pvoid_i64_i64_i64_i64_i64_i64_i32_pvoid_i32_ppvoid___void, ptr nonnull %216)
  br label %245

245:                                              ; preds = %140, %193
  %246 = alloca %.11, align 8
  %247 = alloca [2 x ptr], align 8
  store ptr %246, ptr %247, align 8
  %248 = getelementptr inbounds %.11, ptr %246, i64 0, i32 1
  store ptr %68, ptr %248, align 8
  %249 = getelementptr inbounds ptr, ptr %247, i64 1
  store ptr %248, ptr %249, align 8
  %250 = load ptr, ptr %0, align 8
  %251 = load ptr, ptr %9, align 8
  store ptr %250, ptr %246, align 8
  call void %251(ptr %250, ptr nonnull @dealloc___gpu___pvoid_pvoid___void, ptr nonnull %247)
  %252 = alloca %.12, align 8
  %253 = alloca [2 x ptr], align 8
  store ptr %252, ptr %253, align 8
  %254 = getelementptr inbounds %.12, ptr %252, i64 0, i32 1
  store ptr %.fca.0.load2, ptr %254, align 8
  %255 = getelementptr inbounds ptr, ptr %253, i64 1
  store ptr %254, ptr %255, align 8
  %256 = load ptr, ptr %0, align 8
  %257 = load ptr, ptr %9, align 8
  store ptr %256, ptr %252, align 8
  call void %257(ptr %256, ptr nonnull @dealloc___gpu___pvoid_pvoid___void, ptr nonnull %253)
  %258 = alloca %.13, align 8
  %259 = alloca [3 x ptr], align 8
  store ptr %258, ptr %259, align 8
  %260 = getelementptr inbounds %.13, ptr %258, i64 0, i32 1
  store i64 %.idx, ptr %260, align 8
  %261 = getelementptr inbounds ptr, ptr %259, i64 1
  store ptr %260, ptr %261, align 8
  %262 = getelementptr inbounds %.13, ptr %258, i64 0, i32 2
  %263 = getelementptr inbounds ptr, ptr %259, i64 2
  store ptr %262, ptr %263, align 8
  %264 = load ptr, ptr %0, align 8
  %265 = load ptr, ptr %9, align 8
  store ptr %264, ptr %258, align 8
  call void %265(ptr %264, ptr nonnull @alloc___gpu___pvoid_i64___pvoid, ptr nonnull %259)
  %266 = load ptr, ptr %262, align 8
  %267 = alloca %.14, align 8
  %268 = alloca [26 x ptr], align 8
  store ptr %267, ptr %268, align 8
  %269 = getelementptr inbounds %.14, ptr %267, i64 0, i32 1
  store ptr null, ptr %269, align 8
  %270 = getelementptr inbounds ptr, ptr %268, i64 1
  store ptr %269, ptr %270, align 8
  %271 = getelementptr inbounds %.14, ptr %267, i64 0, i32 2
  store ptr %139, ptr %271, align 8
  %272 = getelementptr inbounds ptr, ptr %268, i64 2
  store ptr %271, ptr %272, align 8
  %273 = getelementptr inbounds %.14, ptr %267, i64 0, i32 3
  store ptr %139, ptr %273, align 8
  %274 = getelementptr inbounds ptr, ptr %268, i64 3
  store ptr %273, ptr %274, align 8
  %275 = getelementptr inbounds %.14, ptr %267, i64 0, i32 4
  store i64 0, ptr %275, align 8
  %276 = getelementptr inbounds ptr, ptr %268, i64 4
  store ptr %275, ptr %276, align 8
  %277 = getelementptr inbounds %.14, ptr %267, i64 0, i32 5
  store i64 %.fca.3.0.load62, ptr %277, align 8
  %278 = getelementptr inbounds ptr, ptr %268, i64 5
  store ptr %277, ptr %278, align 8
  %279 = getelementptr inbounds %.14, ptr %267, i64 0, i32 6
  store i64 10, ptr %279, align 8
  %280 = getelementptr inbounds ptr, ptr %268, i64 6
  store ptr %279, ptr %280, align 8
  %281 = getelementptr inbounds %.14, ptr %267, i64 0, i32 7
  store i64 10, ptr %281, align 8
  %282 = getelementptr inbounds ptr, ptr %268, i64 7
  store ptr %281, ptr %282, align 8
  %283 = getelementptr inbounds %.14, ptr %267, i64 0, i32 8
  store i64 1, ptr %283, align 8
  %284 = getelementptr inbounds ptr, ptr %268, i64 8
  store ptr %283, ptr %284, align 8
  %285 = getelementptr inbounds %.14, ptr %267, i64 0, i32 9
  store ptr %.fca.0.load32, ptr %285, align 8
  %286 = getelementptr inbounds ptr, ptr %268, i64 9
  store ptr %285, ptr %286, align 8
  %287 = getelementptr inbounds %.14, ptr %267, i64 0, i32 10
  store ptr %.fca.1.load35, ptr %287, align 8
  %288 = getelementptr inbounds ptr, ptr %268, i64 10
  store ptr %287, ptr %288, align 8
  %289 = getelementptr inbounds %.14, ptr %267, i64 0, i32 11
  store i64 %.fca.2.load38, ptr %289, align 8
  %290 = getelementptr inbounds ptr, ptr %268, i64 11
  store ptr %289, ptr %290, align 8
  %291 = getelementptr inbounds %.14, ptr %267, i64 0, i32 12
  store i64 %.fca.3.0.load41, ptr %291, align 8
  %292 = getelementptr inbounds ptr, ptr %268, i64 12
  store ptr %291, ptr %292, align 8
  %293 = getelementptr inbounds %.14, ptr %267, i64 0, i32 13
  store i64 %.fca.3.1.load44, ptr %293, align 8
  %294 = getelementptr inbounds ptr, ptr %268, i64 13
  store ptr %293, ptr %294, align 8
  %295 = getelementptr inbounds %.14, ptr %267, i64 0, i32 14
  store i64 %.fca.4.0.load47, ptr %295, align 8
  %296 = getelementptr inbounds ptr, ptr %268, i64 14
  store ptr %295, ptr %296, align 8
  %297 = getelementptr inbounds %.14, ptr %267, i64 0, i32 15
  store i64 %.fca.4.1.load50, ptr %297, align 8
  %298 = getelementptr inbounds ptr, ptr %268, i64 15
  store ptr %297, ptr %298, align 8
  %299 = getelementptr inbounds %.14, ptr %267, i64 0, i32 16
  store ptr %266, ptr %299, align 8
  %300 = getelementptr inbounds ptr, ptr %268, i64 16
  store ptr %299, ptr %300, align 8
  %301 = getelementptr inbounds %.14, ptr %267, i64 0, i32 17
  store ptr %266, ptr %301, align 8
  %302 = getelementptr inbounds ptr, ptr %268, i64 17
  store ptr %301, ptr %302, align 8
  %303 = getelementptr inbounds %.14, ptr %267, i64 0, i32 18
  store i64 0, ptr %303, align 8
  %304 = getelementptr inbounds ptr, ptr %268, i64 18
  store ptr %303, ptr %304, align 8
  %305 = getelementptr inbounds %.14, ptr %267, i64 0, i32 19
  store i64 %.fca.3.0.load62, ptr %305, align 8
  %306 = getelementptr inbounds ptr, ptr %268, i64 19
  store ptr %305, ptr %306, align 8
  %307 = getelementptr inbounds %.14, ptr %267, i64 0, i32 20
  store i64 10, ptr %307, align 8
  %308 = getelementptr inbounds ptr, ptr %268, i64 20
  store ptr %307, ptr %308, align 8
  %309 = getelementptr inbounds %.14, ptr %267, i64 0, i32 21
  store i64 10, ptr %309, align 8
  %310 = getelementptr inbounds ptr, ptr %268, i64 21
  store ptr %309, ptr %310, align 8
  %311 = getelementptr inbounds %.14, ptr %267, i64 0, i32 22
  store i64 1, ptr %311, align 8
  %312 = getelementptr inbounds ptr, ptr %268, i64 22
  store ptr %311, ptr %312, align 8
  %313 = getelementptr inbounds %.14, ptr %267, i64 0, i32 23
  store i1 false, ptr %313, align 8
  %314 = getelementptr inbounds ptr, ptr %268, i64 23
  store ptr %313, ptr %314, align 8
  %315 = getelementptr inbounds %.14, ptr %267, i64 0, i32 24
  store i1 false, ptr %315, align 1
  %316 = getelementptr inbounds ptr, ptr %268, i64 24
  store ptr %315, ptr %316, align 8
  %317 = getelementptr inbounds %.14, ptr %267, i64 0, i32 25
  store i1 true, ptr %317, align 2
  %318 = getelementptr inbounds ptr, ptr %268, i64 25
  store ptr %317, ptr %318, align 8
  %319 = load ptr, ptr %0, align 8
  %320 = load ptr, ptr %9, align 8
  store ptr %319, ptr %267, align 8
  call void %320(ptr %319, ptr nonnull @ral_gemm___gpu___pvoid_pvoid_m2df32_m2df32_m2df32_i1_i1_i1___void, ptr nonnull %268)
  %321 = alloca %.15, align 8
  %322 = alloca [2 x ptr], align 8
  store ptr %321, ptr %322, align 8
  %323 = getelementptr inbounds %.15, ptr %321, i64 0, i32 1
  store ptr %139, ptr %323, align 8
  %324 = getelementptr inbounds ptr, ptr %322, i64 1
  store ptr %323, ptr %324, align 8
  %325 = load ptr, ptr %0, align 8
  %326 = load ptr, ptr %9, align 8
  store ptr %325, ptr %321, align 8
  call void %326(ptr %325, ptr nonnull @dealloc___gpu___pvoid_pvoid___void, ptr nonnull %322)
  %327 = alloca %.16, align 8
  %328 = alloca [2 x ptr], align 8
  store ptr %327, ptr %328, align 8
  %329 = getelementptr inbounds %.16, ptr %327, i64 0, i32 1
  store ptr %.fca.0.load32, ptr %329, align 8
  %330 = getelementptr inbounds ptr, ptr %328, i64 1
  store ptr %329, ptr %330, align 8
  %331 = load ptr, ptr %0, align 8
  %332 = load ptr, ptr %9, align 8
  store ptr %331, ptr %327, align 8
  call void %332(ptr %331, ptr nonnull @dealloc___gpu___pvoid_pvoid___void, ptr nonnull %328)
  %333 = alloca %.17, align 8
  %334 = alloca [3 x ptr], align 8
  store ptr %333, ptr %334, align 8
  %335 = getelementptr inbounds %.17, ptr %333, i64 0, i32 1
  store i64 %.idx, ptr %335, align 8
  %336 = getelementptr inbounds ptr, ptr %334, i64 1
  store ptr %335, ptr %336, align 8
  %337 = getelementptr inbounds %.17, ptr %333, i64 0, i32 2
  %338 = getelementptr inbounds ptr, ptr %334, i64 2
  store ptr %337, ptr %338, align 8
  %339 = load ptr, ptr %0, align 8
  %340 = load ptr, ptr %9, align 8
  store ptr %339, ptr %333, align 8
  call void %340(ptr %339, ptr nonnull @alloc___gpu___pvoid_i64___pvoid, ptr nonnull %334)
  %341 = load ptr, ptr %337, align 8
  br i1 %130, label %342, label %395

342:                                              ; preds = %245
  %343 = lshr i64 %59, 2
  %344 = icmp ult i64 %59, 4
  %345 = sub nsw i64 0, %343
  %346 = add nsw i64 %343, -1
  %347 = select i1 %344, i64 %345, i64 %346
  %348 = sdiv i64 %347, 256
  %349 = sub nsw i64 0, %348
  %350 = add nsw i64 %348, 1
  %351 = select i1 %344, i64 %349, i64 %350
  %352 = alloca [3 x ptr], align 8
  store ptr @main_kernel_1_blob_gpu.binary_compute_60, ptr %352, align 8
  %353 = getelementptr inbounds ptr, ptr %352, i64 1
  store ptr @main_kernel_1_blob_gpu.binary_sm_70, ptr %353, align 8
  %354 = getelementptr inbounds ptr, ptr %352, i64 2
  store ptr @main_kernel_1_blob_gpu.binary_sm_75, ptr %354, align 8
  %355 = alloca %.18, align 8
  %356 = alloca [5 x ptr], align 8
  store i64 256, ptr %355, align 8
  store ptr %355, ptr %356, align 8
  %357 = getelementptr inbounds %.18, ptr %355, i64 0, i32 1
  store i64 %343, ptr %357, align 8
  %358 = getelementptr inbounds ptr, ptr %356, i64 1
  store ptr %357, ptr %358, align 8
  %359 = getelementptr inbounds %.18, ptr %355, i64 0, i32 2
  store ptr %.fca.1.load, ptr %359, align 8
  %360 = getelementptr inbounds ptr, ptr %356, i64 2
  store ptr %359, ptr %360, align 8
  %361 = getelementptr inbounds %.18, ptr %355, i64 0, i32 3
  store ptr %266, ptr %361, align 8
  %362 = getelementptr inbounds ptr, ptr %356, i64 3
  store ptr %361, ptr %362, align 8
  %363 = getelementptr inbounds %.18, ptr %355, i64 0, i32 4
  store ptr %341, ptr %363, align 8
  %364 = getelementptr inbounds ptr, ptr %356, i64 4
  store ptr %363, ptr %364, align 8
  %365 = alloca %.19, align 8
  %366 = alloca [14 x ptr], align 8
  store ptr %365, ptr %366, align 8
  %367 = getelementptr inbounds %.19, ptr %365, i64 0, i32 1
  store ptr %352, ptr %367, align 8
  %368 = getelementptr inbounds ptr, ptr %366, i64 1
  store ptr %367, ptr %368, align 8
  %369 = getelementptr inbounds %.19, ptr %365, i64 0, i32 2
  store i64 3, ptr %369, align 8
  %370 = getelementptr inbounds ptr, ptr %366, i64 2
  store ptr %369, ptr %370, align 8
  %371 = getelementptr inbounds %.19, ptr %365, i64 0, i32 3
  store ptr @main_kernel_1_main_kLoop_maximum__5_1_1___Vec4_kernel_name, ptr %371, align 8
  %372 = getelementptr inbounds ptr, ptr %366, i64 3
  store ptr %371, ptr %372, align 8
  %373 = getelementptr inbounds %.19, ptr %365, i64 0, i32 4
  store i64 %351, ptr %373, align 8
  %374 = getelementptr inbounds ptr, ptr %366, i64 4
  store ptr %373, ptr %374, align 8
  %375 = getelementptr inbounds %.19, ptr %365, i64 0, i32 5
  store i64 1, ptr %375, align 8
  %376 = getelementptr inbounds ptr, ptr %366, i64 5
  store ptr %375, ptr %376, align 8
  %377 = getelementptr inbounds %.19, ptr %365, i64 0, i32 6
  store i64 1, ptr %377, align 8
  %378 = getelementptr inbounds ptr, ptr %366, i64 6
  store ptr %377, ptr %378, align 8
  %379 = getelementptr inbounds %.19, ptr %365, i64 0, i32 7
  store i64 256, ptr %379, align 8
  %380 = getelementptr inbounds ptr, ptr %366, i64 7
  store ptr %379, ptr %380, align 8
  %381 = getelementptr inbounds %.19, ptr %365, i64 0, i32 8
  store i64 1, ptr %381, align 8
  %382 = getelementptr inbounds ptr, ptr %366, i64 8
  store ptr %381, ptr %382, align 8
  %383 = getelementptr inbounds %.19, ptr %365, i64 0, i32 9
  store i64 1, ptr %383, align 8
  %384 = getelementptr inbounds ptr, ptr %366, i64 9
  store ptr %383, ptr %384, align 8
  %385 = getelementptr inbounds %.19, ptr %365, i64 0, i32 10
  store i32 0, ptr %385, align 8
  %386 = getelementptr inbounds ptr, ptr %366, i64 10
  store ptr %385, ptr %386, align 8
  %387 = getelementptr inbounds %.19, ptr %365, i64 0, i32 11
  store ptr null, ptr %387, align 8
  %388 = getelementptr inbounds ptr, ptr %366, i64 11
  store ptr %387, ptr %388, align 8
  %389 = getelementptr inbounds %.19, ptr %365, i64 0, i32 12
  store i32 5, ptr %389, align 8
  %390 = getelementptr inbounds ptr, ptr %366, i64 12
  store ptr %389, ptr %390, align 8
  %391 = getelementptr inbounds %.19, ptr %365, i64 0, i32 13
  store ptr %356, ptr %391, align 8
  %392 = getelementptr inbounds ptr, ptr %366, i64 13
  store ptr %391, ptr %392, align 8
  %393 = load ptr, ptr %0, align 8
  %394 = load ptr, ptr %9, align 8
  store ptr %393, ptr %365, align 8
  call void %394(ptr %393, ptr nonnull @ral_kernel_launch___gpu___pvoid_ppvoid_i64_pvoid_i64_i64_i64_i64_i64_i64_i32_pvoid_i32_ppvoid___void, ptr nonnull %366)
  br label %447

395:                                              ; preds = %245
  %396 = icmp slt i64 %59, 1
  %397 = sub i64 0, %59
  %398 = add i64 %59, -1
  %399 = select i1 %396, i64 %397, i64 %398
  %400 = sdiv i64 %399, 256
  %401 = sub nsw i64 0, %400
  %402 = add nsw i64 %400, 1
  %403 = select i1 %396, i64 %401, i64 %402
  %404 = alloca [3 x ptr], align 8
  store ptr @main_kernel_2_blob_gpu.binary_compute_60, ptr %404, align 8
  %405 = getelementptr inbounds ptr, ptr %404, i64 1
  store ptr @main_kernel_2_blob_gpu.binary_sm_70, ptr %405, align 8
  %406 = getelementptr inbounds ptr, ptr %404, i64 2
  store ptr @main_kernel_2_blob_gpu.binary_sm_75, ptr %406, align 8
  %407 = alloca %.23, align 8
  %408 = alloca [5 x ptr], align 8
  store i64 256, ptr %407, align 8
  store ptr %407, ptr %408, align 8
  %409 = getelementptr inbounds %.23, ptr %407, i64 0, i32 1
  store i64 %59, ptr %409, align 8
  %410 = getelementptr inbounds ptr, ptr %408, i64 1
  store ptr %409, ptr %410, align 8
  %411 = getelementptr inbounds %.23, ptr %407, i64 0, i32 2
  store ptr %266, ptr %411, align 8
  %412 = getelementptr inbounds ptr, ptr %408, i64 2
  store ptr %411, ptr %412, align 8
  %413 = getelementptr inbounds %.23, ptr %407, i64 0, i32 3
  store ptr %.fca.1.load, ptr %413, align 8
  %414 = getelementptr inbounds ptr, ptr %408, i64 3
  store ptr %413, ptr %414, align 8
  %415 = getelementptr inbounds %.23, ptr %407, i64 0, i32 4
  store ptr %341, ptr %415, align 8
  %416 = getelementptr inbounds ptr, ptr %408, i64 4
  store ptr %415, ptr %416, align 8
  %417 = alloca %.24, align 8
  %418 = alloca [14 x ptr], align 8
  store ptr %417, ptr %418, align 8
  %419 = getelementptr inbounds %.24, ptr %417, i64 0, i32 1
  store ptr %404, ptr %419, align 8
  %420 = getelementptr inbounds ptr, ptr %418, i64 1
  store ptr %419, ptr %420, align 8
  %421 = getelementptr inbounds %.24, ptr %417, i64 0, i32 2
  store i64 3, ptr %421, align 8
  %422 = getelementptr inbounds ptr, ptr %418, i64 2
  store ptr %421, ptr %422, align 8
  %423 = getelementptr inbounds %.24, ptr %417, i64 0, i32 3
  store ptr @main_kernel_2_main_kLoop_maximum__5_1_1_kernel_name, ptr %423, align 8
  %424 = getelementptr inbounds ptr, ptr %418, i64 3
  store ptr %423, ptr %424, align 8
  %425 = getelementptr inbounds %.24, ptr %417, i64 0, i32 4
  store i64 %403, ptr %425, align 8
  %426 = getelementptr inbounds ptr, ptr %418, i64 4
  store ptr %425, ptr %426, align 8
  %427 = getelementptr inbounds %.24, ptr %417, i64 0, i32 5
  store i64 1, ptr %427, align 8
  %428 = getelementptr inbounds ptr, ptr %418, i64 5
  store ptr %427, ptr %428, align 8
  %429 = getelementptr inbounds %.24, ptr %417, i64 0, i32 6
  store i64 1, ptr %429, align 8
  %430 = getelementptr inbounds ptr, ptr %418, i64 6
  store ptr %429, ptr %430, align 8
  %431 = getelementptr inbounds %.24, ptr %417, i64 0, i32 7
  store i64 256, ptr %431, align 8
  %432 = getelementptr inbounds ptr, ptr %418, i64 7
  store ptr %431, ptr %432, align 8
  %433 = getelementptr inbounds %.24, ptr %417, i64 0, i32 8
  store i64 1, ptr %433, align 8
  %434 = getelementptr inbounds ptr, ptr %418, i64 8
  store ptr %433, ptr %434, align 8
  %435 = getelementptr inbounds %.24, ptr %417, i64 0, i32 9
  store i64 1, ptr %435, align 8
  %436 = getelementptr inbounds ptr, ptr %418, i64 9
  store ptr %435, ptr %436, align 8
  %437 = getelementptr inbounds %.24, ptr %417, i64 0, i32 10
  store i32 0, ptr %437, align 8
  %438 = getelementptr inbounds ptr, ptr %418, i64 10
  store ptr %437, ptr %438, align 8
  %439 = getelementptr inbounds %.24, ptr %417, i64 0, i32 11
  store ptr null, ptr %439, align 8
  %440 = getelementptr inbounds ptr, ptr %418, i64 11
  store ptr %439, ptr %440, align 8
  %441 = getelementptr inbounds %.24, ptr %417, i64 0, i32 12
  store i32 5, ptr %441, align 8
  %442 = getelementptr inbounds ptr, ptr %418, i64 12
  store ptr %441, ptr %442, align 8
  %443 = getelementptr inbounds %.24, ptr %417, i64 0, i32 13
  store ptr %408, ptr %443, align 8
  %444 = getelementptr inbounds ptr, ptr %418, i64 13
  store ptr %443, ptr %444, align 8
  %445 = load ptr, ptr %0, align 8
  %446 = load ptr, ptr %9, align 8
  store ptr %445, ptr %417, align 8
  call void %446(ptr %445, ptr nonnull @ral_kernel_launch___gpu___pvoid_ppvoid_i64_pvoid_i64_i64_i64_i64_i64_i64_i32_pvoid_i32_ppvoid___void, ptr nonnull %418)
  br label %447

447:                                              ; preds = %342, %395
  %448 = alloca %.20, align 8
  %449 = alloca [2 x ptr], align 8
  store ptr %448, ptr %449, align 8
  %450 = getelementptr inbounds %.20, ptr %448, i64 0, i32 1
  store ptr %266, ptr %450, align 8
  %451 = getelementptr inbounds ptr, ptr %449, i64 1
  store ptr %450, ptr %451, align 8
  %452 = load ptr, ptr %0, align 8
  %453 = load ptr, ptr %9, align 8
  store ptr %452, ptr %448, align 8
  call void %453(ptr %452, ptr nonnull @dealloc___gpu___pvoid_pvoid___void, ptr nonnull %449)
  %454 = alloca %.21, align 8
  %455 = alloca [2 x ptr], align 8
  store ptr %454, ptr %455, align 8
  %456 = getelementptr inbounds %.21, ptr %454, i64 0, i32 1
  store ptr %.fca.0.load, ptr %456, align 8
  %457 = getelementptr inbounds ptr, ptr %455, i64 1
  store ptr %456, ptr %457, align 8
  %458 = load ptr, ptr %0, align 8
  %459 = load ptr, ptr %9, align 8
  store ptr %458, ptr %454, align 8
  call void %459(ptr %458, ptr nonnull @dealloc___gpu___pvoid_pvoid___void, ptr nonnull %455)
  %460 = alloca %.22, align 8
  %461 = alloca [9 x ptr], align 8
  store ptr %460, ptr %461, align 8
  %462 = getelementptr inbounds %.22, ptr %460, i64 0, i32 1
  store i64 0, ptr %462, align 8
  %463 = getelementptr inbounds ptr, ptr %461, i64 1
  store ptr %462, ptr %463, align 8
  %464 = getelementptr inbounds %.22, ptr %460, i64 0, i32 2
  store ptr %341, ptr %464, align 8
  %465 = getelementptr inbounds ptr, ptr %461, i64 2
  store ptr %464, ptr %465, align 8
  %466 = getelementptr inbounds %.22, ptr %460, i64 0, i32 3
  store ptr %341, ptr %466, align 8
  %467 = getelementptr inbounds ptr, ptr %461, i64 3
  store ptr %466, ptr %467, align 8
  %468 = getelementptr inbounds %.22, ptr %460, i64 0, i32 4
  store i64 0, ptr %468, align 8
  %469 = getelementptr inbounds ptr, ptr %461, i64 4
  store ptr %468, ptr %469, align 8
  %470 = getelementptr inbounds %.22, ptr %460, i64 0, i32 5
  store i64 %.fca.3.0.load62, ptr %470, align 8
  %471 = getelementptr inbounds ptr, ptr %461, i64 5
  store ptr %470, ptr %471, align 8
  %472 = getelementptr inbounds %.22, ptr %460, i64 0, i32 6
  store i64 10, ptr %472, align 8
  %473 = getelementptr inbounds ptr, ptr %461, i64 6
  store ptr %472, ptr %473, align 8
  %474 = getelementptr inbounds %.22, ptr %460, i64 0, i32 7
  store i64 10, ptr %474, align 8
  %475 = getelementptr inbounds ptr, ptr %461, i64 7
  store ptr %474, ptr %475, align 8
  %476 = getelementptr inbounds %.22, ptr %460, i64 0, i32 8
  store i64 1, ptr %476, align 8
  %477 = getelementptr inbounds ptr, ptr %461, i64 8
  store ptr %476, ptr %477, align 8
  %478 = load ptr, ptr %0, align 8
  %479 = load ptr, ptr %9, align 8
  store ptr %478, ptr %460, align 8
  call void %479(ptr %478, ptr nonnull @ral_send_output___cpu___pvoid_i64_m2df32___void, ptr nonnull %461)
  ret void
}

[DISC] LowerLLVMToBinary takes: 5.141000e-02 s.
object file to shared library command: gcc --shared -o /tmp/tmpr1pyb_1n/tmp8ym64dtg.so /tmp/tmpr1pyb_1n/tmp8ym64dtg.so.o
save shared lib file to : /tmp/tmpr1pyb_1n/tmp8ym64dtg.so
[DISC] BinaryStrToSharedLibrary takes: 1.193130e-01 s.
[DISC] LowerHLOToSharedLibrary takes: 1.709506e+00 s.
